DrosophilaLabRot/data_store/network_compare/2nd_order_1hop_min_mbon/10_mbons/trained_nets/min_2nd_order_5000ep_1hop_N07.pt (torch_old, 26783 bytes, 4 tensors)

W_recur f4 [80, 80]
00000000: 5100 1bbf fd4a 8c3e dc62 9a3e 6de9 c7be
00000010: 7d6c 09be 3d7f 1c3f 84ef 21be 235e 923e
00000020: c150 3c3e 2719 8d3d 1544 0d3e 25a9 d8bc
00000030: 89dc 943d cbdc 1fbe 86c9 1b3e 1997 c13d
00000040: 1e4a 07be 4bef 913d e2b6 86bd a514 083c
00000050: 7b9b adbd b617 203d 2af4 503e 5381 283e
00000060: 07b4 313e 054f 1cbd 2181 55bc e4f8 81bd
00000070: d540 103c 90c1 3d3c ecb5 273e 3ce4 34bd
00000080: 0b5d 95bb f894 fc3d 17bb 083e db47 0a3d
00000090: 82cc 05be 8235 833d cdb6 4b3e c1da 20be
000000a0: 5968 f3bd 485e 803e 8927 6dbe 17cd 0bbd
000000b0: f435 0a3d 2d64 96bd 6450 8dbd fde4 17bb
000000c0: d544 993b f54b 9c3d e767 9dbd 58fd 523d
000000d0: 9752 96bd 4bea 3c3c 8891 563e 8fd9 043a
000000e0: c4ba 29bd 774c 25bd 21e5 333e 5900 0e3d
000000f0: 237b 9fbd f363 93bb 6745 453d 759f 873d
00000100: 1a1b a8bd e335 843d a7d4 cfbc d4ba 82bd
00000110: 3b38 a33d 689d 9ebd c03b c13e d541 1a3f
00000120: 0010 673e d385 7d3e 33b8 7a3e e204 46be
00000130: 5083 ca3c dd60 30be 1a82 c6bd d691 99be
00000140: c45a 94be c884 2ebe c222 f33d 45d6 fc3e
00000150: 850c a73e 5320 c0be 1f76 e7be 8b9c 693d
00000160: 88f7 383e ebd4 d1be 484b a43d 3258 713d
00000170: 4a5b 3a3d d12d 15bd 8298 a13d eae3 4cbd
00000180: 2fa6 c5bd c0a2 383e be95 493c b649 253e
00000190: 7982 1c3d aafa 0d3e 286f f33d 2032 273d
000001a0: 9105 90be 5fad 75bc dcc8 b4bd fdd8 14be
000001b0: 63c1 8bbd 4902 2d3d b363 8f3c 26c6 c4bd
000001c0: 4673 02be f2dc 243e c5f5 dd3c 644a 5ebd
000001d0: 5832 fb3a a805 ef3b 9eba 18be 8d37 00be
000001e0: ea83 f7bc 4099 783c cec6 09be 4922 db3c
000001f0: 1e21 6f3e 36c2 2e3d 0981 3d3d 987c 0cbc
00000200: 0ca8 ea3d ac6a 82bd 0c55 213e e82e d2bd
00000210: 290f e5bd 23a9 8dbd 0785 67bd 414d 9abd
00000220: 4de6 2fbe 8368 00be 31e6 1a3d eb5e 1f3e
00000230: e4a7 163c e2aa a3bd 6ff6 ecbc 6a99 24be
00000240: a65b d9bc dbe4 283e 571a 853d 7f06 c9bd
00000250: 3929 78bd b88f 2cbd 49a5 89be 2e0b 773d
00000260: c96b 063c 2afa e33d 624d 88bb c6d6 5b3e
00000270: de08 84be d874 cc3e 3cda 35be 4fb8 81bd
00000280: 77b7 163e eaf4 e6be a21c a9be 6ca0 e53e
00000290: 2f60 c5bd cc60 9f3e 51db 8c3e 107a 933d
000002a0: 62f3 b5bd 9bf5 ee3d c3ab 4a3d 469d 733d
000002b0: e802 203c 112a 14bd 060f 0c3d b88e 333e
000002c0: fcd7 f8bd 5925 01be ff2b 9ebd 66a2 fb3d
000002d0: 47df a73d 80be a5bd 581a 6fbd 5f54 e0bd
000002e0: dac1 f23d 14f3 f73d 62bb bc3c e09c a33d
000002f0: 997d 913d aba1 6f3e 9f0c 883d 489b 533c
00000300: a0ec a73d 0d73 69bc eb5d 9cbc dcf9 19be
00000310: 5152 4a3d b4c3 27be f843 c93d 19b0 85be
00000320: 4bfa bf3c 7ac3 9e3c 3bcb dabd 2d10 d73d
00000330: c07e e3bd 539e 5d3d 64ee 28ba 7a78 bbbd
00000340: c538 e0bd a800 e4bd 9f6f 9dbc 3c3f 2ebd
00000350: 5cdb 1a3c be3b 86bd 5ffb 32be a5db 833d
00000360: ef5d 01bd 012c 07be de4b 1fbd b1b3 603e
00000370: 6bc1 70bd c86c a6bc 624e 29be 5fa9 c2bc
00000380: 0170 75bd 3052 633e d27e a3be 65a0 823d
00000390: 2a68 eabd 00df 973b bcc3 c9bd b5d2 66be
000003a0: f36d 293d bb86 ac3e 9397 b03e fd84 aebe
000003b0: b116 32be 4133 43be 1f72 01be 23fe a73c
000003c0: 4248 90bd 5d6d c23e 1faf bebe 1689 ecbe
000003d0: 4d48 03bf ffe7 073f 7829 543e 5718 2d3e
000003e0: 9050 753e f644 a53c dfd2 a93d 9125 68bd
000003f0: a4e2 11be fbfe bbbd cccd b4bd eca8 e63d
-0.6054736 0.27400962 0.3015355 -0.39045277 -0.13420291 0.6113165 -0.15814024 0.28587446
0.1839018 0.06889563 0.13795502 -0.026447842 0.07268626 -0.1561157 0.15213594 0.09452648
-0.13211867 0.0712572 -0.06577851 0.008305703 -0.08476921 0.039085113 0.20405641 0.16455583
0.17353831 -0.038161296 -0.013031275 -0.063463 0.00880452 0.011581793 0.16377991 -0.044162974
-0.0045582107 0.12333101 0.13352619 0.033759933 -0.13066295 0.0640669 0.19893952 -0.15708448
-0.11885137 0.2507193 -0.23159613 -0.034131136 0.03374286 -0.07343326 -0.06900099 -0.002317726
0.004677395 0.07631675 -0.076858334 0.05151114 -0.073399715 0.011530469 0.20953953 0.0005067819
-0.04143788 -0.040356126 0.17567874 0.0346683 -0.07787158 -0.004497999 0.04816189 0.06622211
-0.08208294 0.064555906 -0.025369955 -0.06383291 0.079697095 -0.077448666 0.37740898 0.602567
0.22564697 0.24758081 0.24484329 -0.193378 0.024720818 -0.1722445 -0.09692784 -0.29994076
-0.289755 -0.1704284 0.11871864 0.49382225 0.3262674 -0.3752466 -0.45207307 0.057034057
0.18063176 -0.40982756 0.08022171 0.058922 0.045497216 -0.036420647 0.07890417 -0.050022043
-0.09650838 0.18030834 0.012303768 0.161414 0.038210366 0.13865152 0.11886436 0.040819287
-0.28129247 -0.014994948 -0.088273734 -0.145359 -0.06823995 0.042238507 0.017503595 -0.09608106
-0.12739286 0.16099909 0.027094731 -0.054270163 0.0019164784 0.0072943754 -0.14914939 -0.12521191
-0.030214269 0.015173256 -0.13454744 0.026749747 0.23352477 0.042665683 0.046265636 -0.008574627
0.11457834 -0.06368002 0.15755099 -0.10262853 -0.11184532 -0.06917026 -0.05652335 -0.07534266
-0.17177697 -0.12539868 0.037817184 0.15563552 0.009195302 -0.07991578 -0.028926102 -0.16074148
-0.02653296 0.16493551 0.064991646 -0.09815692 -0.060586188 -0.04212925 -0.26883915 0.060313396
0.008204409 0.111316994 -0.0041596154 0.21468648 -0.25788015 0.39932895 -0.17759031 -0.06333982
0.14718424 -0.4510873 -0.33029658 0.44848955 -0.09637486 0.31128538 0.27511075 0.07201016
-0.08884312 0.11667939 0.04948021 0.05947616 0.009766318 -0.03617293 0.034194015 0.17534912
-0.12150571 -0.12611903 -0.07723235 0.122868344 0.08196884 -0.080929756 -0.058374733 -0.109535925
0.118533805 0.1210691 0.02303857 0.07988906 0.07104034 0.23401515 0.06643032 0.01291544
0.081994295 -0.014248622 -0.019087752 -0.1503672 0.04939491 -0.16383249 0.09827417 -0.26110914
0.023434779 0.01938032 -0.106832944 0.10501132 -0.1110816 0.054106068 -0.00064442144 -0.091538385
-0.10948328 -0.11132938 -0.019218264 -0.042540774 0.009451713 -0.06554364 -0.17478703 0.06438378
-0.031583723 -0.1320038 -0.038890712 0.21943547 -0.058778208 -0.020315543 -0.16533807 -0.023762403
-0.05992127 0.22199321 -0.31932694 0.06378249 -0.11445649 0.004634738 -0.098517865 -0.22541316
0.04136462 0.3369654 0.34490642 -0.34085837 -0.17391469 -0.1906252 -0.1264119 0.020506924
-0.07045032 0.37974063 -0.37242982 -0.46198338 -0.512822 0.5308837 0.20718944 0.16903816
0.23956513 0.020174485 0.082921736 -0.05667645 -0.14246613 -0.09179493 -0.08828315 0.11262688

W_readout f4 [1, 10]
00000000: 7754 823f 6293 80bf cfcb 14bf 8e13 073f
00000010: 8d60 163f cbf0 c4be cf2e 033f e078 36bf
00000020: 5cab 51be 364c 513e
1.0182027 -1.0044978 -0.5812349 0.52764213 0.58741075 -0.3846496 0.512433 -0.7127819
-0.20475525 0.20439228

bias f4 [80]
00000000: 4b95 a03d d340 b53d 5359 133e 4e6a d23d
00000010: 56f9 f23d 0b30 243e 1b09 b73d 997d a03c
00000020: 791e 953d 7135 663d cdcc cc3d cdcc cc3d
00000030: cdcc cc3d cdcc cc3d cdcc cc3d cdcc cc3d
00000040: cdcc cc3d cdcc cc3d cdcc cc3d cdcc cc3d
00000050: cdcc cc3d cdcc cc3d cdcc cc3d cdcc cc3d
00000060: cdcc cc3d cdcc cc3d cdcc cc3d cdcc cc3d
00000070: cdcc cc3d cdcc cc3d cdcc cc3d cdcc cc3d
00000080: cdcc cc3d cdcc cc3d cdcc cc3d cdcc cc3d
00000090: cdcc cc3d cdcc cc3d cdcc cc3d cdcc cc3d
000000a0: cdcc cc3d cdcc cc3d cdcc cc3d cdcc cc3d
000000b0: cdcc cc3d cdcc cc3d cdcc cc3d cdcc cc3d
000000c0: cdcc cc3d cdcc cc3d cdcc cc3d cdcc cc3d
000000d0: cdcc cc3d cdcc cc3d cdcc cc3d cdcc cc3d
000000e0: cdcc cc3d cdcc cc3d cdcc cc3d cdcc cc3d
000000f0: cdcc cc3d cdcc cc3d cdcc cc3d cdcc cc3d
00000100: cdcc cc3d cdcc cc3d cdcc cc3d cdcc cc3d
00000110: cdcc cc3d cdcc cc3d d999 383d f1e0 05bc
00000120: c27a 083d 3a92 1ebf 7160 3b3d 62c6 32be
00000130: b0cc 873c f913 313b c404 8e3d 007a 083e
0.078409754 0.08850255 0.14389543 0.10274182 0.11863963 0.16033952 0.089372836 0.01959114
0.07281203 0.05620331 0.1 0.1 0.1 0.1 0.1 0.1
0.1 0.1 0.1 0.1 0.1 0.1 0.1 0.1
0.1 0.1 0.1 0.1 0.1 0.1 0.1 0.1
0.1 0.1 0.1 0.1 0.1 0.1 0.1 0.1
0.1 0.1 0.1 0.1 0.1 0.1 0.1 0.1
0.1 0.1 0.1 0.1 0.1 0.1 0.1 0.1
0.1 0.1 0.1 0.1 0.1 0.1 0.1 0.1
0.1 0.1 0.1 0.1 0.1 0.1 0.045068596 -0.008171306
0.033320196 -0.61941874 0.04574627 -0.1745849 0.016577095 0.0027019961 0.06934503 0.1332779

W_ext f4 [10, 2]
00000000: c8f6 3c3e 7523 0cbf d4a1 d43e cc02 1f3e
00000010: efdb cebf 8afc b43d c4ea 453f 7320 ae3f
00000020: 88d4 88bd 7ba3 f1bf c0d4 2a3f b197 58be
00000030: 6baf 2c3c 76ae 9d3e 6c82 b23e 6808 413e
00000040: 9cb3 b13e 7557 e8be bcc4 31be c8c3 85bf
0.18453515 -0.54741603 0.41529715 0.1552841 -1.6160868 0.088372305 0.7731135 1.3603653
-0.06681162 -1.8878015 0.6673088 -0.21151616 0.01053987 0.30797166 0.3486513 0.18850863
0.34707344 -0.45379224 -0.17360204 -1.0450373
