DrosophilaLabRot/data_store/mbon_sensitivity/first_order_nets/trained_nets/32_mbons/first_order_2000ep_1hop_N19.pt (torch_old, 63127 bytes, 4 tensors)

W_recur f4 [124, 124]
00000000: 124f abbe 8bdd c43d 9572 0abd a3d6 82be
00000010: 4501 4abe 6533 253d 1451 30be cd04 84bd
00000020: 047c 3a3e 9d23 a83e 727a a7be 4582 21be
00000030: ec1f 38be fe2e a0be 6664 78bd 5ef4 bd3e
00000040: 13ba d8bd fc25 a1bc 5ede 783b aba8 06be
00000050: 1542 2c3e eade 92be 69cb af3d 2fc2 c83c
00000060: a84a 0abe 2053 c0bd 9ed8 37be d95f b43d
00000070: e83d 82be 5184 68bb ae23 00bf 43e8 c3bd
00000080: 316c 3b3e 7142 c33c 446b f3bb cdcb e3bc
00000090: 353d 133e a82f afbd dbca c83d 7429 d1bd
000000a0: d5fa bd3d 6677 3abe 1f7c 73be 2ec1 0b3e
000000b0: add8 c83c 3ba8 a3bd cfe0 dfbd 0312 a8bd
000000c0: 88dd 09be 4c08 74bc 5829 253d f0a4 febd
000000d0: 6299 dcbd 41e6 2f3e 24f9 563e 289e 0f3d
000000e0: 7cb2 2e3e 2900 0ebe 1277 043e a0b9 ecbb
000000f0: 52b1 2abe 2894 8ebd 1dc1 213e 0e06 24be
00000100: d0a9 903d 1bc2 bc3d fe83 00be b2ec 823d
00000110: bbee a53b 7d69 773e 4d40 d93c 577f 13bd
00000120: 87b9 1c39 33ef e53c 7aee 183d bd51 23be
00000130: 6088 68bd 1177 a4bc 7794 5d3d 2cd6 123e
00000140: b8d3 6cbd b5df aabd 07ac d4bb 4281 b73d
00000150: bde1 e6bd 658f 83bd 3f79 5ebe 43f0 7d3e
00000160: 51bb 18bb 8da0 553d 26cc d1bc b8d8 56be
00000170: 9b05 dbbd db8f a83d 4c04 1f3d cfe1 dbbc
00000180: 692b 29be 641a 453e 1e69 84bc fe5e 093e
00000190: 1dc8 72be 8735 3b3e b1f1 aabd 6d47 1abd
000001a0: 4c38 a9bd 4f97 0abd 5116 f93c 705b 58bd
000001b0: 93c4 663d ffa5 6dbe 96b2 a6bc 51a9 303d
000001c0: 6dce 333e dcec 27be bad3 3f3d e669 8c3d
000001d0: ecf2 a4bc 36c8 c13d e763 b13d b130 7b3e
000001e0: 3f17 14bd ab22 5a3e 6b32 01be 772a 9b3c
000001f0: b8d3 b0be 723b 383e 1f6b 7fbd e7ff 363e
00000200: ebd7 633d 3005 953e 5872 433c 05ee 5dbe
00000210: 3fcb 8abd a8fb 2f3e 5d66 3d3d bd91 333d
00000220: 7dd3 4f3d dabc f6bd 76cb 033e 1cdf d1bd
00000230: 4e84 e1be e528 0d3e e574 ca3d 2329 673d
00000240: fb8f 8e3d 03d8 2f3e 924c 543d 154c 6ebd
00000250: 48ff dc3d 0541 54bd 0e96 87be d8a8 cebd
00000260: 5b79 11be a9ad 05be 75e5 34be 59e2 ba3e
00000270: 96ea 4fbe fcbd f6bd 126a 6a3d 8a78 a13d
00000280: 03f2 abbd cb64 3abd 65d0 29be 3e01 e5ba
00000290: 5a12 9a3c 54c3 643e 597e d83d 6727 8e3e
000002a0: ad96 233e af97 703d 851e 613d 1f67 d3bd
000002b0: 9b3c f03c fbdc 12bd 884b 51bb c217 45be
000002c0: 34d3 c4bd 8f32 0abe 4b5f f13d 4f7c 9d3d
000002d0: 6796 743d e217 41bd 585b 38bc 8c27 6abc
000002e0: f7dd 05ba 30e6 333d 3c86 b43d 492c 053d
000002f0: 5d2c c23c 007d 29bb f2da e5bd d176 d03d
00000300: 42eb 663d e4af 1e3d e024 9b3e 7560 2ebd
00000310: a3e1 42bd 0b89 133e 5f0a cebd 72ad 1b3e
00000320: 41c9 563d 6824 91bc feb6 77bd 2599 c8bc
00000330: ba0c a5bd d0bc 53bd d603 50be f333 003d
00000340: 4432 e1bd 67b2 3dbe 4553 b0bd 7f63 f9bc
00000350: bb5f 2ebe 42eb ba3c e9d9 ad3e f3c1 eebc
00000360: caff 973d 6830 783e 211d 78bc 2f9d 3a3e
00000370: f7c4 d73d 11d7 3f3c 4056 94bd 0965 f93d
00000380: 66fe 30be a961 0f3e 2522 183e 56b4 32be
00000390: 1da6 a0bd 1611 63be 8cf3 ae3c cb97 edbd
000003a0: 6447 383c bfa3 193e a0cd de3d b45d c93b
000003b0: 69fe db3d 0e33 8abd 3978 e9bd d5fd 683c
000003c0: 8049 853d 0903 8b3e 249f bebd 7c1a e4bd
000003d0: bae5 46bb 4b0c 0b3e 3a16 ec3d dd8a 383c
000003e0: a9fe 48be 2c5a 233d e4e9 1dbe 7c89 e4bc
000003f0: acc6 dc3d 8706 2ebe 6906 cf3d c49d 4a3e
-0.33458763 0.096125685 -0.03380068 -0.2555438 -0.19727047 0.040332217 -0.17218429 -0.06446228
0.1821137 0.3283967 -0.32710606 -0.1577235 -0.17980927 -0.31285852 -0.060642622 0.371005
-0.10582366 -0.019671433 0.0037974338 -0.13150279 0.16822083 -0.28685695 0.08583719 0.024506656
-0.13505042 -0.09390855 -0.17953727 0.08807344 -0.25437856 -0.0035479257 -0.5005444 -0.09565785
0.1830299 0.023835393 -0.0074285585 -0.02780714 0.14378817 -0.085540116 0.098043166 -0.10212985
0.09276358 -0.1820961 -0.23777817 0.13647911 0.024517382 -0.07991072 -0.10931551 -0.082065605
-0.13463414 -0.014894556 0.04032263 -0.12433803 -0.10771443 0.17177679 0.20993477 0.03506294
0.17060274 -0.13867249 0.12936047 -0.0072242767 -0.16669205 -0.06961852 0.15796323 -0.16017935
0.07063639 0.0921671 -0.12550351 0.06392802 0.0050638593 0.24161334 0.026519919 -0.036010113
0.00014946434 0.02806816 0.037336804 -0.1594915 -0.056770682 -0.020076307 0.054096665 0.14339513
-0.0578191 -0.0834345 -0.006490234 0.08960201 -0.11273525 -0.06423835 -0.21725939 0.24798684
-0.0023305009 0.052155066 -0.02561004 -0.20981109 -0.106944285 0.08230563 0.038822457 -0.026841072
-0.16520466 0.19248348 -0.016163405 0.13415143 -0.2370915 0.18282138 -0.0834688 -0.037665773
-0.08262691 -0.033835705 0.03040615 -0.052821577 0.05633981 -0.23207854 -0.020348828 0.043130223
0.17559214 -0.16398948 0.046832778 0.06856136 -0.020135365 0.09462015 0.08661633 0.24530293
-0.03615498 0.21302287 -0.12616889 0.018941147 -0.3453653 0.17991427 -0.062358018 0.17871056
0.055625837 0.2910552 0.011929117 -0.21672828 -0.06777047 0.17185843 0.0462402 0.04384016
0.0507388 -0.12047739 0.12870583 -0.10247633 -0.44046253 0.13785131 0.09885577 0.056435715
0.06961056 0.17172246 0.051830836 -0.058178026 0.107908785 -0.05181982 -0.2648167 -0.10090798
-0.1420645 -0.13054527 -0.17665656 0.36500815 -0.20304331 -0.120479554 0.057230063 0.07884319
-0.083957694 -0.04550628 -0.16583402 -0.0017471684 0.018807579 0.22340137 0.10570974 0.27764437
0.15975447 0.058738407 0.054960746 -0.10322403 0.029325774 -0.035855275 -0.003193589 -0.19247344
-0.09610596 -0.13495849 0.11785754 0.076897256 0.059713747 -0.047141917 -0.011252247 -0.014291655
-0.00051066227 0.043920696 0.08814666 0.032512937 0.023702795 -0.002586186 -0.11223401 0.101789124
0.056376703 0.03874196 0.3030157 -0.042572457 -0.047578465 0.14407746 -0.10060572 0.15202883
0.052438024 -0.017717555 -0.06047725 -0.024487088 -0.08059068 -0.051693738 -0.20313963 0.031299543
-0.109959155 -0.18525086 -0.086096324 -0.030442951 -0.17028706 0.022817258 0.33955315 -0.029145217
0.07421835 0.24237216 -0.015143664 0.18224023 0.10535615 0.011708991 -0.072430134 0.12177474
-0.17284545 0.14002098 0.14856775 -0.17451605 -0.078441836 -0.22174487 0.021356367 -0.11601218
0.01124749 0.1500387 0.108790636 0.0061452035 0.10741884 -0.06748019 -0.11399884 0.0142206745
0.0650816 0.27150753 -0.093076974 -0.11137864 -0.003034933 0.13578908 0.11527677 0.011263576
-0.19628395 0.039880916 -0.15421253 -0.027897589 0.10780081 -0.16994677 0.101086445 0.19786745

W_readout f4 [1, 32]
00000000: e53b 47be ad6b dfbd 74b3 59be 1ad9 72be
00000010: 489c 723e 47a6 563e d13f ae3d cc53 473e
00000020: b825 e5be 58e8 a63d 8b63 5ebe aa5a 6fbd
00000030: ac7b 873e f1d1 45bd 886f 3ebe 06d1 3cbe
00000040: bea7 ed3d 6fa1 11bd e12f 00be 966e 1bbd
00000050: 3b9b 0d3e fa8e 9c3e db51 863c 1610 0c3f
00000060: dc6e bf3e 5875 19be 19e3 95be c69e 4e3e
00000070: ed5a 1abd d7e5 2dbe d919 81be cfac 5c3e
-0.19456442 -0.109092094 -0.21259862 -0.2371563 0.23692429 0.20961867 0.08508266 0.1946556
-0.4475534 0.08149785 -0.2171766 -0.058436073 0.26461542 -0.04829592 -0.18597233 -0.18439111
0.1160426 -0.035554346 -0.12518264 -0.03794726 0.13828747 0.30577832 0.016396454 0.54712045
0.37389266 -0.1498617 -0.29274824 0.20177755 -0.03768437 -0.16982208 -0.25215033 0.21550296

bias f4 [124]
00000000: 4ae5 623d 7eb7 d53d 7b90 713d ccb2 ff3d
00000010: e4da cd3d 66c9 1a3e 2728 903d 717b 733d
00000020: 0e27 cd3d 1bc4 e33d c2da 613d d179 123e
00000030: 9b0b 893d cd25 bc3d 1312 023e 6d42 6d3d
00000040: 90d5 ef3d 46c6 483e 7c3d a63d f9e8 0d3e
00000050: 78fd ca3d df0f be3d bd78 cf3d 17b9 893d
00000060: 4f21 b43d b202 a53d d752 813d 8272 0f3e
00000070: 7adc df3d c595 c53d bcb2 d53d b0dd 3d3d
00000080: cdcc cc3d cdcc cc3d cdcc cc3d cdcc cc3d
00000090: cdcc cc3d cdcc cc3d cdcc cc3d cdcc cc3d
000000a0: cdcc cc3d cdcc cc3d cdcc cc3d cdcc cc3d
000000b0: cdcc cc3d cdcc cc3d cdcc cc3d cdcc cc3d
000000c0: cdcc cc3d cdcc cc3d cdcc cc3d cdcc cc3d
000000d0: cdcc cc3d cdcc cc3d cdcc cc3d cdcc cc3d
000000e0: cdcc cc3d cdcc cc3d cdcc cc3d cdcc cc3d
000000f0: cdcc cc3d cdcc cc3d cdcc cc3d cdcc cc3d
00000100: cdcc cc3d cdcc cc3d cdcc cc3d cdcc cc3d
00000110: cdcc cc3d cdcc cc3d cdcc cc3d cdcc cc3d
00000120: cdcc cc3d cdcc cc3d cdcc cc3d cdcc cc3d
00000130: cdcc cc3d cdcc cc3d cdcc cc3d cdcc cc3d
00000140: cdcc cc3d cdcc cc3d cdcc cc3d cdcc cc3d
00000150: cdcc cc3d cdcc cc3d cdcc cc3d cdcc cc3d
00000160: cdcc cc3d cdcc cc3d cdcc cc3d cdcc cc3d
00000170: e06b e6bd 88b0 22be 537f 7f3d 80e0 003e
00000180: cb0a 393d b7b4 4ebe 709d 803d edfe 553d
00000190: 6f59 813d fb52 68be 60d1 593d 3c98 b6bd
000001a0: 5faf 0d3d ef98 dabc 05e2 8a3d 003c f43d
000001b0: 0399 f23d 9353 c63d 32eb fd3d d591 553d
000001c0: 4733 353d f3f4 943d 3016 13bd 2f2f a5bb
000001d0: ffe0 fcbe aa44 8b3d 5e8d a43d 3ccd 33be
000001e0: bafa b4ba fb78 933d 657e 8c3c 8bd1 c73c
0.05539445 0.10435389 0.058975678 0.12485275 0.10051516 0.1511589 0.070389085 0.059443895
0.10017215 0.111213885 0.055140264 0.14304282 0.06691667 0.091868974 0.12702207 0.057924677
0.11710656 0.19606885 0.08117196 0.13858403 0.099116266 0.09280371 0.10130451 0.06724756
0.087954156 0.08057155 0.063146286 0.14008525 0.109307244 0.09647707 0.104344815 0.046353996
0.1 0.1 0.1 0.1 0.1 0.1 0.1 0.1
0.1 0.1 0.1 0.1 0.1 0.1 0.1 0.1
0.1 0.1 0.1 0.1 0.1 0.1 0.1 0.1
0.1 0.1 0.1 0.1 0.1 0.1 0.1 0.1
0.1 0.1 0.1 0.1 0.1 0.1 0.1 0.1
0.1 0.1 0.1 0.1 0.1 0.1 0.1 0.1
0.1 0.1 0.1 0.1 0.1 0.1 0.1 0.1
0.1 0.1 0.1 0.1 -0.11251044 -0.15887654 0.062377285 0.1258564
0.04517631 -0.20186125 0.06280029 0.05224507 0.06315886 -0.22687905 0.05317819 -0.08915755
0.034591075 -0.026684253 0.06781391 0.119255066 0.11845591 0.09683909 0.123983756 0.05214103
0.044238355 0.07273283 -0.03590983 -0.005041025 -0.49390408 0.06800206 0.08034776 -0.1755876
-0.0013807632 0.072008096 0.017150113 0.02439191

W_ext f4 [32, 2]
00000000: 9285 593f 9ec6 25be 3e86 553f ba43 2bbf
00000010: 1fd7 393e 5e7a eb3d 99b5 83bf 5723 f53a
00000020: 372c 2fbe 25a6 26bf d896 313f 9dbe 8f3f
00000030: 396d 083c 7409 3dbf cc2d 0bbf 503c f53d
00000040: 782b a23d a9a5 2ebf e777 8dbf e8ea 8c3f
00000050: 5bd0 8ebf f012 28bf 4704 0f3e ad31 153f
00000060: 9ea0 51bd 6855 323c 3d7d 393d 2987 163f
00000070: 5ace 95bf f297 05be 6b92 4cbf b8f8 eebe
00000080: 2e20 9dbf 94e1 1bbe 7b7e 923e 4417 d53d
00000090: dc8d a3bf fcb2 73bf c28e 97bb 7cc4 19bf
000000a0: 875e 96bf 6ea2 503e 18da 443e 1e5f a63e
000000b0: 1a43 23bf ab7c 0c3f 45de 423d 9234 173f
000000c0: 97ba 1240 e1e0 d4be 0d86 99bf 6bfa 25c0
000000d0: fc99 bc3e 00c7 e0be a7fc 2d3e 1eb7 7d3f
000000e0: 522a 74bf 4e44 0bbf 53d8 a7bd f641 233e
000000f0: d38e 90bf 8e2c f4bd 4e8f bcbd 518e 173f
0.8496944 -0.16189048 0.8340796 -0.6690022 0.18148468 0.11497949 -1.0289794 0.0018702549
-0.1710671 -0.65097266 0.69370794 1.1230046 0.008326822 -0.7384255 -0.54366755 0.11974394
0.07918447 -0.6822153 -1.1052216 1.1009188 -1.1157335 -0.65653896 0.13966475 0.58278924
-0.051178567 0.01088462 0.045285452 0.5879999 -1.1703598 -0.13046244 -0.79910916 -0.46674132
-1.2275445 -0.1522277 0.28612122 0.10404828 -1.2777667 -0.95194983 -0.0046251724 -0.60065436
-1.1747597 0.20374462 0.19223821 0.32494444 -0.63774264 0.5487773 0.047575254 0.5906459
2.2926385 -0.4157782 -1.1994034 -2.5934093 0.3683623 -0.43901825 0.1699091 0.9910754
-0.95377076 -0.544011 -0.081955574 0.15943131 -1.1293586 -0.11922561 -0.09207021 0.5920153
