DrosophilaLabRot/data_store/mbon_sensitivity/first_order_nets/trained_nets/32_mbons/first_order_2000ep_1hop_N04.pt (torch_old, 63127 bytes, 4 tensors)

W_recur f4 [124, 124]
-0.21512061 0.07521682 0.26961344 0.14409077 0.03833768 0.01122154 -0.058084678 -0.17950764
-0.002491807 0.08647194 -0.08004631 -0.033384025 -0.028300494 0.45390046 0.07135123 -0.015718663
0.17346586 -0.093101144 -0.15570728 -0.19643195 -0.30534163 0.0075988523 0.0008922726 0.15415165
0.064323455 0.0046064057 -0.2797702 -0.13306573 0.045156125 -0.0704361 -0.080008775 -0.031509835
-0.07589836 0.08704062 0.025689121 -0.13885055 0.002060306 -0.25986597 -0.1105437 -0.0149470335
0.041167438 0.015078973 -0.11063206 0.17563835 0.010346865 -0.08212334 -0.19481102 -0.103877544
0.10513341 0.19372778 -0.122949 0.043694977 0.12565956 0.017624501 0.2394328 0.04882151
-0.19549492 0.12891409 -0.052525207 -0.048914243 -0.24963978 -0.15196016 0.12026746 0.07572457
-0.13242476 -0.08155946 -0.036121797 -0.013191898 0.20733902 0.044153914 -0.068717174 -0.0014489315
-0.05079158 0.05805931 0.029342804 0.10687463 0.037228625 0.03561701 0.05757973 -0.04696891
-0.006616231 -0.040515352 -0.043880988 -0.124660216 -0.2662228 0.0814415 -0.040899906 -0.20969385
-0.021256128 -0.017406067 -0.16930911 -0.10242356 -0.10100678 -0.16857529 0.131895 -0.025740769
-0.042623103 -0.01580403 -0.00012731008 -0.16811216 -0.18891214 -0.065903604 0.006110206 0.20137583
0.027920164 -0.20788583 -0.088203035 0.08212445 -0.10418033 0.15847291 0.10935142 -0.21400332
-0.15946184 0.262318 0.128368 -0.031105388 -0.009297143 0.031606324 -0.0022773868 0.119994424
-0.16339031 -0.34115148 0.021651577 0.21060233 0.15622087 -0.06843847 0.065445796 0.050305087
-0.12340759 0.12310766 -0.12748873 -0.18787785 -0.045281496 -0.08288851 -0.15519218 -0.052414976
-0.15097426 -0.21313757 0.006621822 -0.22885218 -0.06242286 0.19170773 0.13809375 0.06460199
-0.15802304 0.0065002325 -0.27551165 0.18518761 -0.0043713106 -0.20738979 -0.21716522 -0.033867057
-0.08862745 0.08704645 -0.12875995 -0.19969948 0.061567564 -0.0070615686 0.118457325 0.20619692
-0.13793316 -0.063197315 -0.18675691 0.029526018 0.03115884 -0.077284455 0.05566878 0.07460584
0.06515927 -0.014361958 0.18563962 -0.13245067 0.10477562 0.13392825 -0.23597308 -0.0786509
-0.12689169 -0.19817285 -0.14709313 -0.13932833 -0.19151783 -0.0037119484 -0.013457975 -0.033653174
0.004497426 0.054715887 -0.03788307 -0.18301065 0.03355391 -0.046129994 -0.28691077 -0.030795477
-0.02353801 0.16775805 -0.07599326 -0.0073594186 -0.11374431 0.06722023 0.03421141 -0.07010543
0.022558661 -0.02708241 0.11462338 0.10811425 -0.14883484 0.083858594 -0.16422704 0.10866982
-0.002284607 -0.11266199 0.09899043 -0.021401372 0.22427416 -0.029035568 -0.005514609 0.037312157
0.062357932 0.20569706 -0.19438145 -0.11077037 -0.2140656 0.11678527 0.091151 0.182283
-0.07154857 -0.062052615 0.1483695 -0.121819764 -0.17218873 0.029725239 0.24530593 0.10733501
-0.07691409 0.04156225 -0.03751374 0.086703986 -0.1878647 -0.116430975 0.013359994 0.032905936
-0.10212554 -0.23372628 0.059491206 -0.06808149 0.061250344 -0.10279563 0.25915653 0.32571763
-0.10497337 -0.009540608 0.45830503 0.18139192 -0.01296143 0.104939535 0.05199985 -0.207861
00000000: 9448 5cbe 470b 9a3d c60a 8a3e 888c 133e
00000010: f907 1d3d 8dda 373c 33ea 6dbd dad0 37be
00000020: 964d 23bb 3318 b13d 52ef a3bd b0bd 08bd
00000030: 70d6 e7bc a465 e83e 9820 923d 6dc4 80bc
00000040: 09a1 313e d0ab bebd bb71 1fbe 7525 49be
00000050: bd55 9cbe cbff f83b 67e7 693a eed9 1d3e
00000060: 04bc 833d 55f1 963b 0a3e 8fbe 6242 08be
00000070: a1f5 383d cd40 90bd a4db a3bd 7510 01bd
00000080: 9970 9bbd 5a42 b23d fe71 d23c d72e 0ebe
00000090: 3306 073b 270d 85be bc64 e2bd 67e4 74bc
000000a0: 309f 283d cc0d 773c 1093 e2bd 8ada 333e
000000b0: e685 293c 4830 a8bd 8a7c 47be c0bd d4bd
000000c0: 2f50 d73d 9360 463e afcc fbbd 81f9 323d
000000d0: e6ac 003e 4261 903c df2d 753e 10f9 473d
000000e0: d22f 48be 0e02 043e ac24 57bd 4d5a 48bd
000000f0: 92a1 7fbe 729b 1bbe c94e f63d 7c15 9b3d
00000100: 5b9a 07be a508 a7bd 73f4 13bd d522 58bc
00000110: ae50 543e bcda 343d 97bb 8cbd 13ea bdba
00000120: d50a 50bd 99cf 6d3d 5260 f03c 16e1 da3d
00000130: 0b7d 183d 24e3 113d b9d8 6b3d 7962 40bd
00000140: f8cc d8bb 6df3 25bd 8dbc 33bd db4d ffbd
00000150: 5b4e 88be cdca a63d a986 27bd fcb9 56be
00000160: 5521 aebc 2b97 8ebc 5e5f 2dbe 72c3 d1bd
00000170: a5dc cebd 009f 2cbe 7c0f 073e 4ede d2bc
00000180: 9095 2ebd 7477 81bc 8a7e 05b9 9825 2cbe
00000190: 2f72 41be 78f8 86bd 1f38 c83b 7735 4e3e
000001a0: d4b8 e43c 06e0 54be cba3 b4bd dd30 a83d
000001b0: 7f5c d5bd b946 223e a3f3 df3d b023 5bbe
000001c0: f749 23be 8b4e 863e e772 033e bad0 febc
000001d0: 0b53 18bc a275 013d 3640 15bb a3bf f53d
000001e0: ca4f 27be 68ab aebe a65e b13c 23a8 573e
000001f0: 5df8 1f3e 7829 8cbd 7208 863d b50c 4e3d
00000200: 1ebd fcbd de1f fc3d 688c 02be 0d63 40be
00000210: 1779 39bd 73c1 a9bd b3ea 1ebe 16b1 56bd
00000220: ff98 1abe bc40 5abe defb d83b 3a58 6abe
00000230: 1daf 7fbd 084f 443e 7368 0d3e 0c4e 843d
00000240: cbd0 21be e7ff d43b dd0f 8dbe d2a1 3d3e
00000250: 363d 8fbb fd5d 54be 8f60 5ebe 2fb8 0abd
00000260: 4f82 b5bd 6945 b23d a6d9 03be 057e 4cbe
00000270: 452e 7c3d bb64 e7bb c199 f23d 4925 533e
00000280: 5a3e 0dbe 986d 81bd 343d 3fbe 8ce0 f13c
00000290: d340 ff3c 5047 9ebd f204 643d f2ca 983d
000002a0: 3972 853d 6b4e 6bbc 5018 3e3e 26a1 07be
000002b0: 9a94 d63d 7d24 093e eda2 71be b913 a1bd
000002c0: e5ef 01be d3ed 4abe 959f 16be 16ac 0ebe
000002d0: 401d 44be 2944 73bb d77e 5cbc e9d7 09bd
000002e0: 255f 933b c41d 603d 472b 1bbd 2567 3bbe
000002f0: d36f 093d cef2 3cbd f8e5 92be cc46 fcbc
00000300: c9d2 c0bc c4c8 2b3e 5ba2 9bbd 4727 f1bb
00000310: c7f2 e8bd c3aa 893d 4321 0c3d 7093 8fbd
00000320: f1cc b83c eedb ddbc aabf ea3d 016b dd3d
00000330: 2968 18be 0ebe ab3d 222b 28be 488e de3d
00000340: 58b9 15bb 54bb e6bd 7fbb ca3d ee51 afbc
00000350: 20a8 653e 00dc edbc e5b3 b4bb a2d4 183d
00000360: 086b 7f3d 40a2 523e ee0b 47be 93db e2bd
00000370: 0334 5bbe 1e2d ef3d 60ad ba3d 65a8 3a3e
00000380: 0f88 92bd e22a 7ebd 2dee 173e a47c f9bd
00000390: 3e52 30be 5882 f33c 7a31 7b3e 75d2 db3d
000003a0: 2285 9dbd 2e3d 2a3d 02a8 19bd dc91 b13d
000003b0: 9b5f 40be 5d73 eebd e0e3 5a3c 60c8 063d
000003c0: 3227 d1bd f155 6fbe 0dad 733d 4f6e 8bbd
000003d0: a4e1 7a3d 8486 d2bd 2ab0 843e 76c4 a63e
000003e0: 47fc d6bd 3650 1cbc f5a6 ea3e cebe 393e
000003f0: 2d5c 54bc 8aea d63d cbfd 543d 84d9 54be

W_readout f4 [1, 32]
-0.120163746 -0.01392033 0.24937752 0.42052925 -0.2223042 -0.27247804 0.39233425 -0.033824384
0.37251163 0.1549296 -0.14651522 -0.19454587 0.12869199 0.16732967 -0.20675126 0.038278513
0.18852937 -0.30897152 -0.3642822 -0.4389118 0.16437979 -0.10967969 -0.13126259 0.33767352
-0.33723623 0.037346233 -0.21862866 -0.07907313 0.20158264 0.19114679 0.08981493 0.28543022
00000000: 6918 f6bd 1912 64bc d25c 7f3e 9c4f d73e
00000010: b6a3 63be 3e82 8bbe 09e0 c83e 708b 0abd
00000020: d8b9 be3e dda5 1e3e 1608 16be 0837 47be
00000030: d5c7 033e 7858 2b3e 9ab6 53be eec9 1c3d
00000040: d80d 413e 8431 9ebe 3283 babe 0cb9 e0be
00000050: 2d53 283e bf9f e0bd b369 06be 8be3 ac3e
00000060: 3aaa acbe 5df8 183d 31e0 5fbe 18f1 a1bd
00000070: ae6b 4e3e fcbb 433e e4f0 b73d e923 923e

bias f4 [124]
0.08335039 0.12508357 0.090713635 0.035284672 0.061324347 0.05382676 0.09808515 0.10160231
0.08190699 0.106087945 0.11553931 0.08452379 0.043907765 0.101292804 0.120823555 0.05040956
0.13710944 0.07567644 0.13072412 0.13159955 0.07017558 0.08478247 -0.030553529 0.1383995
0.1160824 0.13435793 0.034481324 0.07168564 0.093905516 0.12890396 0.189942 -0.0023349887
0.1 0.1 0.1 0.1 0.1 0.1 0.1 0.1
0.1 0.1 0.1 0.1 0.1 0.1 0.1 0.1
0.1 0.1 0.1 0.1 0.1 0.1 0.1 0.1
0.1 0.1 0.1 0.1 0.1 0.1 0.1 0.1
0.1 0.1 0.1 0.1 0.1 0.1 0.1 0.1
0.1 0.1 0.1 0.1 0.1 0.1 0.1 0.1
0.1 0.1 0.1 0.1 0.1 0.1 0.1 0.1
0.1 0.1 0.1 0.1 0.07834484 0.13111909 -0.045151427 0.13872467
-0.14868009 0.0458665 0.031687148 0.12763733 -0.19539356 -0.093919344 0.023446394 0.008329848
0.01817496 -0.09157997 0.07475862 -0.009761442 -0.36068296 -0.030297214 0.16227661 -0.13635729
-0.024733506 0.08849886 -0.16584079 -0.14738 0.06396577 0.11140596 0.043650948 0.12998176
-0.13610405 -0.05113709 -0.052440654 -0.41761953
00000000: 9cb3 aa3d e815 003e 12c8 b93d a986 103d
00000010: 3d2f 7b3d 7379 5c3d dee0 c83d df14 d03d
00000020: dabe a73d a344 d93d e09f ec3d cf1a ad3d
00000030: a1d8 333d 9a72 cf3d 5772 f73d 417a 4e3d
00000040: 6b66 0c3e 40fc 9a3d 8bdc 053e 08c2 063e
00000050: 37b8 8f3d 6ea2 ad3d 654b fabc 99b8 0d3e
00000060: 9cbc ed3d 2095 093e 4a3c 0d3d eccf 923d
00000070: 8951 c03d 66ff 033e 2880 423e 9c06 19bb
00000080: cdcc cc3d cdcc cc3d cdcc cc3d cdcc cc3d
00000090: cdcc cc3d cdcc cc3d cdcc cc3d cdcc cc3d
000000a0: cdcc cc3d cdcc cc3d cdcc cc3d cdcc cc3d
000000b0: cdcc cc3d cdcc cc3d cdcc cc3d cdcc cc3d
000000c0: cdcc cc3d cdcc cc3d cdcc cc3d cdcc cc3d
000000d0: cdcc cc3d cdcc cc3d cdcc cc3d cdcc cc3d
000000e0: cdcc cc3d cdcc cc3d cdcc cc3d cdcc cc3d
000000f0: cdcc cc3d cdcc cc3d cdcc cc3d cdcc cc3d
00000100: cdcc cc3d cdcc cc3d cdcc cc3d cdcc cc3d
00000110: cdcc cc3d cdcc cc3d cdcc cc3d cdcc cc3d
00000120: cdcc cc3d cdcc cc3d cdcc cc3d cdcc cc3d
00000130: cdcc cc3d cdcc cc3d cdcc cc3d cdcc cc3d
00000140: cdcc cc3d cdcc cc3d cdcc cc3d cdcc cc3d
00000150: cdcc cc3d cdcc cc3d cdcc cc3d cdcc cc3d
00000160: cdcc cc3d cdcc cc3d cdcc cc3d cdcc cc3d
00000170: 4273 a03d 1544 063e b4f0 38bd d70d 0e3e
00000180: 983f 18be 83de 3b3d 62ca 013d 5cb3 023e
00000190: 4015 48be c958 c0bd a712 c03c ea79 083c
000001a0: a7e3 943c 488e bbbd 0c1b 993d 75ee 1fbc
000001b0: 70ab b8be dd31 f8bc d72b 263e 3fa1 0bbe
000001c0: ec9d cabc e43e b53d 2bd2 29be c8ea 16be
000001d0: 7c00 833d cf28 e43d 56cb 323d f019 053e
000001e0: dc5e 0bbe 2075 51bd 03cc 56bd 3ad2 d5be

W_ext f4 [32, 2]
-0.8059107 -0.86393034 0.35359603 0.4047481 0.3602949 0.7141805 -0.77845365 -0.33590946
0.23022385 0.980456 0.051074468 -0.001422939 -1.5561386 0.35167885 0.32716915 -2.111573
-1.381471 1.3707983 0.46590495 1.0934664 0.098665185 -0.29100174 0.46535778 -0.31548992
0.15022789 0.41227686 0.56614214 0.9299113 -0.40020952 0.38928857 0.4255668 0.06048328
-0.49870747 1.9256366 0.59882236 0.2668201 -0.34204966 -0.13117176 1.0151861 -0.69539905
0.61596644 -0.58531237 -1.0886765 0.32844108 1.1156847 0.07208672 0.03136297 1.3917757
-1.284392 -1.3142028 -1.4548987 -0.9048236 0.20514229 -0.8808664 0.0645807 0.058181427
-0.74215764 1.0578593 -0.48696285 0.5762104 -1.2643 0.81893504 1.7788045 0.14404508
00000000: 2a50 4ebf 8a2a 5dbf 8a0a b53e 253b cf3e
00000010: 9378 b83e 89d4 363f bd48 47bf 53fc abbe
00000020: cdbf 6b3e 2aff 7a3f 7633 513d e981 baba
00000030: 8d2f c7bf 400f b43e b782 a73e 0324 07c0
00000040: 0bd4 b0bf 5276 af3f 188b ee3e b5f6 8b3f
00000050: f910 ca3d 2efe 94be 6043 ee3e e587 a1be
00000060: 57d5 193e f415 d33e b1ee 103f ab0e 6e3f
00000070: 43e8 ccbe d550 c73e e4e3 d93e 51bd 773d
00000080: 9656 ffbe 437b f63f 6c4c 193f a59c 883e
00000090: 2221 afbe e451 06be 9ef1 813f ac05 32bf
000000a0: faaf 1d3f 08d7 15bf c059 8bbf 6e29 a83e
000000b0: c2ce 8e3f 34a2 933d 7576 003d b525 b23f
000000c0: f566 a4bf cc37 a8bf 1f3a babf 85a2 67bf
000000d0: d210 523e 7680 61bf e342 843d a64f 6e3d
000000e0: 0bfe 3dbf ef67 873f 3253 f9be 8682 133f
000000f0: 95d4 a1bf baa5 513f deaf e33f 8e80 133e
