network_compare_backup/2nd_order_2hop_0fbn/trained_nets/second_order_2hop_5000ep_2hop_N04.pt (torch_old, 41703 bytes, 4 tensors)

W_recur f4 [100, 100]
0	0x39d9c81c	0.00041538558
1	0x3e5d37af	0.21603273
2	0x3d12ac57	0.035808887
3	0x3d26c925	0.04071917
4	0xbd227771	-0.03966469
5	0x3ea4ca12	0.32185417
6	0x3e32a324	0.17445046
7	0xbdaf74b3	-0.085671805
8	0x3e882a47	0.26594755
9	0xbe27259f	-0.16322945
10	0x3e1d9b5f	0.153913
11	0xbeb49f11	-0.35277608
12	0xbebb41d4	-0.3657366
13	0xbeded232	-0.4351974
14	0xbd1b4a8b	-0.037912887
15	0x3ea6ba49	0.32564
16	0x3de31979	0.11088843
17	0xbe6b016b	-0.2294976
18	0x3e049c1f	0.1295018
19	0xbed985b8	-0.42484832
20	0xbdceaa65	-0.10091094
21	0x3e968000	0.2939453
22	0x3ce665b4	0.028124668
23	0x3e0c03a6	0.13673267
24	0x3dc3e357	0.09564846
25	0x3d9680de	0.07348798
26	0x3e1b554d	0.15169258
27	0xbe99b1a1	-0.30018333
28	0xbca8acb5	-0.020590166
29	0x3db7c135	0.08972398
30	0xbce42cc2	-0.027853373
31	0xbd72a354	-0.059237793
32	0x3d0b0868	0.033943564
33	0xbda890f6	-0.08230774
34	0x3c2606c6	0.010133451
35	0x3c836b4c	0.016042374
36	0x3de3d89b	0.111252986
37	0xbdad4375	-0.08460132
38	0x3dafcc89	0.08583934
39	0xbddd9709	-0.10819823
40	0xbd139ab2	-0.0360362
41	0x3ce21444	0.027597554
42	0x3dd2c924	0.10292271
43	0xbcb4a722	-0.022052351
44	0xbe48b864	-0.1960159
45	0xbda83e34	-0.08214989
46	0x3be003f1	0.0068364074
47	0xbd36c4ef	-0.044621404
48	0x3d902215	0.07037751
49	0x3d8157fd	0.063156106
50	0xbd5935ee	-0.053029947
51	0xbe7d7749	-0.24752535
52	0x3dd27557	0.10276287
53	0x3dafca62	0.08583523
54	0xbd9c80cc	-0.076417536
55	0x3c14a654	0.009072859
56	0xbc66d918	-0.014089845
57	0xbdb678b9	-0.08909745
58	0x3d3fb444	0.046802774
59	0xbda8f89b	-0.08250543
60	0xbc136177	-0.008995405
61	0x3c6ae5d6	0.014337024
62	0x3de2f24c	0.11081371
63	0xbd353483	-0.044239532
64	0x3e365964	0.17807537
65	0x3e0ffb23	0.14060645
66	0xbd9cf72a	-0.0766433
67	0xbe0db664	-0.13839108
68	0x3d98cbd4	0.07460752
69	0x3e5ab626	0.21358547
70	0xbb86a991	-0.0041095694
71	0x3e21575a	0.15755978
72	0xbc258f0a	-0.010104904
73	0xbd8c1fbc	-0.0684199
74	0x3e7a5fcd	0.24450608
75	0xbdad14fa	-0.084512666
76	0xbde11315	-0.10989968
77	0x3e47bbfc	0.19505304
78	0x3d952d02	0.07283975
79	0x3d117419	0.03551111
80	0xbe232c62	-0.159349
81	0xbecac38d	-0.39602318
82	0xbe2fab93	-0.17155294
83	0xbd9f194d	-0.077684976
84	0x3d246bf6	0.040142022
85	0xbc8c6ac9	-0.017140763
86	0xbe81a469	-0.25320747
87	0xbcb8c22d	-0.022553528
88	0x3dc85094	0.09780994
89	0x3e843465	0.25821224
90	0x3d94eaea	0.07271369
91	0x3d02b5f1	0.031911794
92	0x3c8f64f3	0.017504191
93	0x3e3eea59	0.18644084
94	0x3ebaa1f6	0.3645169
95	0xbdd3d6e8	-0.103437245
96	0xbd517af8	-0.051142663
97	0xbe00dd52	-0.12584427
98	0xbc6b5aed	-0.01436494
99	0xbb8c2fc8	-0.004278157
100	0x3ef37fee	0.4755854
101	0xbe06a1a0	-0.13147593
102	0xbeaea36b	-0.34109053
103	0x3d709699	0.05873737
104	0xbf1bef57	-0.6091208
105	0x3e0fd189	0.14044775
106	0x3ed33708	0.41252923
107	0xbbcb4c1a	-0.0062041404
108	0xbe3b1675	-0.18270285
109	0x3cbe4f37	0.023231132
110	0x3f1fc476	0.6240915
111	0xbe49e4e9	-0.19716229
112	0xbeb9ad86	-0.362652
113	0xbd415d55	-0.04720815
114	0xbe31ea54	-0.17374545
115	0x3f2dc045	0.67871505
116	0x3e025c29	0.12730469
117	0x3ea7cc81	0.32773212
118	0xbebaeb22	-0.36507517
119	0x3eb1dbc3	0.34737977
120	0xbd3123fa	-0.0432472
121	0xbd543a23	-0.051813256
122	0xbd721a78	-0.059107274
123	0x3e35ba79	0.17746915
124	0x3d049040	0.03236413
125	0xbe40ee0c	-0.18840808
126	0xbda6f2c7	-0.08151775
127	0x3dbea53b	0.09308859
128	0xbb4132ab	-0.0029479663
129	0x3d37feb5	0.044920642
130	0x3df85eec	0.1212748
131	0x3e3ea6fa	0.18618384
132	0x3e10bfd4	0.14135677
133	0xbe1b961b	-0.1519398
134	0xbd16439c	-0.03668557
135	0x3ba59834	0.0050535444
136	0x3dd15d70	0.102229
137	0xbe533731	-0.20626523
138	0xbe508335	-0.20362552
139	0x3d3f6c78	0.046734303
140	0x3df7c4aa	0.120980576
141	0xbc9ddd69	-0.019270616
142	0x3c41c5b7	0.011826924
143	0x3e763dda	0.24047032
144	0xbd3fd38f	-0.046832617
145	0x3e22da7e	0.1590366
146	0xbd100ad6	-0.035166584
147	0xbdfe241f	-0.12409233
148	0x3e8e56e0	0.27800655
149	0xbd0f545c	-0.03499256
150	0xbd1540d2	-0.03643877
151	0xbe51ebf4	-0.20500165
152	0x3dfcf224	0.12350872
153	0x3dbcc8b1	0.09217966
154	0xbd44dd49	-0.048062596
155	0x3d1c7b8f	0.038203772
156	0x3d83d1fe	0.06436537
157	0xbcc50a28	-0.024052694
158	0xbe08cc41	-0.13359167
159	0xbcf1ce15	-0.029517213
160	0xbe0a200a	-0.13488784
161	0xbe5c5767	-0.21517716
162	0x3e200e76	0.15630516
163	0xbd17c34d	-0.037051488
164	0x3d979258	0.0740096
165	0x3d99fbec	0.075187534
166	0x3d870401	0.065925606
167	0x3cf2d431	0.029642196
168	0x3e0f9ada	0.14023915
169	0x3dbd7c6c	0.09252247
170	0xbdcf3522	-0.10117556
171	0xbd95e5e2	-0.07319237
172	0xbb5d6ee1	-0.0033788013
173	0xbe0210b5	-0.12701686
174	0xbd08fac2	-0.033442266
175	0xbddab2d7	-0.10678642
176	0x3dcc9b36	0.09990542
177	0x3d0bd1b2	0.034135528
178	0x3d8007f9	0.06251521
179	0x3dc14135	0.094362654
180	0x3d942522	0.07233645
181	0x3e5aa3f7	0.2135161
182	0x3bf59375	0.007494385
183	0x3b13bba4	0.0022542262
184	0x3d742eea	0.059615053
185	0x3dddcae4	0.10829714
186	0x3eb23fea	0.34814388
187	0x3e3e1b18	0.18565023
188	0xbd1f02f2	-0.03882117
189	0x3e6c4d22	0.23076299
190	0xbd768e6a	-0.06019441
191	0x3e8bbb0e	0.2729115
192	0xbd8693a7	-0.06571131
193	0xbec71d3f	-0.388895
194	0x3e99f103	0.3006669
195	0x3df0d6c2	0.11759712
196	0xbe853767	-0.2601883
197	0xbe0a0643	-0.13478951
198	0x3ea4fdb1	0.322248
199	0x3e977b38	0.29586196
200	0xbd9c4be0	-0.076316595
201	0xbe8e3bcf	-0.27780005
202	0xbe292409	-0.16517653
203	0xbd897c01	-0.06713105
204	0xbcdd66b1	-0.027026506
205	0x3e081cd6	0.1329225
206	0xbeb7ae31	-0.35875085
207	0x3e1feacd	0.15616913
208	0x3da889b5	0.082293905
209	0x3e897f23	0.2685481
210	0xbf048e66	-0.5177978
211	0xbea5649b	-0.32303318
212	0x3e21d1b3	0.1580265
213	0xbf0cd0b6	-0.5500597
214	0xbdd4f9b2	-0.10399188
215	0xbe7783c3	-0.24171357
216	0xbdb15e30	-0.08660543
217	0x3d6ec78a	0.058295764
218	0x3d32218a	0.043489017
219	0x3cb4616c	0.02201911
220	0xbdac0514	-0.08399406
221	0x3d8b37f9	0.06797785
222	0xbe26eba2	-0.16300824
223	0xbd286f53	-0.041121792
224	0xbe04b00a	-0.12957779
225	0x3dbb347c	0.0914087
226	0xbdbf94b0	-0.09354532
227	0x3e19bdc4	0.15013796
228	0x3d45ddaf	0.048307117
229	0x3d3b9a38	0.04580137
230	0xbd943351	-0.0723635
231	0xbbe7cb37	-0.0070737856
232	0xbd42dd6f	-0.047574457
233	0x3c9d668e	0.019213941
234	0xbcf3dbe7	-0.029767944
235	0x3dadce94	0.08486667
236	0xb9a0323a	-0.00030555
237	0x3d4f8948	0.05066803
238	0x3b6ccf18	0.003613418
239	0xbdd426fb	-0.103589974
240	0xbdafe0d5	-0.08587805
241	0xbe0dcb78	-0.13847148
242	0x3d624b2a	0.055247463
243	0xbdc30ad9	-0.095235534
244	0xbdbe3f4e	-0.09289418
245	0xbd614169	-0.05499402
246	0xbdc7c56a	-0.097544506
247	0xbdd3cc34	-0.10341683
248	0x3e4e0540	0.2011919
249	0x3e343066	0.17596588
250	0x3bda3667	0.0066593173
251	0xbd645b47	-0.05575111
252	0x3db51d14	0.08843437
253	0x3da63235	0.08115045
254	0xbd6abd95	-0.057309706
255	0x3d8141df	0.06311392

W_readout f4 [1, 20]
0	0x3efc4ef7	0.49278995
1	0xbe98f928	-0.2987759
2	0xbe92e15e	-0.28687567
3	0x3dff0598	0.12452239
4	0xbf1747a2	-0.5909368
5	0x3f59ff8b	0.8515555
6	0xbb858fb8	-0.0040759705
7	0xbf2d69d0	-0.6773958
8	0x3d55703b	0.052108984
9	0x3ee580b3	0.44824752
10	0x3f85fdf8	1.046813
11	0xbe6f8d64	-0.2339378
12	0xbf983837	-1.1892155
13	0xbf074f8f	-0.5285577
14	0x3e6dd1d5	0.23224576
15	0x3e4521d7	0.1925119
16	0x3eb66b64	0.35628808
17	0x3e5c2197	0.21497189
18	0xbec3fdbe	-0.38279527
19	0x3ea54a9f	0.32283494

bias f4 [100]
0	0x3cdaca6e	0.026707854
1	0x3d4c98c3	0.049950372
2	0x3cc7b555	0.024378458
3	0x3ddb9be5	0.10723094
4	0x3d9b1c9e	0.07573818
5	0xbd25dbbc	-0.04049276
6	0x3ceecbac	0.029149853
7	0x3d25a64a	0.04044179
8	0x3d214c32	0.039379306
9	0x3d8bcda3	0.068263315
10	0x3daf51fc	0.08560559
11	0x3dbd60b0	0.09246957
12	0x3d92cb53	0.07167687
13	0x3da91e7c	0.082577676
14	0x3d4e2b75	0.050334413
15	0x3df3024d	0.11865673
16	0x3d78cae0	0.06074035
17	0x3d170707	0.036871936
18	0xbc621d45	-0.013800924
19	0x3ddad0ec	0.1068438
20	0x3db60206	0.08887105
21	0x3dca745a	0.098854735
22	0x3d987b57	0.074454
23	0x3df13320	0.117773294
24	0x3df5c524	0.12000492
25	0x3e173382	0.14765742
26	0x3dc34307	0.09534269
27	0x3dc6cbb8	0.09706825
28	0x3dc5080e	0.09620677
29	0x3ce272ee	0.027642693
30	0x3ddf313d	0.10898063
31	0x3e1769fa	0.1478652
32	0xbcc854ba	-0.024454463
33	0x3dcc87d2	0.09986843
34	0x3decccc6	0.11562495
35	0x3d69fd45	0.057126302
36	0x3d97aef2	0.07406415
37	0x3d570237	0.052492347
38	0x3e182995	0.14859612
39	0x3c6ba3df	0.014382332
40	0x3d9f886e	0.07789694
41	0x3d206d85	0.039166946
42	0x3d2b8930	0.04187888
43	0x3d1eabcd	0.03873806
44	0x3dd1a54e	0.102366075
45	0x3de389f3	0.11110296
46	0x3dd8f9a9	0.10594494
47	0x3da72436	0.081612036
48	0x3de5a394	0.11212841
49	0x3da2f5b0	0.079570174
50	0x3dee4598	0.11634368
51	0x3d4c9f6b	0.04995672
52	0x3ddca07d	0.10772798
53	0x3da14d28	0.078760445
54	0x3d984ee2	0.07436921
55	0x3d5f4bdb	0.0545157
56	0x3de4c03d	0.11169479
57	0x3d0197f4	0.031639054
58	0x3d95bbbd	0.07311199
59	0x3d0a2624	0.03372778
60	0x3d8b2690	0.067944646
61	0x3dd150bd	0.10220478
62	0x3de720fc	0.11285588
63	0x3dc31a44	0.09526494
64	0x3d472b45	0.04862525
65	0x3d6e867e	0.05823373
66	0x3dc1267f	0.09431171
67	0x3d8221af	0.06354081
68	0x3cc45743	0.02396739
69	0x3db15b2a	0.08659966
70	0x3c4e9895	0.012609621
71	0x3ce02c78	0.027364954
72	0xb89cc6d0	-7.4756914e-05
73	0x3e2c37bb	0.16818134
74	0x3da9ae49	0.082851954
75	0x3e14dbaf	0.14536928
76	0x3e1d818a	0.15381446
77	0xb8f24d90	-0.000115539064
78	0x3dd3530c	0.10318574
79	0x3e1fbf41	0.15600301
80	0x3dc5d70b	0.09660157
81	0x3db53093	0.088471554
82	0x3d4a13de	0.049335353
83	0x3c7d3a91	0.015455858
84	0x3d6430ce	0.055710606
85	0x3dc6d211	0.09708036
86	0x3dbb2563	0.0913799
87	0x3dc3df66	0.09564094
88	0x3d6a24ba	0.05716393
89	0x3ddafd57	0.10692852
90	0x3dd54464	0.10413435
91	0x3db6df70	0.08929336
92	0x3dac55e2	0.08414818
93	0x3d855140	0.06509638
94	0x3dab68b6	0.083695814
95	0x3dbbbdc5	0.09167055
96	0x3df924ae	0.12165199
97	0x3d127d3c	0.035763964
98	0x3d7e8a2a	0.062143482
99	0x3d8ddddc	0.06927082

W_ext f4 [60, 2]
0	0xbfdd12b8	-1.7271338
1	0xbedf7a7d	-0.4364814
2	0x3e939fa4	0.28832734
3	0x3ef03e27	0.46922418
4	0x3fefdb2b	1.873876
5	0x402414d5	2.5637715
6	0x3f8e7b09	1.1131297
7	0x3cb44dd1	0.022009762
8	0x3e95eb7d	0.29281226
9	0xbe35057a	-0.1767787
10	0xbf50df44	-0.81590676
11	0x3f019877	0.5062327
12	0xbf9b0775	-1.2111651
13	0xbddc97ed	-0.10771165
14	0x3f8c27f7	1.0949696
15	0xbfcd7af9	-1.6053153
16	0x3f5a43bb	0.852596
17	0x3f564aab	0.83707684
18	0xbeec42da	-0.46144754
19	0xbed82de6	-0.42222518
20	0x3e8e6d9d	0.27818003
21	0x403ccbb6	2.9499335
22	0x3fbc9f45	1.4736105
23	0x3f3e80a9	0.7441507
24	0xbee8c38f	-0.454617
25	0x3f40eabc	0.75358176
26	0x3f16f072	0.5896064
27	0xbf4b4f3e	-0.7941779
28	0x3e91f8ab	0.2851003
29	0x3f0d5019	0.55200344
30	0x3e0aee14	0.13567382
31	0x3fd0fdf5	1.6327502
32	0xbfb3ab35	-1.4036623
33	0x3f81ba78	1.0135031
34	0x3e4a61fd	0.19763942
35	0xbf81e892	-1.01491
36	0x3ef42984	0.47687924
37	0x3e5dba73	0.21653156
38	0x3fa3242a	1.2745411
39	0xbf642587	-0.8911976
40	0x3fa482f5	1.2852465
41	0x3efb16bd	0.49040785
42	0xbe93ed7e	-0.2889213
43	0xbf9a5b11	-1.2059041
44	0xbfbb2d50	-1.4623203
45	0xbe2d27ac	-0.16909665
46	0xbeaa9e0f	-0.33323714
47	0xc049a3d1	-3.1506236
48	0xbf19c95f	-0.6007289
49	0xbeb4809a	-0.35254365
50	0xbebdf82b	-0.371034
51	0xbd14d714	-0.036337927
52	0xbec34274	-0.38136637
53	0xbf0e6498	-0.55622244
54	0x3eaf041d	0.34182826
55	0xbf0edb96	-0.5580381
56	0x3e312b0d	0.17301579
57	0xbfb944a8	-1.4474077
58	0x3f8da23e	1.1065137
59	0xbdfec5a4	-0.12440041
60	0x3fdb6c6f	1.7142466
61	0x3e3f3a26	0.18674526
62	0x3e5cc88d	0.21560879
63	0x3df876c1	0.121320255
64	0x3d91142a	0.07083924
65	0x3e21963f	0.1577997
66	0xbda67aad	-0.08128867
67	0xbfda2d4a	-1.7045071
68	0xbeb12e43	-0.34605607
69	0xbe348ec6	-0.17632589
70	0xbe41b3ed	-0.18916292
71	0xbeff8be2	-0.4991141
72	0xbf71630f	-0.94291776
73	0x3f677939	0.90419346
74	0xbf053fd8	-0.5205054
75	0xbfe3b902	-1.7790835
76	0xc00ec294	-2.230626
77	0xbf81b624	-1.013371
78	0xbf58e0b4	-0.8471787
79	0x3f8d4280	1.1035919
80	0xbe29badf	-0.16575192
81	0x3fe69637	1.8014592
82	0x3e9d3a93	0.3070875
83	0x3fb8e902	1.4446108
84	0x3efe3b72	0.49654728
85	0x401f8a92	2.4928327
86	0x3ff19b3d	1.88755
87	0x3ec57d6e	0.38572258
88	0x3ed4c30e	0.41555065
89	0x3eabd704	0.3356248
90	0x3e433942	0.19064811
91	0xbe203803	-0.15646367
92	0xbe77c17e	-0.24194905
93	0xbf64bfd8	-0.8935523
94	0xbf917cdb	-1.1366228
95	0x3cabecb9	0.020986902
96	0x3de3a1bf	0.11114835
97	0xbf52cb12	-0.8234111
98	0xbecd07c3	-0.40044984
99	0xbf62535e	-0.8840846
100	0xbea74b9a	-0.32674867
101	0xbdd95518	-0.106119335
102	0xbda1419e	-0.078738436
103	0x4001866f	2.0238302
104	0xbcd3891b	-0.025822213
105	0x3da8a134	0.08233872
106	0x3fd32413	1.6495384
107	0xbf4848c0	-0.7823601
108	0x3f5d39e6	0.8641647
109	0xbe487d6e	-0.19579098
110	0xbf84f53e	-1.0387342
111	0x3f572bec	0.84051394
112	0x3fe591ff	1.793518
113	0x3f11ec86	0.5700153
114	0xc015a663	-2.3382804
115	0xbf9e8f3d	-1.2387463
116	0xbde9e835	-0.11421243
117	0x3ee7a69b	0.45244297
118	0x3fb9ae35	1.4506289
119	0x3da5b71a	0.080915645
