DrosophilaLabRot/data_store/mbon_sensitivity/first_order_nets/trained_nets/16_mbons/first_order_2000ep_1hop_N06.pt (torch_old, 35159 bytes, 4 tensors)

W_recur f4 [92, 92]
0	0xbeb856c9	-0.36003712
1	0xbe5f62d7	-0.21815048
2	0x3e635f46	0.22204313
3	0xbe337dcb	-0.17528455
4	0xbddcdb0d	-0.10783968
5	0x3d8a7de2	0.067622915
6	0x3e1a0b9a	0.15043488
7	0x3cb6acab	0.022299131
8	0xbe677a94	-0.22605354
9	0x3d91af3c	0.071135014
10	0x3e7da161	0.24768592
11	0x3ed33445	0.41250816
12	0xbed52cec	-0.41635835
13	0xbe4997e3	-0.19686846
14	0xbe3bd986	-0.18344697
15	0xbf0d23e6	-0.551329
16	0xbe3d275b	-0.18472044
17	0xbd5b042a	-0.053470768
18	0x3db91981	0.090380676
19	0xbdc8c95d	-0.09804032
20	0xbdbe32ef	-0.092870586
21	0xbe4c30e9	-0.19940533
22	0xbe072476	-0.13197502
23	0x3e0d8521	0.13820316
24	0xbdb6c22f	-0.08923756
25	0xbdab9b6d	-0.083792545
26	0xbd3dbab0	-0.046320617
27	0xbc08beb1	-0.008346246
28	0xbca0a851	-0.01961151
29	0x3d6205ff	0.0551815
30	0xbdaab9cb	-0.083362184
31	0xbd1274ad	-0.035755802
32	0xbe5a940c	-0.21345538
33	0xbb42616d	-0.002966012
34	0xbde54797	-0.11195295
35	0xbd3d081c	-0.04615031
36	0xbdad4505	-0.0846043
37	0xbb04e4a7	-0.002027789
38	0x3c6ffb59	0.014647328
39	0x3d7d6025	0.06185927
40	0xbc187cbf	-0.009307086
41	0xbdcf46d3	-0.101209305
42	0x3e37eb3f	0.17960833
43	0xbd8b4975	-0.0680112
44	0xbd8600ff	-0.06543159
45	0xbcd8a72c	-0.026446901
46	0xbdbe75c8	-0.09299809
47	0x3d037ffa	0.03210447
48	0x3d67af1b	0.056563478
49	0xbe45b076	-0.19305596
50	0x3e614375	0.21998389
51	0xbdb71fa7	-0.08941584
52	0xbc82922e	-0.015938845
53	0xbd813163	-0.06308248
54	0xbd933545	-0.07187895
55	0x3d3ecc25	0.046581406
56	0xbdee0578	-0.11622137
57	0xbdbca4b5	-0.09211103
58	0xbdf0c54d	-0.11756382
59	0xbe0139f7	-0.12619768
60	0xbd53e063	-0.051727664
61	0x3e684202	0.2268143
62	0x3c68e92d	0.01421575
63	0xbdf792c8	-0.12088543
64	0x3d8baab1	0.06819666
65	0x3de84b05	0.11342434
66	0x3e133f4c	0.14379615
67	0xbdb501db	-0.088382445
68	0xbd167cea	-0.03674022
69	0xbc818967	-0.015812589
70	0xbd8485b9	-0.06470818
71	0x3e28d1b5	0.16486247
72	0x3d0ff00c	0.035141036
73	0xbcb14c50	-0.021642834
74	0x3e33ae75	0.17547019
75	0xbda78f2b	-0.08181604
76	0x3ed3b1ba	0.41346532
77	0x3d2023ed	0.03909676
78	0x3ec69686	0.38786715
79	0x3d544328	0.051821858
80	0x3dcbcefd	0.09951589
81	0xbe37faed	-0.17966814
82	0x3bf4e56a	0.0074736373
83	0x3cf676f0	0.03008601
84	0x3d948b45	0.07253126
85	0xbcda625b	-0.026658228
86	0x3d59c59a	0.053166963
87	0x3e9ad286	0.30238742
88	0xbe28b75c	-0.16476196
89	0xbe93cec2	-0.2886868
90	0x3ea914bf	0.3302364
91	0xbd6f4dab	-0.05842368
92	0xbdef7137	-0.11691516
93	0x3d4c6628	0.04990211
94	0xbe331d25	-0.17491587
95	0xbf07a8a3	-0.52991694
96	0x3e8710ad	0.2637991
97	0xbe85a262	-0.2610045
98	0xbf2b686f	-0.6695623
99	0x3e1e6a6b	0.15470283
100	0xbe101354	-0.14069873
101	0xbe9ea625	-0.30986133
102	0xbcaeedc9	-0.02135362
103	0x3e5fdebc	0.2186231
104	0x3e5cd339	0.2156495
105	0xbd93cea1	-0.07217146
106	0xbebae55c	-0.36503112
107	0xbe45dbc7	-0.1932212
108	0xbe12c21e	-0.14331862
109	0x3dd89492	0.105752125
110	0xbd4da73c	-0.050208315
111	0x3d6c352a	0.05766789
112	0x3e83e093	0.25757274
113	0x3db626e8	0.088941395
114	0xbe157429	-0.14595093
115	0xbc77b16c	-0.015117984
116	0xbdc5fe1c	-0.09667608
117	0x3d0c1bcf	0.034206208
118	0x3aef1646	0.0018240891
119	0xbc0ef37f	-0.008725046
120	0x39522fd1	0.00020044974
121	0xbd86ee22	-0.06588389
122	0xbc52c643	-0.012864652
123	0x3bfae87e	0.0076571098
124	0xbb648de4	-0.0034874612
125	0x3b9a364f	0.004706181
126	0x3e32a017	0.17443882
127	0x3e4f6fea	0.20257536
128	0xbcae340c	-0.021265052
129	0xbe031864	-0.12802273
130	0x3c298841	0.010347427
131	0xbe4d3d14	-0.2004283
132	0x3e2a7d0f	0.16649269
133	0x3da93d6e	0.0826367
134	0xbe0efb2a	-0.13962999
135	0xbd254807	-0.040351894
136	0xbb8f2206	-0.0043680696
137	0x3b5638c9	0.0032687655
138	0x3bc3ad23	0.0059715672
139	0x3ce8b994	0.028408803
140	0xbe060dcb	-0.13091199
141	0x3de1c065	0.110230245
142	0xbd3f7edd	-0.046751846
143	0xbb66998e	-0.003518674
144	0x3e13141a	0.14363137
145	0xbdb0fbea	-0.08641799
146	0x3dba91a2	0.091098085
147	0xbe4fa02c	-0.20275944
148	0x3d3e2cf7	0.0464296
149	0xbdaaf581	-0.083476074
150	0xbe92ad2b	-0.28647742
151	0xbe0217d3	-0.127044
152	0xbdd5ad9f	-0.10433506
153	0xbd0a98d4	-0.033837155
154	0xbe0396a6	-0.12850437
155	0x3cf3f468	0.029779628
156	0x3dc815f7	0.097698145
157	0xbcd1a4be	-0.02559125
158	0xbd939663	-0.07206418
159	0x3cef1501	0.02918482
160	0xbde7c068	-0.113159955
161	0xbc42143e	-0.011845646
162	0x3db967f0	0.09053028
163	0xbe0324f3	-0.12807064
164	0x3dcc01cd	0.09961281
165	0xbc1b4300	-0.009476423
166	0x3e630105	0.22168358
167	0xbdfeec72	-0.12447442
168	0xbe2102c0	-0.15723705
169	0x3c04443b	0.008072908
170	0x3d16dcd2	0.036831684
171	0x3c8e1986	0.017346155
172	0xbd21c72a	-0.03949658
173	0x3d22f028	0.039779812
174	0xbd8e4116	-0.06946008
175	0xbe390f8c	-0.18072337
176	0x3cc99c9c	0.02461081
177	0xbe61b81c	-0.22042888
178	0x3c89b42d	0.016809547
179	0xbd1656f9	-0.036704037
180	0xbe8a83bd	-0.27053633
181	0x3e9d4a81	0.30720904
182	0xbd2faa3e	-0.042886965
183	0xbdad8efd	-0.084745385
184	0xbe9d685b	-0.3074368
185	0xbe79bef8	-0.24389255
186	0xbe3371d3	-0.17523889
187	0xbe44afd1	-0.19207694
188	0xbd9c1b26	-0.07622366
189	0xbb039409	-0.002007725
190	0x3e953bec	0.2914728
191	0xbe9b8119	-0.3037193
192	0xbe64cb2e	-0.22343132
193	0xbe64fb33	-0.2236145
194	0x3e8e842d	0.27835217
195	0xbec9433e	-0.39309114
196	0x3c5205f6	0.012818804
197	0x3d9d276f	0.07673537
198	0x3e145871	0.14486863
199	0xbea281ea	-0.31739742
200	0x3ddcec07	0.10787206
201	0xbe1b5860	-0.15170431
202	0xbd29697f	-0.041360375
203	0x3b504a75	0.003178266
204	0x3d9e15d1	0.07719005
205	0xbd3abe9b	-0.04559193
206	0x3d777f5b	0.06042419
207	0x3d9eaea5	0.077481546
208	0x3cab9fc0	0.020950198
209	0xbbb09b19	-0.005389583
210	0xbd0850c4	-0.03328015
211	0x3d91ee6f	0.07125556
212	0xbdb7e536	-0.089792654
213	0x3e1a8bda	0.15092412
214	0xbe464f1b	-0.19366114
215	0xbe285a36	-0.16440663
216	0x3e47a32b	0.19495837
217	0xbcaf5161	-0.02140111
218	0xbd4faf6a	-0.050704397
219	0x3e0064fc	0.12538522
220	0x3d0762b0	0.0330531
221	0xbde639ff	-0.112415306
222	0xbb027a97	-0.0019909495
223	0xbb242d1d	-0.0025051304
224	0xbddff33d	-0.10935066
225	0x3e0ea96f	0.13931821
226	0x3de796f5	0.1130809
227	0x3d66e3fe	0.056369774
228	0xbdc1447c	-0.094368905
229	0x3e687140	0.22699451
230	0x3d0eaf55	0.03483518
231	0x3d489b89	0.048976455
232	0xbdfc9528	-0.12333137
233	0x3d417a2c	0.047235653
234	0xbdbd5016	-0.09243791
235	0x3cfad4f9	0.030619131
236	0xbe6a57bd	-0.22885032
237	0xbb87f39f	-0.004148915
238	0xbc05bd68	-0.008162834
239	0x3dc698fd	0.09697149
240	0x3bb532d1	0.0055297394
241	0x3e5daed3	0.21648721
242	0xbc3266c9	-0.010888764
243	0x3dd86d8b	0.10567769
244	0xbe3ce149	-0.18445314
245	0x3d6c2a96	0.0576578
246	0x3d622724	0.05521311
247	0x3e412fe2	0.18865922
248	0xbe01fac1	-0.12693311
249	0xbe0c0203	-0.13672642
250	0x3dac549a	0.08414574
251	0x3c8f109d	0.017463977
252	0x3d809d38	0.06279987
253	0x3d351aab	0.044214886
254	0x3d45130b	0.048113864
255	0xbcc6d8c3	-0.024273282

W_readout f4 [1, 16]
0	0x3eab1e95	0.3342177
1	0xbe907d41	-0.2822056
2	0x3ec30b50	0.38094568
3	0x3e6b8d87	0.23003207
4	0x3eb5caf2	0.35506397
5	0x3efbcda4	0.4918033
6	0x3e0cd6ef	0.13753866
7	0xbe06dc49	-0.1316997
8	0x3f0bc671	0.5459967
9	0xbea43882	-0.32074362
10	0xbef766de	-0.4832067
11	0xbf0b0f89	-0.5432058
12	0xbf01e839	-0.5074497
13	0x3e99e270	0.3005557
14	0xbe958a38	-0.29207015
15	0xbe47bb36	-0.19505009

bias f4 [92]
0	0x3d8ad338	0.06778568
1	0x3dc3a82d	0.09553561
2	0x3d870bc4	0.06594041
3	0x3e293d0c	0.16527194
4	0x3d24280c	0.040077254
5	0x3ddffac1	0.109364994
6	0x3dfed1dc	0.12442371
7	0x3e328478	0.17433345
8	0x3dadf9bd	0.084948994
9	0x3dd1e049	0.10247857
10	0x3e29a5ea	0.16567197
11	0x3d3d2a5c	0.046182975
12	0x3da2e20b	0.079532705
13	0x3e586556	0.21132407
14	0x3d20e433	0.039280128
15	0x3e63cb4f	0.22245525
16	0x3dcccccd	0.1
17	0x3dcccccd	0.1
18	0x3dcccccd	0.1
19	0x3dcccccd	0.1
20	0x3dcccccd	0.1
21	0x3dcccccd	0.1
22	0x3dcccccd	0.1
23	0x3dcccccd	0.1
24	0x3dcccccd	0.1
25	0x3dcccccd	0.1
26	0x3dcccccd	0.1
27	0x3dcccccd	0.1
28	0x3dcccccd	0.1
29	0x3dcccccd	0.1
30	0x3dcccccd	0.1
31	0x3dcccccd	0.1
32	0x3dcccccd	0.1
33	0x3dcccccd	0.1
34	0x3dcccccd	0.1
35	0x3dcccccd	0.1
36	0x3dcccccd	0.1
37	0x3dcccccd	0.1
38	0x3dcccccd	0.1
39	0x3dcccccd	0.1
40	0x3dcccccd	0.1
41	0x3dcccccd	0.1
42	0x3dcccccd	0.1
43	0x3dcccccd	0.1
44	0x3dcccccd	0.1
45	0x3dcccccd	0.1
46	0x3dcccccd	0.1
47	0x3dcccccd	0.1
48	0x3dcccccd	0.1
49	0x3dcccccd	0.1
50	0x3dcccccd	0.1
51	0x3dcccccd	0.1
52	0x3dcccccd	0.1
53	0x3dcccccd	0.1
54	0x3dcccccd	0.1
55	0x3dcccccd	0.1
56	0x3dcccccd	0.1
57	0x3dcccccd	0.1
58	0x3dcccccd	0.1
59	0x3dcccccd	0.1
60	0x3dcccccd	0.1
61	0x3dcccccd	0.1
62	0x3dcccccd	0.1
63	0x3dcccccd	0.1
64	0x3dcccccd	0.1
65	0x3dcccccd	0.1
66	0x3dcccccd	0.1
67	0x3dcccccd	0.1
68	0x3dcccccd	0.1
69	0x3dcccccd	0.1
70	0x3dcccccd	0.1
71	0x3dcccccd	0.1
72	0x3dcccccd	0.1
73	0x3dcccccd	0.1
74	0x3dcccccd	0.1
75	0x3dcccccd	0.1
76	0x3dbb96ee	0.09159647
77	0xbef72b61	-0.48275283
78	0xbde6df79	-0.11273093
79	0x3e28c095	0.16479714
80	0xbe83d791	-0.25750402
81	0x3d1d39da	0.03838525
82	0x3d01726e	0.03160327
83	0xbe509082	-0.20367625
84	0x3c982a4f	0.018574862
85	0x3d66981a	0.0562974
86	0x3c633d15	0.013869544
87	0xbe99effd	-0.3006591
88	0xbda13759	-0.07871885
89	0x3da6cc3a	0.08144422
90	0x3df86cda	0.12130137
91	0xbe8d61d0	-0.27613688

W_ext f4 [16, 2]
0	0xbf41d8dc	-0.75721526
1	0xbe160c69	-0.14653172
2	0x3f93ddd0	1.1552067
3	0x3fa60839	1.2971259
4	0xbf9f77af	-1.24584
5	0x3f076d6b	0.52901334
6	0x3f32d972	0.69863045
7	0x3e4512fa	0.1924552
8	0xbfed43e8	-1.8536348
9	0x3f491184	0.7854235
10	0xbfe399bf	-1.7781295
11	0xbfcec1ce	-1.6152894
12	0x3ea9aac5	0.331381
13	0x3ea4e01d	0.32202235
14	0xbf0916f8	-0.5355067
15	0x3f2319ee	0.6371144
16	0xbc29bc50	-0.010359839
17	0xbf3081ae	-0.68947875
18	0xbf6bf955	-0.92177325
19	0xc007f259	-2.1241667
20	0x3dc46e85	0.095913924
21	0xbf659475	-0.8967965
22	0x3f9fcad4	1.2483773
23	0x3efa8d9b	0.4893616
24	0x3e9075db	0.28214917
25	0xbe97c650	-0.29643488
26	0xbec9960b	-0.39372286
27	0xbf90872a	-1.1291249
28	0x3dfd39a7	0.12364512
29	0x3e04c38d	0.12965222
30	0x3f7224a4	0.9458716
31	0x3ec96cc5	0.39340797
