trained_N9_continual_learning_wt_inc.pt (torch_old, 42606 bytes, 5 tensors)

W_recur f4 [100, 100]
00000000: 3ced 95ba 58ae b83d b62c 85be 4b02 b2bd
00000010: 400d c4bc 865e 813d a948 a63d 3c72 6dbe
00000020: 094b 5bbc f675 e73e 4071 a1be 76e3 1a3e
00000030: 63dc d43d 4bce 80bd 9b74 bd3e b42b 10bd
00000040: 71e1 3abe 42da 4cbd 92e2 433e bc7f 02be
00000050: ab75 093d 6e94 30be 8c10 093e 61cf 8fbd
00000060: 2908 d4bd 78d0 f7bd 3dac 82be 8e10 a33d
00000070: ee52 a23d e35d 1fbe dda8 fcbc b7a2 953d
00000080: e6a5 db3c 1090 9bbe 83c2 48be 0567 c2bd
00000090: 0d63 2bbd 1627 d8bc d614 403e 558a f13d
000000a0: 6ecd 98be 530f 4e3e 47df 9dbd 4fe2 5cbc
000000b0: 5d46 1bbe 5781 54bc d2f0 25bd 22fd 503e
000000c0: 7849 043f 864d acbc b358 84bd 8460 123e
000000d0: 46c8 81bd f997 5f3c 6e5a 633e 9558 183c
000000e0: a3c2 1f3d 2c5c 923d 24d3 a23d fc6b f6bd
000000f0: be78 003c e6d8 9cbd ddd5 0bbc 5618 513e
00000100: 5abf ae3d ef6b d23b 6f93 dc3c 26a8 1f3e
00000110: 8b4b de3c 6cc4 77be 91c0 7e3e 19bf ad39
00000120: ffc7 d3bc 974f b53d b190 ffbd 37d0 ebbd
00000130: ac9a 9c3d 06e0 08bd 4261 ba3d 358f fbbd
00000140: 7f51 87be 2f49 d13d 73af b1bd 7c6d 5bbe
00000150: 7496 30be 1cd4 37be e798 f0bc 353f 4fbd
00000160: db75 64be 5445 a5be 379b 313e 1943 713e
00000170: a808 52be e574 103f 5a70 493e b2b5 443d
00000180: 0fc2 e33d 9566 0d3d f7f5 0ebd 73f1 653e
00000190: 3435 22be 350f 56be e69e 543e fef6 813e
000001a0: a097 0fbd b29a ff3d 355f 1b3e 1891 fbbc
000001b0: 1bda 6bbd 423d 623d 5f29 10be 1d74 123e
000001c0: 8f0e c2be 8af7 0fbe 84d6 063b ef5f b83e
000001d0: 9b05 bebc b0a1 c53d ed5a de3c 68c5 3e39
000001e0: 2858 bcbd 168b 0c3d 0544 74be 7565 d93e
000001f0: 9e51 22bd 7f25 5ebe 549e 35bd c819 62bd
00000200: 7b7f f93d bbfc 7ebd bebc 46be 3f62 c0bc
00000210: 5274 69bd 7c6d 98be a6d7 893c a6de 2b3e
00000220: 40a1 f93d 509a 03be 0632 5b3d ef65 08be
00000230: 8bf0 f5bc bcd9 80bd 6646 ba3d d1ab 263c
00000240: 95c0 06be c038 fd3c fd8a 43be b3ea 62bd
00000250: 0ac1 a73e 48fd 373d d00e 473e ae50 a73c
00000260: 70b8 01be 7ca1 f83c 86e9 7ebc 4bd5 e13c
00000270: 4b14 95bd 712d 77bc 9c8f 38be e6e5 febd
00000280: 71db 27bd 8107 a63b 43a3 283e a96b 823c
00000290: 9c9e 933d 029a 64bd 4593 d4bb 9323 b43c
000002a0: e7f8 753d 9ff9 01be 2567 073e c077 d93d
000002b0: 39f6 183e d011 903e 0143 1d3d 6755 9ebe
000002c0: 2d25 4b3e bbbe 22be f98b 113e 9dbb a8be
000002d0: 9a84 48bc ca4d ab3e 6fc1 e2bc 2606 c13d
000002e0: 05e5 b2bd 10b9 06bf 778b 483d 95a2 a93e
000002f0: 931e 7d3e f8ae 90be b1a5 9f3c d199 413e
00000300: 4ea3 6bbd a9a9 a5bd ca35 15be 11f7 8f3d
00000310: a5d8 783d 7ba9 c3bd facc 053d 4105 3ebe
00000320: 48f0 1bbe 6878 8b3d 88cf 87bd a9c6 4abe
00000330: 7ab9 9dbd c3e6 a13e 8fc9 35bd 6ff8 cdbe
00000340: 90cd b7be bfab 8abe ce4e 123e a754 463e
00000350: acc8 5bbe e123 89be 1e91 7dbd 0fd0 0bbe
00000360: 2919 1a3e 8d37 4cbe 00de b3bd 8536 c6be
00000370: 5070 4dbe c579 dabd 2283 a3bd 9906 e4bc
00000380: 5369 b0be 7e6f 9e3d 85b3 61bd d1cb 05be
00000390: 93eb 7c3e 9c10 73be 9cde a6bd 972d c53d
000003a0: da80 bb3d 8402 15be 837d 613e 5d4e 983e
000003b0: e5eb 35bc 4ff3 cf3c bbe8 eebd 305c c5bd
000003c0: 38f5 bc3d f72e 82be 3d66 0d3e 5572 b33b
000003d0: 1959 7c3e 8b1d e8bd f8f4 ae3c a6b5 c0bc
000003e0: 02a8 b23e c57a 9abd ee77 9fbd 5cfa 5e3e
000003f0: b96a 55be 6e0e e0bd 6fb1 97be 4aa4 a3bd
-0.0011438499 0.090176284 -0.26010674 -0.086918436 -0.0239321 0.06316857 0.081193276 -0.23188108
-0.013384589 0.45207185 -0.31531715 0.15125832 0.10393598 -0.06289347 0.37003025 -0.03519793
-0.18250062 -0.050012834 0.19129398 -0.1274404 0.033559483 -0.17244121 0.13385218 -0.07021976
-0.10353119 -0.12100309 -0.25522032 0.07962142 0.07925974 -0.15563159 -0.030842239 0.07306426
0.026812505 -0.30383348 -0.1960545 -0.09492306 -0.04184251 -0.026385825 0.18757948 0.11793963
-0.2984423 0.20123033 -0.077086024 -0.013481691 -0.1516356 -0.01297029 -0.040512867 0.20409063
0.51674604 -0.02103306 -0.064622305 0.1429463 -0.06337027 0.013647073 0.22202465 0.009298463
0.03900398 0.07146487 0.07950428 -0.12032315 0.007841287 -0.076585576 -0.008534876 0.2041944
0.08532591 0.006421558 0.02692577 0.15591487 0.027135631 -0.24196023 0.24878146 0.0003313951
-0.025852202 0.08853071 -0.124787696 -0.11514323 0.07646689 -0.03341677 0.09100582 -0.12283174
-0.26429364 0.10219037 -0.086760424 -0.21428484 -0.17244893 -0.17952007 -0.029369785 -0.05059739
-0.22310583 -0.32279456 0.17344366 0.23560752 -0.20511115 0.56428367 0.19671765 0.04802484
0.11120998 0.034521658 -0.03490254 0.22455387 -0.15840608 -0.20904239 0.2076374 0.25383753
-0.03505671 0.12480678 0.15173037 -0.030708835 -0.05758105 0.0552342 -0.14078282 0.14302106
-0.37901732 -0.14059272 0.0020574639 0.36010692 -0.023196032 0.0964998 0.027142966 0.00018193352
-0.09196502 0.03431233 -0.23854072 0.42460218 -0.039628617 -0.21693991 -0.044340447 -0.05520037
0.12182518 -0.06225274 -0.19407937 -0.023484347 -0.056995697 -0.2977103 0.016826462 0.16784152
0.12188959 -0.12851834 0.053514503 -0.13320135 -0.030021926 -0.062915295 0.09095459 0.0101728
-0.13159402 0.03091085 -0.19095989 -0.055399608 0.32764465 0.044919282 0.19439244 0.020424213
-0.12668014 0.03035044 -0.015558606 0.027567526 -0.07279261 -0.015086518 -0.18023533 -0.124461934
-0.04098076 0.0050668125 0.1646853 0.015920477 0.07207987 -0.055810936 -0.0064872825 0.02198962
0.060051825 -0.12692879 0.1322294 0.106185436 0.14937676 0.2813859 0.038393978 -0.30924532
0.198384 -0.1589307 0.14213552 -0.32955638 -0.012238646 0.33457786 -0.027680127 0.09425001
-0.08735088 -0.5262613 0.04896113 0.33131853 0.24718694 -0.2825849 0.019488188 0.18906333
-0.057528786 -0.08089001 -0.145713 0.07029546 0.060753483 -0.0955381 0.032666184 -0.18556692
-0.15228379 0.06810075 -0.0663138 -0.19802345 -0.077013925 0.3162137 -0.044381674 -0.40228602
-0.3589902 -0.27084157 0.14287874 0.1936823 -0.21463269 -0.26785186 -0.061905973 -0.13653587
0.1504866 -0.19943066 -0.087825775 -0.3871347 -0.20062375 -0.10667757 -0.07983996 -0.027835177
-0.34455356 0.07736109 -0.055102844 -0.13066031 0.2469924 -0.23736805 -0.08147928 0.09627836
0.09155436 -0.14551741 0.22020535 0.29747286 -0.011103605 0.025384573 -0.116654836 -0.09636724
0.09226459 -0.25426456 0.13808532 0.005476276 0.24643363 -0.1133376 0.021357045 -0.023524117
0.34893805 -0.07542948 -0.07786547 0.21775192 -0.20841493 -0.10940252 -0.2962756 -0.0799032

W_ext f4 [60, 2]
00000000: 80ee c6be 8bda a1be c118 253f 1bbc 74bf
00000010: 0c43 1e40 0931 f43e 4f9b 0140 3011 103f
00000020: 9b8a 79bf 7730 63bd f80f 37bf 0c30 783f
00000030: 74f8 14be 8484 813f 9c87 eebe 7d26 113f
00000040: 53ab 5ebd efa6 813f 15b3 e9be 892c febe
00000050: 68dc 3c3f 3991 043d 1983 03bf 22fb 19bf
00000060: e19a ebbf b04b a83f 6350 2dbb f02e a5bf
00000070: 3a9c dcbe b5bb dabe c3ba f93e 2ae8 0bbf
00000080: d4bd 3abd 932c 0840 1245 113e f37a 4ebf
00000090: ba9f 9abf abdf 09c0 c76b 1f3f ca96 8bbe
000000a0: 2e43 ba3e 6112 8e3f e7c0 903f a9d3 a1bf
000000b0: 714d acbf 9337 2d3f 9eed 943f 9c8e c1bf
000000c0: 4e39 86bf 6483 c9bd 020c 86bf 71ff 0840
000000d0: 9544 973f 9ba0 903f b571 923f 1967 3a3f
000000e0: 10eb 81bf c0be 9e3e c039 90bf 7fac 93bf
000000f0: ff89 dbbe 8dc0 b63f ee91 22bf e3f7 723f
00000100: 403a 30bf 03d7 cf3d 10c4 cdbe ad06 7e3e
00000110: 5852 4cbd 17b2 8fbf 7b1c 903e 33af 4ebf
00000120: 993b db3c a804 833f ea9d b93e 416a 02bf
00000130: 0654 b23f 9ad9 01bf 8a00 ce3e afee c73e
00000140: 41bb 1b3f a5a7 793f 5960 d83f 7621 28be
00000150: ecdd 50bf 30ec 7fbf feec 1a3e 623d c7be
00000160: d4d8 10c0 13a0 8f3f 99d0 60be 6c0d 353e
00000170: fa2c 913d 203a 5b3f 31c2 c8bd 3a70 c13d
00000180: 960c 0040 96ac 993f 0ab3 fdbe 81f3 d13e
00000190: efc7 95be e44d 62be 8623 c5be 25eb 273f
000001a0: 45f7 243d 1fe0 523f 4662 26bf e7a1 99be
000001b0: 1e63 37bd 7170 88bf e292 ebbf 61bf 14bf
000001c0: d75a c2be 2378 ddbe b623 973f 0971 e6bd
000001d0: c30e 40be b110 2bbf c7c2 77bf 8caf b83e
-0.38853836 -0.31612048 0.64490896 -0.95599526 2.4728422 0.4769366 2.0251043 0.56276226
-0.9747712 -0.05546614 -0.7150874 0.96948314 -0.14547902 1.0118566 -0.46587837 0.56699353
-0.054362606 1.0129069 -0.4564444 -0.49643353 0.73773813 0.032365058 -0.51371914 -0.60148823
-1.840664 1.3148098 -0.002644562 -1.2904949 -0.4308794 -0.42721334 0.487753 -0.5465113
-0.04559119 2.1277206 0.14186504 -0.80656356 -1.2079995 -2.1542766 0.6227383 -0.2726348
0.3637938 1.1099359 1.1308869 -1.2642719 -1.3461133 0.67662925 1.1635015 -1.5121646
-1.0486238 -0.09839514 -1.0472414 2.140591 1.1817805 1.1299013 1.1440951 0.72813565
-1.014986 0.31004906 -1.1267624 -1.1537017 -0.4287872 1.4277512 -0.6350392 0.94909495
-0.6883888 0.10148432 -0.40188646 0.24807234 -0.049883217 -1.1226224 0.2814673 -0.8073608
0.026761817 1.0235796 0.3625329 -0.5094338 1.3931892 -0.5072266 0.40234786 0.3904929
0.608326 0.9752143 1.6904403 -0.16419014 -0.81588626 -0.9996977 0.15129468 -0.3891402
-2.2632341 1.1220726 -0.21954574 0.17680901 0.07088657 0.85635567 -0.09802664 0.09445234
2.0007682 1.2005794 -0.49550658 0.4100609 -0.292541 -0.22100025 -0.38503665 0.6559318
0.040274877 0.8237323 -0.64993703 -0.30006334 -0.04477226 -1.0659314 -1.84042 -0.5810452
-0.3795993 -0.4325572 1.1807773 -0.112520285 -0.18755631 -0.66822344 -0.9678158 0.36071432

W_readout f4 [1, 20]
00000000: c195 a1be 892c 47bf 855e 38be 0746 b83d
00000010: b02e 44be 5057 413e d229 ff3e 0700 dcbe
00000020: 7da4 a53e 704d c73e 4628 e0be dd58 b5bd
00000030: e6b8 ccbd 7a91 8f3e 593c c13e e669 983e
00000040: 0be0 193e e1c6 683e fedb 913e 5079 fabe
-0.31559566 -0.7780233 -0.18004806 0.08997732 -0.19158435 0.18880963 0.49836594 -0.4296877
0.32352057 0.38926268 -0.43780726 -0.0885484 -0.09996204 0.28040677 0.37741354 0.29768294
0.15026872 0.22732116 0.28488153 -0.4892068

bias f4 [100]
00000000: 0ab8 543d 1ab9 483d bb17 2bbd 21e5 6a3d
00000010: 258e f63d 519d a33d f664 a2bd b67d 953d
00000020: e813 923d 9b19 323d a6c6 633d d24f d03d
00000030: a635 56bd 1b7d 283d a390 5b3d 0ec8 d03d
00000040: f27d 9f3d 97bb b53d 4389 9b3d 6818 6cbb
00000050: 2a83 e53d 0b9d 7c3d 6590 883d fbd5 713d
00000060: 4a81 db3d e553 0d3d 26f0 b43c a354 1f3e
00000070: e2c4 f9bb 9132 a83d 4d3b d33d c1e5 bb3c
00000080: a034 ae3c b139 c83d 9b40 463d e896 8e3d
00000090: 9c31 1c3d 616c 9b3d f8af 9d3b bdf0 b63d
000000a0: ed3e 763d 5b44 5e3d 5120 a33c fc03 b63d
000000b0: c7af e83c 32a8 e43d e6cf ac3d ead7 513b
000000c0: a3ed f63c 8027 663d 7213 a03d 879e a33d
000000d0: d0b5 363d a988 453d 66a2 993d e057 ed3b
000000e0: c1c4 83bc eac7 3a3d db52 1fbd 6dc6 bd3d
000000f0: 459d f93d b5a7 a73d 538f c23d 6427 fd3c
00000100: f434 c93d 911d ef3d b5de cf3d ad7e 363d
00000110: 94b0 48bd 3ba8 5e3d e78e 513d ebc3 653d
00000120: dff4 9c3d ad80 cd3c 532b a03d 4008 893d
00000130: 7bff fb3d a162 bd3c 0065 573c 061a d83d
00000140: 789a 463d bcd9 cc3d 5837 4a3c bf52 813d
00000150: c663 b23c 8991 1fba ae22 083d f57f f93d
00000160: 01d7 923d 3e84 c73d 1c36 863d 3f20 953d
00000170: dca1 323d 4b49 643d 1bdd b03d a925 d83d
00000180: 4f2a 913d ad09 373d d5a7 ae3d f0d1 de3d
0.051933326 0.04900465 -0.041770678 0.05734742 0.12038831 0.0798899 -0.07929413 0.07299368
0.07132703 0.04348145 0.055609368 0.101714745 -0.052297257 0.041134935 0.053604733 0.101944074
0.07787694 0.088736705 0.0759454 -0.003602529 0.11206658 0.061673205 0.06668166 0.05904196
0.10718019 0.034503836 0.022087168 0.1555963 -0.007622347 0.0821277 0.10314045 0.022936704
0.021265328 0.09776629 0.048401456 0.06962377 0.03813325 0.07589031 0.004812237 0.08932636
0.060118604 0.054264408 0.01991287 0.08887479 0.02840413 0.11164893 0.08438091 0.0032019564
0.03014261 0.056190014 0.07816209 0.07989221 0.044606984 0.048226032 0.07501678 0.0072431415
-0.01608503 0.04560081 -0.038897377 0.09266362 0.121882 0.081862845 0.09499993 0.030902572
0.09824553 0.11675561 0.101499 0.0445544 -0.048996523 0.054359656 0.051161673 0.056095045
0.07663893 0.025085771 0.078207634 0.06691027 0.123045884 0.023118319 0.013146639 0.105518386
0.048487157 0.10002467 0.012342297 0.06314611 0.021776091 -0.0006087055 0.033236198 0.12182609
0.07169915 0.0974202 0.06553289 0.07281541 0.043611392 0.05573396 0.086359225 0.10554058
0.07088148 0.044686962 0.08528105 0.10879886

beta f4 [200]
00000000: b469 cbba 804a b3b9 d816 54b9 bac4 3ebb
00000010: d734 04bc f66d 14bc aece c5bb 269d ddba
00000020: d4c2 bbb9 9e42 bbba 96fa 88ba 957d c1bb
00000030: 220f 71bb 004e 3dbb a27c 3abb 6c72 83ba
00000040: 6042 09bc 530f bdbb 932d 18bc 4bde 10ba
00000050: 8225 54bb 1cc4 c4ba 58a3 8aba bc12 c7bb
00000060: 5215 2dbb 61d3 32bb a733 10bc f564 13bc
00000070: 8266 93bb f30e 86ba 14e9 6bb9 d6b0 16bb
00000080: 5c90 07bc 4246 84ba 4c68 77bb e8e6 adba
00000090: 46d7 86ba 521f 96ba 4e46 07ba 8d5c 05bc
000000a0: b5b2 19bc e00c cfb8 daf1 12bb 16f2 3bba
000000b0: 64f2 6bbb 195c 89ba 0f38 0ebc d082 2aba
000000c0: 30fa 39b9 68ef f6bb 7e81 99ba 20ab e0ba
000000d0: 1222 53bb 533f 31bb 008b 81b8 d02c 90ba
000000e0: 1288 19bb 36fc 5aba e87a 89b9 cce5 b9b9
000000f0: 2cc4 72ba 6437 3fbb 6c1c 0bbb d03d 36ba
00000100: 10d7 2fbb ea12 cbba 8195 09bc da70 c2ba
00000110: c321 06bb f6d2 40bb fd4f e0bb c480 5dbb
00000120: 4a2a 01bb 7ce8 07ba 7e03 edba cc91 48bb
00000130: a86b 12b9 ea14 0eba 3448 81bb aadc 88bb
00000140: 9ae9 4fbb 880c e5ba 7d92 14bc 34dd 1bbb
00000150: 35d8 31bb e08f a9ba 1adc ecbb f2c6 76bb
00000160: d41d 04bc 2760 cebb d7d4 8dba d89d fbba
00000170: 97ab 07bc 2978 9ebb 4ab6 fdbb 32c1 07ba
00000180: cace 31bb f35a 13bc 9c2b 34bb 4919 d2bb
00000190: 3ebd f7bb 0570 03bc 0091 c2ba 68f4 3bba
000001a0: 66a9 03bb 9a1c 90bb 9987 99bb 40c8 e9bb
000001b0: 681f 99b9 3424 01bb caa8 57ba 6c2f 3eba
000001c0: a40d 28bb 808f 10bc a8ca 9bbb 35da 81ba
000001d0: e076 cfba b43a dbba 3c38 52ba 92ee 08bc
000001e0: e0d4 0bbb ccde 89bb 9159 14bb 0c93 87ba
000001f0: eaf6 5fbb a2eb c4bb e4b4 a4ba aa34 38bb
00000200: de34 84ba 7693 edbb ce42 33bb 19b6 07bb
00000210: 1a8f d6bb 7c7c a6bb a8ae f7b8 0f6a 8cbb
00000220: c25f 4cbb 0339 eebb f539 d9bb 4092 50ba
00000230: 2422 39bb bccf 68b9 fe6d acbb c488 ddba
00000240: 82a9 aeba 0c92 a5ba 3495 dbba 23a3 20bb
00000250: 728a fbb9 f83e 30bb c1d7 c5bb f8b9 19bc
00000260: d35e 86bb 5c56 d9bb 9587 06bc 6e4f 8ab9
00000270: 0072 1db9 2ed4 a5ba 4c22 09bc 5850 58b9
00000280: 76f2 32bb 282b d8ba bcd4 41bb 84aa 17bc
00000290: 8a69 2fbb 831f 31bb 4eff 9cba 2c12 15bc
000002a0: b264 aeba 781a 74ba 381d 3cbb 721d 06bc
000002b0: fe11 83bb 3ad2 3bbb a5fb d8bb 2b5b b7bb
000002c0: df4e a0bb f4e6 12bc 8de1 d0bb 2b30 ecbb
000002d0: 204a 1ab9 2ae9 54ba 885a f1b9 62b7 a3ba
000002e0: 00fe f5ba 0b48 0dbc ba69 beba 66e8 3dbb
000002f0: e062 91b7 1781 a7bb 8974 83ba 0584 83bb
00000300: e0f1 8bba d837 f4b8 1215 6cbb 760e c2bb
00000310: 5016 78ba 8069 36b9 67b5 a1bb 902a b9ba
-0.0015519173 -0.00034197047 -0.00020226405 -0.0029108957 -0.008069239 -0.00905942 -0.006036601 -0.0016907796
-0.00035812578 -0.0014286821 -0.0010450657 -0.005904863 -0.0036782701 -0.0028885603 -0.0028455635 -0.0010028607
-0.008377641 -0.005769649 -0.0092882095 -0.00055262883 -0.003237099 -0.0015012058 -0.0010577245 -0.0060752314
-0.0026410413 -0.0027286636 -0.008801377 -0.008996238 -0.004498304 -0.0010227844 -0.00022498175 -0.0022993586
-0.008274164 -0.0010091739 -0.0037751375 -0.0013267668 -0.0010287545 -0.0011453426 -0.00051603175 -0.008139742
-0.009380986 -9.872927e-05 -0.0022421987 -0.00071695575 -0.003600263 -0.0010479718 -0.008680358 -0.0006504478
-0.00017736177 -0.0075358637 -0.0011711565 -0.0017140843 -0.0032216352 -0.00270458 -6.17709e-05 -0.0010999683
-0.0023427051 -0.00083536224 -0.0002622225 -0.00035457162 -0.0009260799 -0.0029177302 -0.0021226658 -0.000695196
-0.0026831068 -0.0015493308 -0.008397461 -0.0014834658 -0.00204669 -0.0029422618 -0.006845473 -0.0033798674
-0.0019709044 -0.0005184484 -0.0018082706 -0.003060448 -0.0001396375 -0.00054199866 -0.003945375 -0.004176696
-0.003172493 -0.0017475048 -0.009068129 -0.002378297 -0.0027136926 -0.0012936555 -0.0072283866 -0.0037655202
-0.008063752 -0.0062980833 -0.0010820878 -0.0019196821 -0.008280656 -0.0048361016 -0.007742678 -0.00051786297
-0.0027131313 -0.008993852 -0.0027491814 -0.0064117056 -0.007560401 -0.008022313 -0.0014844239 -0.0007169903
-0.0020089983 -0.004397941 -0.004685354 -0.0071344674 -0.00029205834 -0.0019705417 -0.00082267507 -0.0007254991
-0.0025642896 -0.008823276 -0.004754383 -0.000990695 -0.0015828274 -0.0016725869 -0.0008019244 -0.008357661
-0.00213366 -0.0042074677 -0.0022636394 -0.0010343506 -0.0034174272 -0.006009535 -0.0012566117 -0.0028107562
-0.0010086556 -0.0072502447 -0.002735305 -0.0020707904 -0.0065478208 -0.0050807577 -0.0001181041 -0.004285104
-0.0031185006 -0.00726998 -0.0066292235 -0.0007956363 -0.002824911 -0.00022202631 -0.0052621355 -0.0016901721
-0.0013325664 -0.0012632026 -0.001675284 -0.00245113 -0.000479776 -0.0026893 -0.0060376828 -0.009382717
-0.0041006594 -0.0066326093 -0.008211036 -0.0002638059 -0.00015015155 -0.0012651735 -0.008369993 -0.00020629296
-0.0027305163 -0.0016492354 -0.0029576262 -0.009256963 -0.0026765787 -0.002702684 -0.0011977942 -0.009098571
-0.0013305156 -0.00093118055 -0.002870394 -0.008185731 -0.0039999476 -0.002865924 -0.0066217952 -0.005595585
-0.0048922147 -0.008966196 -0.006374544 -0.0072078905 -0.00014714198 -0.00081219024 -0.00046034553 -0.0012490565
-0.0018767715 -0.008623133 -0.0014527359 -0.0028977632 -1.733139e-05 -0.0051118243 -0.0010029237 -0.0040135407
-0.0010676943 -0.000116452284 -0.00360233 -0.005922134 -0.0009463774 -0.00017396174 -0.004934955 -0.0014127064
