DrosophilaLabRot/data_store/mbon_sensitivity/second_order_nets/trained_nets/04_mbons/second_order_5000ep_1hop_N15.pt (torch_old, 19559 bytes, 4 tensors)

W_recur f4 [68, 68]
0	0xbe0befc4	-0.13665682
1	0x3e2d0d95	0.16899712
2	0x3eda9e8f	0.42699096
3	0xbf036a16	-0.5133375
4	0x3e1dc213	0.15406065
5	0xbcdcba02	-0.026944164
6	0x3e09dc40	0.13462925
7	0x3d17b697	0.037039366
8	0x3d8ffe6b	0.07030948
9	0x3c6f025c	0.014587965
10	0x3d8e649a	0.06952782
11	0xbda14f99	-0.0787651
12	0x3dc347b8	0.09535164
13	0xbcfb57fb	-0.0306816
14	0xbc4d53b9	-0.012532168
15	0x3d698fcd	0.057021905
16	0x3c89265c	0.016741924
17	0xbc964309	-0.018342512
18	0xbe43bf14	-0.1911586
19	0xbd5abb34	-0.053401187
20	0xbe1fc51b	-0.15602534
21	0x3ddb4902	0.107072845
22	0xbd5beba1	-0.05369151
23	0xbdc22c49	-0.09481103
24	0xbcd1aeca	-0.025596041
25	0x3da9eb04	0.08296779
26	0xbe3856c4	-0.18001848
27	0x3dffaca5	0.12484101
28	0x3e54b30a	0.20771423
29	0xbca04c48	-0.019567624
30	0x3e1550ca	0.145816
31	0xbda35f90	-0.079772115
32	0x3e2e6d26	0.17033824
33	0x3d5fed91	0.05466992
34	0x3d03f1f5	0.03221317
35	0xbd18eee1	-0.037337188
36	0xbe069dd9	-0.13146152
37	0x3c333729	0.010938444
38	0x3e4d29bf	0.20035456
39	0xbe009879	-0.12558164
40	0xbdec3679	-0.11533827
41	0xba995cc7	-0.0011700623
42	0xbd0d28f8	-0.0344629
43	0x3e0ca618	0.13735235
44	0xbe150998	-0.14554441
45	0xbe1a475d	-0.15066285
46	0x3d0095d8	0.031392902
47	0x3d806c9f	0.06270718
48	0xbd9e00ce	-0.07714997
49	0x3ce9c788	0.028537527
50	0xbe4ece16	-0.20195803
51	0xbdc71b11	-0.097219594
52	0x3dc0cf2e	0.094145164
53	0x3db0bab3	0.0862936
54	0xbc46177b	-0.012090559
55	0xbded7cc6	-0.11596064
56	0xbc40ce6c	-0.011767965
57	0x3d75dd70	0.060025632
58	0x3d9969f9	0.07490916
59	0x3d66baa8	0.056330353
60	0x3e17b6d8	0.14815843
61	0x3e421621	0.18953754
62	0xbdc5f6f5	-0.09666244
63	0xbe45c19b	-0.19312136
64	0xbf81f5fb	-1.0153192
65	0x3d840c38	0.06447643
66	0xbf451b68	-0.76994944
67	0x3eee55f6	0.46549958
68	0x3f5061d9	0.81399304
69	0xbed78f1d	-0.42101374
70	0xbe884ee7	-0.26622698
71	0xbec045e2	-0.37553316
72	0x3c6e2d7b	0.014537211
73	0xbe030acd	-0.12797089
74	0xbc9507ca	-0.01819219
75	0x3d565fe4	0.052337542
76	0xbe26c505	-0.16286094
77	0x3e78138f	0.24226211
78	0xbe342b68	-0.17594683
79	0xbe365e2e	-0.17809364
80	0xbe552fb2	-0.20818976
81	0xbc50ea5b	-0.012751187
82	0x3d201c06	0.039089225
83	0xbd9840f0	-0.07434261
84	0xbdc772f9	-0.09738726
85	0x3dfc09ac	0.12306532
86	0xbcadeedc	-0.021232061
87	0x3e5d9f9a	0.21642914
88	0xbc76a690	-0.01505436
89	0x3d298c08	0.04139331
90	0xbe13fc4e	-0.14451715
91	0x3e116090	0.14196992
92	0x3d3ed844	0.046592966
93	0xbe2f507a	-0.17120543
94	0x3d2ed391	0.042682234
95	0xbc18f967	-0.009336806
96	0xbe5da413	-0.2164462
97	0xbda27523	-0.07932498
98	0xbd901435	-0.07035104
99	0xbdad36df	-0.084577315
100	0xbe1fa65d	-0.15590806
101	0xbd37cd64	-0.04487361
102	0x3d60ec90	0.054913104
103	0x3db88d2f	0.09011304
104	0x3da3f93e	0.080065235
105	0xbcb74e6e	-0.022376265
106	0xbc44ec20	-0.012019187
107	0xbe1db8ff	-0.15402602
108	0x3d9356b1	0.071942694
109	0xbe0bef28	-0.1366545
110	0x3d41820f	0.047243174
111	0x3e0a43b2	0.13502386
112	0xbe0111ff	-0.12604521
113	0xbcf5f81d	-0.030025536
114	0xbdf954f5	-0.121744074
115	0xbe07c0f9	-0.13257207
116	0xbdf5c734	-0.120008856
117	0x3d8cb24a	0.068699434
118	0xbd2f9cc2	-0.042874105
119	0x3df920ae	0.12164436
120	0x3de31fee	0.110900745
121	0xbd6985a8	-0.05701223
122	0xbdac45da	-0.08411761
123	0x3dd26f22	0.10275103
124	0xbdbeae42	-0.09310581
125	0x3e07e8cf	0.13272403
126	0xbd8a01ed	-0.067386486
127	0xbd5c36c0	-0.05376315
128	0x3d9b6c1b	0.07588979
129	0x3942e5af	0.00018586846
130	0x3e106506	0.14101037
131	0xbba416cf	-0.005007602
132	0x3e58af79	0.21160688
133	0xbec9d1fd	-0.3941802
134	0xbee2bd34	-0.44284976
135	0xbe8fc638	-0.28080916
136	0xbee29af8	-0.44258857
137	0x3ef4b743	0.47796068
138	0xbf04815d	-0.5175989
139	0x3f3a87e9	0.7286363
140	0xbe4dafea	-0.20086637
141	0x3e013886	0.12619218
142	0xbd715eb2	-0.0589282
143	0x3ba409b2	0.0050060386
144	0xbe20e232	-0.15711287
145	0xbe8181fc	-0.25294483
146	0x3e9fe3dc	0.3122853
147	0x3d93727e	0.07199572
148	0x3c0b43b7	0.008500031
149	0xbd98cdd7	-0.07461136
150	0xbdbeaab1	-0.093099006
151	0x3e5534b5	0.20820887
152	0xbe70c05c	-0.2351088
153	0xbd776bcf	-0.06040555
154	0xbbfa6ce6	-0.0076423762
155	0xbd2e3702	-0.04253293
156	0xbd22d56b	-0.039754312
157	0x3cf9ea20	0.030507147
158	0x3eb87768	0.360286
159	0xbdc1a87f	-0.09455966
160	0xbc82bdad	-0.015959585
161	0x3d1f5b77	0.038905587
162	0x3d3d0fd9	0.04615769
163	0xbd734937	-0.059395995
164	0x3e4431ca	0.19159618
165	0xbbcc577e	-0.006236016
166	0x3e0bd76d	0.13656397
167	0xbd875e88	-0.06609827
168	0xbd469fc5	-0.04849221
169	0xbd63aecd	-0.055586625
170	0x3d234b3c	0.03986667
171	0xbd4df064	-0.050278082
172	0xbe20914a	-0.15680423
173	0xbd4546a2	-0.048163064
174	0x3c30d5f4	0.010793198
175	0x3d24711e	0.04014694
176	0xbcd42d1b	-0.025900414
177	0x3be3fb93	0.00695748
178	0xbd8d9b52	-0.069143906
179	0x3e01188e	0.12607023
180	0x3c765a8f	0.015036239
181	0xbe508ba3	-0.20365767
182	0x3cca66e7	0.02470727
183	0xbdf0ce6d	-0.117581226
184	0x3e691bd5	0.22764523
185	0x3bc07721	0.0058735763
186	0xbc6ef3ab	-0.014584462
187	0xbe360a2a	-0.17777315
188	0x3df1fe76	0.11816113
189	0x3ded3480	0.11582279
190	0x3ce8a5e7	0.02839942
191	0x3de57a17	0.112049274
192	0x3dfd1cc1	0.12359
193	0xbc9846e7	-0.018588496
194	0xbd329187	-0.043595817
195	0x3ce48b9e	0.027898606
196	0xbda7acd7	-0.081872635
197	0x3da81162	0.082064405
198	0xbaea8507	-0.0017892428
199	0xbca3c9e7	-0.019993735
200	0x3f4948f9	0.7862697
201	0x3edf8c49	0.43661717
202	0x3e6287b0	0.22122073
203	0xbea4056c	-0.32035387
204	0xbea4e205	-0.3220369
205	0x3edca866	0.43097228
206	0x3ead9296	0.339009
207	0xbe7091bf	-0.23493098
208	0x3e07221c	0.13196605
209	0xbc98d540	-0.018656373
210	0xbd3e0c9a	-0.046398737
211	0x3bd09d4a	0.0063664066
212	0x3d420045	0.04736354
213	0x3e17b378	0.14814556
214	0xbd685d43	-0.056729566
215	0x3cec7e4e	0.02886882
216	0xbc84f275	-0.016228894
217	0xbdbe8575	-0.09302799
218	0x3c21e484	0.0098811425
219	0xbd13adcc	-0.036054417
220	0xbe15d9d5	-0.14633878
221	0x3de0ed40	0.10982752
222	0x3e14c7bb	0.14529316
223	0xbde3de50	-0.11126387
224	0xbe2f1b95	-0.17100365
225	0x3d3761bf	0.044770952
226	0xbe3154fb	-0.17317574
227	0x3cd92fea	0.026512105
228	0x3d8094b5	0.062783636
229	0xbe38f1b4	-0.18060952
230	0xbd0d1ea5	-0.034453053
231	0xbd390c33	-0.04517765
232	0xbd7ec506	-0.062199615
233	0x3b984b8b	0.0046476773
234	0x3b298345	0.0025865596
235	0xbe4b63a0	-0.19862223
236	0x3cfed293	0.031106269
237	0xbd370759	-0.04468474
238	0xbdaa4949	-0.08314759
239	0x3d1dd6f1	0.038535062
240	0x3df269d3	0.118365906
241	0x3df4bfa8	0.11950618
242	0xbd03389c	-0.03203641
243	0x3d7d519e	0.061845414
244	0xbdf4b544	-0.11948636
245	0x3e4e3ad7	0.20139633
246	0x3da73e7a	0.08166213
247	0xbcedc948	-0.029026642
248	0xbe875d20	-0.26438236
249	0x3c96f38c	0.01842668
250	0xbd9ae195	-0.075625576
251	0xbca69934	-0.020336725
252	0xbcdbc072	-0.026825164
253	0xbc4449c7	-0.0119804805
254	0xbd987b59	-0.07445402
255	0x3e060f61	0.13091804

W_readout f4 [1, 4]
0	0xbebd420f	-0.3696446
1	0x3eb06871	0.34454682
2	0x3fd5cddf	1.6703452
3	0xbfd10e1c	-1.6332431

bias f4 [68]
0	0x3e347d6b	0.17625968
1	0x3e532bb4	0.2062214
2	0x3e0e6308	0.13904965
3	0x3e10f9f1	0.14157845
4	0x3dcccccd	0.1
5	0x3dcccccd	0.1
6	0x3dcccccd	0.1
7	0x3dcccccd	0.1
8	0x3dcccccd	0.1
9	0x3dcccccd	0.1
10	0x3dcccccd	0.1
11	0x3dcccccd	0.1
12	0x3dcccccd	0.1
13	0x3dcccccd	0.1
14	0x3dcccccd	0.1
15	0x3dcccccd	0.1
16	0x3dcccccd	0.1
17	0x3dcccccd	0.1
18	0x3dcccccd	0.1
19	0x3dcccccd	0.1
20	0x3dcccccd	0.1
21	0x3dcccccd	0.1
22	0x3dcccccd	0.1
23	0x3dcccccd	0.1
24	0x3dcccccd	0.1
25	0x3dcccccd	0.1
26	0x3dcccccd	0.1
27	0x3dcccccd	0.1
28	0x3dcccccd	0.1
29	0x3dcccccd	0.1
30	0x3dcccccd	0.1
31	0x3dcccccd	0.1
32	0x3dcccccd	0.1
33	0x3dcccccd	0.1
34	0x3dcccccd	0.1
35	0x3dcccccd	0.1
36	0x3dcccccd	0.1
37	0x3dcccccd	0.1
38	0x3dcccccd	0.1
39	0x3dcccccd	0.1
40	0x3dcccccd	0.1
41	0x3dcccccd	0.1
42	0x3dcccccd	0.1
43	0x3dcccccd	0.1
44	0x3dcccccd	0.1
45	0x3dcccccd	0.1
46	0x3dcccccd	0.1
47	0x3dcccccd	0.1
48	0x3dcccccd	0.1
49	0x3dcccccd	0.1
50	0x3dcccccd	0.1
51	0x3dcccccd	0.1
52	0x3dcccccd	0.1
53	0x3dcccccd	0.1
54	0x3dcccccd	0.1
55	0x3dcccccd	0.1
56	0x3dcccccd	0.1
57	0x3dcccccd	0.1
58	0x3dcccccd	0.1
59	0x3dcccccd	0.1
60	0x3dcccccd	0.1
61	0x3dcccccd	0.1
62	0x3dcccccd	0.1
63	0x3dcccccd	0.1
64	0xbd2256c6	-0.039633535
65	0x3d9de00e	0.07708751
66	0xbeb02f8c	-0.34411275
67	0xbd64da60	-0.05587232

W_ext f4 [4, 2]
0	0x3e1c2b4e	0.15250894
1	0xc014076f	-2.3129537
2	0xbf676cf2	-0.9040061
3	0xbe3c32c7	-0.18378745
4	0xbd16a42e	-0.036777668
5	0x3f144425	0.5791648
6	0x3e44a50d	0.19203587
7	0xbfb9629d	-1.4483219
