DrosophilaLabRot/data_store/mbon_sensitivity/second_order_nets/trained_nets/04_mbons/second_order_5000ep_1hop_N01.pt (torch_old, 19559 bytes, 4 tensors)

W_recur f4 [68, 68]
00000000: d8ed d03e 175d b13d 2e9f 94be 8b8d 58bd
00000010: 8daf c0ba a6f7 0dbe a23d bcbd 86d4 eb3d
00000020: cce1 83bd 1cbb 9b3d 58c3 f83d 635b dc3d
00000030: a2a8 30be ad26 83bd ebfe fb3d 52a5 863d
00000040: 7a73 0cbe 5bef d6bc 4d0c dbbd f412 8c3c
00000050: dfa0 c0bd 5fb5 54bd 3c0e a83c 2d3a a83d
00000060: c3cc 52be 62ae 233c ea34 f83c b4ef 9b3d
00000070: fabd fa3d 0eb0 43bd bc3f 423e acdd f6bb
00000080: f487 c0bd 95e9 dd3c 021f 603c 0280 c0bd
00000090: 18f2 03be 8cb0 1cbe fb69 a23d 4b84 85bd
000000a0: 44e2 02bd 643c f3bd 65c9 42be aeb2 373e
000000b0: 8b71 c13d e510 95be 9cbb 02be 48bf 78bd
000000c0: be8d 5f3e 5dfc 2a3e 9fc9 d03d beb4 efbd
000000d0: 44b7 273e 6207 42be 188c d33b 4063 c53d
000000e0: 780c eabd 6352 cd3d 8f67 64bd cc87 20be
000000f0: 6641 e8bd f49f 383e 4101 4e3d a680 0a3e
00000100: 7703 fd3e 7b64 823d d5e9 4dbe 5144 cfbe
00000110: c7ed a2be 6cdc 303f c341 8fbe 4d94 073e
00000120: cf0a 0cbd c3d1 e2bd bd76 23be f16a 3ebd
00000130: 9806 573d 2013 903d ddf8 cbbd 00e9 30be
00000140: 4c66 a43d efd3 743d ca4f c8bc 66c7 9a3d
00000150: 2f49 533d dadb ebbd d949 62bd 9b2c 80bd
00000160: b596 623d c701 c23d 9224 be3b e3fb 46bd
00000170: 02da 2f3c 26e5 c1bb de97 c3bd 6508 63bd
00000180: 177d 2f3e 81af 553e df48 76bd 27bc a5bd
00000190: d818 4abe 3b5e eabc 4a25 0a3d 5ac4 f5bd
000001a0: c447 0e3c 95ca 2d3d a056 04be a43a 00bd
000001b0: 8cc3 41be 00aa 97bd 7db2 843e 739d d73e
000001c0: 16b7 5ebd 532b c83c c20d 11be 9053 bebd
000001d0: eeed 88bd 690a 0ebe f982 393d e9a6 5e3d
000001e0: 9b05 4a3d b666 e13c 1aa2 bb3c 5bb1 273e
000001f0: f392 e03d 5f88 0fbd f993 643e 1770 713d
00000200: 4c0f d13c 6b8f 7e3d 8215 2f3d c27e 323e
00000210: b13e 18bf f936 85bf 60be 3c3f d188 c63e
00000220: 994c 4b3f 9294 4abf 87e9 eabd a40f 4c3d
00000230: b132 2cbc f91e 81be 1d2f 4abd e4a5 3b3d
00000240: 9662 d53d fd82 663e fe16 adbd 73a8 31bd
00000250: c38a 99bd 378f 883d 68bc a3bd 4896 13bc
00000260: 16f6 c43d f48d acbb 1372 3d3d 0e69 613d
00000270: 7d69 e63d 5d69 383d ddf1 993d 9677 36bc
00000280: d817 3ebd 75db c33c 09c6 b83c 74e4 d1bc
00000290: 09ce 33be 58ad 27be 5ca3 13bd 57a4 2c3e
000002a0: 8db3 093e 10c7 40bd 6b86 593e 6b23 70bd
000002b0: a7b0 2d3e 71ca 38bd 0734 42bd 2ad1 7cbe
000002c0: 6924 873e 9c6e afbc 5e86 d13d 0954 ecbd
000002d0: 95b6 453e 46c8 d4bd 4424 16be 1ef0 b13c
000002e0: bd6b 0c3d 5dff 473e 45db fbbc ceed a4bd
000002f0: 24e3 7d3d 875a 443d a3fa 183e e044 be3d
00000300: 0e9c 523e 2a2a 8ebe f9ee c93c 8e89 91bc
00000310: a186 dfbd fd93 123d a74b 10bd bf04 b63a
00000320: 6622 8dbe c073 bb3e 1aa1 58be 6d76 32bf
00000330: 7cc3 13bf a3e2 b93d 7d5a e83e 0e1b 073e
00000340: 9d2c 1f3e efcf 03be 42be f2bd 808d b7bd
00000350: b688 cb3d bea6 99be 1460 2bbe 0967 35bd
00000360: 3173 4d3e 5131 c23d 253b f4bd f64a 933d
00000370: 123a 183e 3953 263b a7e3 cb3d 7999 1bbe
00000380: 150f fd3d 7a30 8dbd 00af 4c3e d057 74bd
00000390: cade debd e7e3 313d 703e 7d3d ddf2 b7bd
000003a0: 499e 973d d9a5 5fbd ce83 52bb 5ac3 d93b
000003b0: 4fac de3d e519 5e3d 4893 803c 3af0 6d3d
000003c0: a425 dc3d cbb9 403e ad9b f5bc f331 453d
000003d0: dbd1 bdbd 8d2c 09be 0076 383e a5d6 eebb
000003e0: 6095 d83d f74d c13e 8e63 783d 35ce 1fbe
000003f0: a229 253e 592c 29bb 924f d83d 6432 24bd
0.4080646 0.086603336 -0.29027694 -0.05286936 -0.0014700756 -0.13864002 -0.09191443 0.11515145
-0.06439552 0.07604048 0.12146634 0.10759618 -0.17251828 -0.06403861 0.12304481 0.06574501
-0.13715926 -0.02623718 -0.106957056 0.017098881 -0.09405684 -0.05193078 0.0205146 0.08214221
-0.20585923 0.009990307 0.030298669 0.07614079 0.122432664 -0.04777532 0.18969625 -0.0075337496
-0.09400931 0.02708892 0.013679268 -0.093994156 -0.1288532 -0.15301722 0.079303704 -0.065193735
-0.031954065 -0.11876753 -0.19022138 0.17939255 0.09445485 -0.29114452 -0.1276688 -0.060729295
0.21831414 0.16697831 0.10194706 -0.11704396 0.16378504 -0.18948129 0.0064559095 0.09638071
-0.114281595 0.1002548 -0.055762824 -0.15676802 -0.11340599 0.18029767 0.050294165 0.13525638
0.49416706 0.063668214 -0.20108731 -0.4048181 -0.31822035 0.6908634 -0.2797986 0.13240166
-0.034189995 -0.11075165 -0.15963264 -0.046488706 0.052496523 0.07034898 -0.09959576 -0.17276382
0.08027324 0.059772428 -0.024452109 0.075575635 0.051583465 -0.11516543 -0.055246208 -0.06258508
0.055319507 0.09472995 0.0058026994 -0.04858006 0.010733129 -0.005917209 -0.09550451 -0.055427928
0.17137562 0.2086773 -0.06012809 -0.08092528 -0.1973604 -0.028609386 0.033726968 -0.12000342
0.008684102 0.042429525 -0.1292367 -0.031305924 -0.18922251 -0.07405472 0.25917426 0.42112312
-0.054373823 0.024434721 -0.14165404 -0.09293282 -0.066860065 -0.13871159 0.04529092 0.054358397
0.049321752 0.027514797 0.022904444 0.1637625 0.10965528 -0.035042163 0.22322072 0.058944788
0.02551999 0.062148493 0.04274512 0.17431167 -0.5947066 -1.0407401 0.7372799 0.38776258
0.79413754 -0.7913295 -0.11470323 0.049819604 -0.010510133 -0.25218943 -0.049361337 0.045812503
0.104191944 0.22510906 -0.08451651 -0.043373536 -0.0749717 0.06667941 -0.0799492 -0.009007998
0.0961725 -0.0052659456 0.046251368 0.05503183 0.11250589 0.045022357 0.07516835 -0.01113691
-0.046409458 0.023908356 0.022555368 -0.02562163 -0.17559065 -0.16374719 -0.036044464 0.16859566
0.134474 -0.04706484 0.21242683 -0.058627527 0.16961919 -0.04511494 -0.0474129 -0.24689165
0.26394966 -0.021415047 0.10230707 -0.11539466 0.19307931 -0.103897616 -0.14662272 0.021720942
0.034282435 0.19531007 -0.030744204 -0.0805317 0.061984196 0.047937896 0.1493936 0.092904806
0.20567343 -0.27766544 0.024650084 -0.017765786 -0.1091435 0.035785664 -0.035228398 0.0013886912
-0.27565306 0.36611748 -0.21155205 -0.69711953 -0.5772016 0.09076431 0.45381537 0.13193914
0.15544362 -0.12872289 -0.11852695 -0.08962536 0.09938185 -0.30010027 -0.1673587 -0.044287715
0.20063473 0.094820626 -0.119253434 0.07192032 0.14865902 0.0025379194 0.099555306 -0.15195264
0.12356392 -0.06894012 0.19988632 -0.059654057 -0.108823374 0.043430235 0.061827123 -0.08981869
0.074032374 -0.054601524 -0.0032122019 0.006645602 0.10872709 0.054223914 0.01569523 0.058090426
0.10749367 0.18820874 -0.029981459 0.04814334 -0.092685424 -0.13395901 0.18013763 -0.007288771
0.10575366 0.37754795 0.060641818 -0.15606005 0.16129163 -0.0025813787 0.10562052 -0.04008712

W_readout f4 [1, 4]
00000000: b850 f63f 751c ccbf 1930 a6bf bd79 543f
1.9243383 -1.5946184 -1.2983428 0.8299826

bias f4 [68]
00000000: f4fa d43d 023e 0b3d 7997 793e 4038 4e3e
00000010: cdcc cc3d cdcc cc3d cdcc cc3d cdcc cc3d
00000020: cdcc cc3d cdcc cc3d cdcc cc3d cdcc cc3d
00000030: cdcc cc3d cdcc cc3d cdcc cc3d cdcc cc3d
00000040: cdcc cc3d cdcc cc3d cdcc cc3d cdcc cc3d
00000050: cdcc cc3d cdcc cc3d cdcc cc3d cdcc cc3d
00000060: cdcc cc3d cdcc cc3d cdcc cc3d cdcc cc3d
00000070: cdcc cc3d cdcc cc3d cdcc cc3d cdcc cc3d
00000080: cdcc cc3d cdcc cc3d cdcc cc3d cdcc cc3d
00000090: cdcc cc3d cdcc cc3d cdcc cc3d cdcc cc3d
000000a0: cdcc cc3d cdcc cc3d cdcc cc3d cdcc cc3d
000000b0: cdcc cc3d cdcc cc3d cdcc cc3d cdcc cc3d
000000c0: cdcc cc3d cdcc cc3d cdcc cc3d cdcc cc3d
000000d0: cdcc cc3d cdcc cc3d cdcc cc3d cdcc cc3d
000000e0: cdcc cc3d cdcc cc3d cdcc cc3d cdcc cc3d
000000f0: cdcc cc3d cdcc cc3d cdcc cc3d cdcc cc3d
00000100: a7c8 24bf fa45 cc3d 0c21 7bbe ea8a fbbe
0.10399428 0.033994682 0.24374188 0.20138645 0.1 0.1 0.1 0.1
0.1 0.1 0.1 0.1 0.1 0.1 0.1 0.1
0.1 0.1 0.1 0.1 0.1 0.1 0.1 0.1
0.1 0.1 0.1 0.1 0.1 0.1 0.1 0.1
0.1 0.1 0.1 0.1 0.1 0.1 0.1 0.1
0.1 0.1 0.1 0.1 0.1 0.1 0.1 0.1
0.1 0.1 0.1 0.1 0.1 0.1 0.1 0.1
0.1 0.1 0.1 0.1 0.1 0.1 0.1 0.1
-0.6436867 0.099742845 -0.24524325 -0.4912942

W_ext f4 [4, 2]
00000000: d56f 963c 35a5 0440 4005 5e3e 57c3 dd3d
00000010: cf8f 69bf c41f 563f 1b88 fbbe cc9c a63f
0.018363873 2.0725834 0.2168169 0.10828274 -0.9123506 0.8364222 -0.49127278 1.3016601
