DrosophilaLabRot/data_store/mbon_sensitivity/second_order_only_nets/trained_nets/07_mbons/second_order_no_extinct_5000ep_1hop_N16.pt (torch_old, 23027 bytes, 4 tensors)

W_recur f4 [74, 74]
0.17488165 -0.10436176 0.2571383 -0.68458986 0.49076518 -0.08375227 0.1566557 0.17144726
0.10209607 0.10318574 0.005621581 0.026653962 0.006059832 -0.0022964762 0.038248163 0.044164915
-0.006501042 0.10899615 0.050652403 -0.15163141 -0.15394475 0.032311313 -0.31179196 -0.05810651
0.19433825 0.062867 -0.035878167 -0.18236063 0.0633636 -0.03531527 -0.14009084 -0.08852479
0.17184564 -0.08602321 -0.11327036 0.015433992 -0.24322963 0.12177016 -0.04804965 -0.16505083
-0.026093973 -0.10155751 0.080801584 -0.013294182 -0.056913767 0.1421651 -0.07647982 0.042428065
-0.0936162 -0.003610651 0.013004904 0.19093205 0.08877398 0.06271363 -0.15085003 0.020782383
-0.17349026 0.010537151 0.102409825 0.094567016 0.12669332 0.17914481 0.08890694 -0.03629783
-0.088974886 -0.12644273 0.20204042 -0.326161 0.2869683 -0.077212036 -0.44650543 0.16145083
0.00269442 0.22399954 0.053235475 -0.7143695 -0.22941098 0.045087144 -0.43151674 0.33733588
-0.3935085 -0.05522928 -0.09302471 0.12560679 0.004415047 0.029667404 0.13114943 -0.15479228
-0.008726399 -0.008076344 -0.0043176813 0.107691295 0.16467354 -0.011902863 0.10950734 0.14527181
0.19039297 0.0027707608 0.055116314 0.029172549 0.21352328 0.15646683 0.2616657 0.043397304
-0.048130635 -0.014962877 0.20270851 -0.0045315414 -0.11515245 0.02595495 0.075896844 -0.10088438
-0.04145814 0.15503049 -0.06670046 -0.015015426 -0.017934157 -0.1939209 -0.13544287 -0.07035701
0.018652262 0.18693924 -0.078763 -0.13587295 0.03989448 -0.06626315 0.050272245 -0.07737799
-0.091306865 0.037773676 -0.034018714 -0.00040530236 0.095575534 0.10808698 0.0013861902 0.087200046
0.046363804 -0.052021835 -0.03514761 -0.097763546 0.0705969 -0.23714356 0.21390915 0.06347929
0.18296273 -0.38500762 0.007115405 0.4917304 -0.22363979 0.39340028 -0.15077263 0.07104864
-0.46836835 0.1685891 0.35242257 0.08160085 0.024440723 -0.021393308 0.06494059 -0.01082002
0.022874052 0.042054564 0.119248606 0.024150558 -0.079384245 0.041314352 -0.16907579 -0.12472692
-0.06831096 0.08117353 0.025902547 0.13050133 0.043953758 0.12863031 0.1236035 -0.16094072
-0.14387514 0.022992278 -0.14004053 -0.18113455 0.13338467 -0.0033007888 -0.03534977 -0.09863142
-0.02590459 -0.10066601 -0.065732814 -0.1229215 0.0064049587 -0.07337286 0.12334311 0.117595695
0.080178164 -0.018589653 -0.17860442 0.0741629 -0.012845902 0.1265516 0.109213986 -0.1870739
-0.0940036 -0.057320762 -0.04538712 -0.17256556 0.18297647 -0.08646866 -0.15250324 -0.072502024
0.018559631 -0.01705301 0.16532037 -0.17916177 0.06837664 -0.068975836 -0.035743885 0.2620642
-0.27111372 0.1608881 0.12405153 0.08512325 -0.75333834 -0.0017871642 -0.23680739 0.077404104
-0.17364359 0.27819762 0.23963149 -0.25718486 -0.26270565 -0.15747671 -0.038343664 0.09343022
-0.044816423 0.08959529 -0.052713245 0.112780765 -0.0997731 -0.0055819675 -0.055184342 -0.06348665
0.16784474 -0.095836654 -0.04078298 0.10309892 0.10397679 -0.036013138 0.07704413 0.061356187
-0.14868516 -0.20288517 0.018232927 0.10506133 0.08249956 -0.01852927 0.08333926 -0.14842243
00000000: 2d14 333e 9ebb d5bd a2a7 833e 4841 2fbf
00000010: 9345 fb3e 4f86 abbd 5a6a 203e df8f 2f3e
00000020: bf17 d13d 0c53 d33d 3d35 b83b 6959 da3c
00000030: 8e91 c63b 7a80 16bb 1baa 1c3d 45e6 343d
00000040: b106 d5bb 6039 df3d e578 4f3d 4445 1bbe
00000050: b1a3 1dbe de58 043d 32a3 9fbe 1801 6ebd
00000060: 9b00 473e 6ac0 803d fcf4 12bd bfbc 3abe
00000070: c6c4 813d bfa6 10bd f973 0fbe 7c4c b5bd
00000080: 4ef8 2f3e f02c b0bd 4afa e7bd dbde 7c3c
00000090: 3011 79be a262 f93d b6cf 44bd 1603 29be
000000a0: 07c3 d5bc 62fd cfbd 4d7b a53d d7cf 59bc
000000b0: 691e 69bd ba93 113e 74a1 9cbd 0dc9 2d3d
000000c0: dab9 bfbd aca0 6cbb 8512 553c b183 433e
000000d0: 22cf b53d 0170 803d 6e78 1abe d13f aa3c
000000e0: 6ea7 31be 04a4 2c3c 3ebc d13d 5aac c13d
000000f0: e5bb 013e bd71 373e d714 b63d 09ad 14bd
00000100: 7738 b6bd 347a 01be afe3 4e3e 93fe a6be
00000110: 82ed 923e 5821 9ebd 5c9c e4be 5e53 253e
00000120: de94 303b 2360 653e 710d 5a3d ebe0 36bf
00000130: b6ea 6abe 4cad 383d c3ef dcbe 4ab7 ac3e
00000140: f279 c9be 1938 62bd bd83 bebd 119f 003e
00000150: 19ac 903b 0e09 f33c 094c 063e de81 1ebe
00000160: 2cf9 0ebc a452 04bc 567b 8dbb 418d dc3d
00000170: 2ea0 283e 3a04 43bc 6245 e03d 22c2 143e
00000180: 60f6 423e a795 353b a5c1 613d 45fb ee3c
00000190: d9a5 5a3e d738 203e 0cf9 853e 5fc1 313d
000001a0: a124 45bd db26 75bc d292 4f3e 537d 94bb
000001b0: 0cd5 ebbd 7a9f d43c ce6f 9b3d 789c cebd
000001c0: 03d0 29bd 50c0 1e3e 409a 88bd 4303 76bc
000001d0: a7ea 92bc 3393 46be 89b1 0abe 5617 90bd
000001e0: a1cc 983c 006d 3f3e 7f4e a1bd 4722 0bbe
000001f0: 6568 233d f9b4 87bd 45ea 4d3d 5a78 9ebd
00000200: 18ff babd 92b8 1a3d 3557 0bbd c37e d4b9
00000210: 1bbd c33d b55c dd3d d3b0 b53a f095 b23d
00000220: f9e7 3d3d d914 55bd f1f6 0fbd 4138 c8bd
00000230: 1c95 903d c3d5 72be 000b 5b3e 6e01 823d
00000240: 955a 3b3e b81f c5be 5828 e93b 16c4 fb3e
00000250: d401 65be c36b c93e 2464 1abe f381 913d
00000260: facd efbe 9fa2 2c3e bb70 b43e 591e a73d
00000270: e937 c83c 0541 afbc 92ff 843d 7446 31bc
00000280: 5d62 bb3c 6841 2c3d 9d38 f43d 64d7 c53c
00000290: 3594 a2bd 3d39 293d 3422 2dbe d470 ffbd
000002a0: 9ee6 8bbd 4f3e a63d 9431 d43c 24a2 053e
000002b0: db08 343d aab7 033e d523 fd3d a5cd 24be
000002c0: 0154 13be 4d5a bc3c c966 0fbe 567b 39be
000002d0: fe95 083e 0c52 58bb ecca 10bd 45ff c9bd
000002e0: dd35 d4bc fb29 cebd ed9e 86bd 44be fbbd
000002f0: b0e0 d13b 8344 96bd 509b fc3d 03d6 f03d
00000300: 7334 a43d 5449 98bc 14e4 36be b8e2 973d
00000310: 9e77 52bc be96 013e 95ab df3d 4d90 3fbe
00000320: f684 c0bd 2dc9 6abd d8e7 39bd 07b5 30be
00000330: 2f5e 3b3e 7b16 b1bd cf29 1cbe f17b 94bd
00000340: 5e0a 983c c1b2 8bbc be49 293e 2f76 37be
00000350: 0d09 8c3d 3443 8dbd 2e68 12bd 472d 863e
00000360: 6bcf 8abe dabf 243e bb0e fe3d 1955 ae3d
00000370: c8da 40bf 483f eaba a37d 72be 0b86 9e3d
00000380: a0cf 31be eb6f 8e3e f561 753e bcad 83be
00000390: 5b81 86be 9341 21be 3f0e 1dbd 5858 bf3d
000003a0: 6d91 37bd bc7d b73d d8e9 57bd 9af9 e63d
000003b0: d755 ccbd f0e8 b6bb fa08 62bd 4a05 82bd
000003c0: 7edf 2b3e 0246 c4bd 0e0c 27bd 8725 d33d
000003d0: c9f1 d43d 8382 13bd 50c9 9d3d a050 7b3d
000003e0: ec40 18be 21c1 4fbe 385d 953c 652a d73d
000003f0: 88f5 a83d b2ca 97bc c6ad aa3d 0dfc 17be

W_readout f4 [1, 7]
0.75822794 -0.569379 1.8171985 1.0916581 -1.0117822 -0.88682216 -1.199489
00000000: 3a1b 423f d2c2 11bf f699 e83f 74bb 8b3f
00000010: 1482 81bf c706 63bf db88 99bf

bias f4 [74]
0.0956847 0.04638772 0.13769184 0.1806018 0.02423046 0.32269695 0.13803636 0.1
0.1 0.1 0.1 0.1 0.1 0.1 0.1 0.1
0.1 0.1 0.1 0.1 0.1 0.1 0.1 0.1
0.1 0.1 0.1 0.1 0.1 0.1 0.1 0.1
0.1 0.1 0.1 0.1 0.1 0.1 0.1 0.1
0.1 0.1 0.1 0.1 0.1 0.1 0.1 0.1
0.1 0.1 0.1 0.1 0.1 0.1 0.1 0.1
0.1 0.1 0.1 0.1 0.1 0.1 0.1 0.1
0.1 0.1 0.1 -0.054997593 0.02498224 -0.0152095705 0.08785403 -0.18407993
0.10431661 0.08336287
00000000: 57f6 c33d 0d01 3e3d 17ff 0c3e aeef 383e
00000010: f57e c63c 8938 a53e 6759 0d3e cdcc cc3d
00000020: cdcc cc3d cdcc cc3d cdcc cc3d cdcc cc3d
00000030: cdcc cc3d cdcc cc3d cdcc cc3d cdcc cc3d
00000040: cdcc cc3d cdcc cc3d cdcc cc3d cdcc cc3d
00000050: cdcc cc3d cdcc cc3d cdcc cc3d cdcc cc3d
00000060: cdcc cc3d cdcc cc3d cdcc cc3d cdcc cc3d
00000070: cdcc cc3d cdcc cc3d cdcc cc3d cdcc cc3d
00000080: cdcc cc3d cdcc cc3d cdcc cc3d cdcc cc3d
00000090: cdcc cc3d cdcc cc3d cdcc cc3d cdcc cc3d
000000a0: cdcc cc3d cdcc cc3d cdcc cc3d cdcc cc3d
000000b0: cdcc cc3d cdcc cc3d cdcc cc3d cdcc cc3d
000000c0: cdcc cc3d cdcc cc3d cdcc cc3d cdcc cc3d
000000d0: cdcc cc3d cdcc cc3d cdcc cc3d cdcc cc3d
000000e0: cdcc cc3d cdcc cc3d cdcc cc3d cdcc cc3d
000000f0: cdcc cc3d cdcc cc3d cdcc cc3d cdcc cc3d
00000100: cdcc cc3d cdcc cc3d cdcc cc3d 2845 61bd
00000110: 8ea7 cc3c 9031 79bc d0ec b33d 737f 3cbe
00000120: f2a3 d53d 27ba aa3d

W_ext f4 [7, 2]
0.0649941 -1.1124991 0.14120384 0.17470017 -1.4724509 0.03827966 -0.053107157 -1.4386681
0.39039937 0.36264485 0.21761833 -0.46458697 0.27178094 -0.44236615
00000000: a01b 853d 5f66 8ebf bd97 103e 9ae4 323e
00000010: 4579 bcbf 22cb 1c3d e486 59bd 4726 b8bf
00000020: 6de2 c73e 96ac b93e 57d7 5e3e 58de edbe
00000030: df26 8b3e d17d e2be
