DrosophilaLabRot/data_store/mbon_sensitivity/second_order_only_nets/trained_nets/07_mbons/second_order_no_extinct_5000ep_1hop_N02.pt (torch_old, 23027 bytes, 4 tensors)

W_recur f4 [74, 74]
0	0x3d43f3b4	0.047839835
1	0x3d363e53	0.04449303
2	0xbe296d05	-0.16545494
3	0x3e326f55	0.17425282
4	0xbed93c76	-0.4242894
5	0xbf535bcc	-0.82561946
6	0x3d00ff6f	0.0314936
7	0xbdbe587c	-0.09294221
8	0xbc4bff5b	-0.012451018
9	0xbdc1b3e9	-0.09458143
10	0x3d285155	0.04109319
11	0xbd7d2d95	-0.06181105
12	0x3d7db3f7	0.061939206
13	0xbe3a3ca7	-0.181872
14	0xbd59310f	-0.0530253
15	0xbe59b459	-0.21260203
16	0x3ce04fcc	0.0273818
17	0xbe133f40	-0.14379597
18	0xbe754383	-0.23951535
19	0x3d3d3328	0.046191365
20	0x3de7bca6	0.11315279
21	0xbdf9e1d3	-0.12201276
22	0x3ddf0797	0.108901195
23	0xbd415b02	-0.047205932
24	0xbd7c8831	-0.06165332
25	0xbe44bb29	-0.19212021
26	0xbd8f0ab9	-0.06984467
27	0xbdcb22a9	-0.0991872
28	0xbd793c97	-0.0608488
29	0xbdc58bc8	-0.09645802
30	0x3c8bd7d3	0.017070686
31	0xbd2e4e7e	-0.042555325
32	0xbcf48eef	-0.029853312
33	0x3d094480	0.033512592
34	0xbd39f873	-0.045402955
35	0x3dcac478	0.09900755
36	0xbc1c2161	-0.0095294425
37	0xbda5caab	-0.080952965
38	0xbced85c4	-0.028994448
39	0x3e345da9	0.17613854
40	0xbc5e8bf4	-0.013583172
41	0xbdc1a759	-0.09455747
42	0xbe5c8a1a	-0.21537057
43	0xbd4e3bd6	-0.050350033
44	0xbd1c498e	-0.038156085
45	0x3e12039a	0.14259186
46	0xbd209a2e	-0.039209537
47	0x3e085c31	0.13316418
48	0x3cb40482	0.021974806
49	0x3e14c69f	0.14528893
50	0xbd9ca5cf	-0.07648813
51	0xbe134f53	-0.14385729
52	0x3d6f20bb	0.058380824
53	0x3d767869	0.060173426
54	0xbdbe429f	-0.09290051
55	0xbd3fea56	-0.04685434
56	0xbdbeffd0	-0.09326136
57	0xbc89e9d7	-0.016835136
58	0x3db6f45e	0.08933328
59	0x3dd4cd62	0.10390736
60	0x3d63e620	0.055639386
61	0xbdbed3fa	-0.09317775
62	0x3d9f8b94	0.07790294
63	0xbcf6159a	-0.030039597
64	0x3e0caeff	0.1373863
65	0xbd5efb8a	-0.054439105
66	0x3c181b8b	0.0092839105
67	0x3ed266b5	0.41093984
68	0xbca42415	-0.020036737
69	0xbd106649	-0.035253797
70	0x3e0818e7	0.1329075
71	0x3f2c809b	0.67383736
72	0xbe55e52b	-0.20888202
73	0xbf17a34b	-0.5923354
74	0xbe0f3c17	-0.13987766
75	0xbf07a0f7	-0.5297999
76	0x3e914d49	0.28379276
77	0xbe4860f6	-0.19568238
78	0x3f0d5359	0.55205303
79	0xbeddeb6e	-0.4334368
80	0x3f4acfdb	0.7922341
81	0x3d935aeb	0.071950756
82	0xbdcfc437	-0.10144847
83	0x3dc8bd52	0.09801735
84	0xbdd9de77	-0.10638135
85	0x3dabdfb0	0.083922744
86	0x3dc4ac0a	0.09603126
87	0x3c6ae772	0.014337407
88	0xbd92fa4c	-0.071766466
89	0xbce298a4	-0.027660675
90	0xbd9c0a23	-0.07619121
91	0x3d7fc943	0.062447798
92	0xbdb735ba	-0.089457944
93	0x3d9ea045	0.07745413
94	0x3c75a57f	0.014993071
95	0xbd60c2b8	-0.0548732
96	0xbc57ba43	-0.013166967
97	0x3cff33b0	0.031152576
98	0xbcd50722	-0.026004378
99	0x3db99cec	0.090631336
100	0x3d537dc7	0.051633622
101	0xbe31c45d	-0.17360063
102	0xbd14f1ec	-0.036363527
103	0x3ca290ec	0.019844495
104	0x3d85998a	0.06523426
105	0x3e03824c	0.12842673
106	0x3e499142	0.19684318
107	0xbca107e5	-0.019657085
108	0xbda319df	-0.07963919
109	0x3d13b53f	0.03606152
110	0x3e902b67	0.28158113
111	0xbd552534	-0.052037433
112	0xbe31ef38	-0.17376411
113	0xbe1b121f	-0.15143631
114	0xbb88f9e6	-0.004180181
115	0x3d189155	0.037247974
116	0x3c67e6a2	0.014154108
117	0xbdeae52f	-0.114694946
118	0x3d9dde94	0.07708469
119	0x3c68702e	0.014186902
120	0xbe0e2bdd	-0.1388392
121	0xbd8d8ff8	-0.069122255
122	0xbd3202c0	-0.043459654
123	0x3de2ee57	0.11080616
124	0xbd07fe0b	-0.03320126
125	0xbc110362	-0.008850904
126	0x3c4502e9	0.01202462
127	0x3d38c221	0.04510701
128	0x3e17f2bc	0.1483869
129	0xbd216df5	-0.039411504
130	0x3d7cc026	0.061706685
131	0xbe3987b7	-0.18118177
132	0xbc12594a	-0.008932421
133	0x3cb6ab46	0.022298466
134	0x3da1a946	0.078936145
135	0x3cf470f6	0.02983902
136	0x3d8b831a	0.06812115
137	0x3d870d16	0.06594293
138	0x3dd0a464	0.10187605
139	0x3e1a3088	0.15057576
140	0x3e56efdc	0.20989937
141	0xbe24a580	-0.16078758
142	0x3ca35a1c	0.019940428
143	0x3df6d75c	0.12052795
144	0x3e4a535d	0.19758363
145	0x3f551761	0.832388
146	0xbccd3408	-0.025049224
147	0x3e056fbf	0.13030909
148	0xbe10c2ba	-0.14136782
149	0x3e418208	0.18897259
150	0xbd1ef645	-0.03880908
151	0xbedc31ee	-0.43006843
152	0x3f515b26	0.81779706
153	0xbed00bcb	-0.40633997
154	0xbdf591ac	-0.11990675
155	0xbbde82db	-0.0067905015
156	0x3dcb756a	0.09934504
157	0x3e298b9d	0.16557164
158	0x3e3398c5	0.17538746
159	0xbd0b6799	-0.034034345
160	0x3d210a59	0.03931651
161	0xbdc631e7	-0.09677487
162	0x3ca0442d	0.019563759
163	0x3dc28579	0.09498114
164	0xbc8f2889	-0.017475383
165	0xbc6c3fe0	-0.014419526
166	0x3e0d8cee	0.13823292
167	0x3d589877	0.052879777
168	0xbd4f6c8a	-0.05064062
169	0x3d9c13d7	0.07620972
170	0x3d28d3cb	0.041217607
171	0xbe75954e	-0.23982736
172	0x3cea0f2e	0.028571691
173	0xbd30c29e	-0.04315435
174	0x3e904a69	0.2818177
175	0xbdb73a8e	-0.08946715
176	0x3c3c4e38	0.011493258
177	0x3de8c8a4	0.11366394
178	0x3ce25e5a	0.027632881
179	0xbd58a12d	-0.052888084
180	0xbb58f829	-0.00331069
181	0x3c3cd64d	0.011525703
182	0x3e692ea4	0.22771698
183	0x3d35160f	0.04421049
184	0xbc95c69d	-0.018283183
185	0x3d586566	0.052831076
186	0xbb8da236	-0.0043223156
187	0x3e261bc3	0.16221528
188	0x3c8a33b5	0.016870359
189	0x3de3fe79	0.11132521
190	0xbe4dab8d	-0.20084973
191	0xbdc4e41b	-0.0961382
192	0x3d9c26e5	0.07624606
193	0x3e17aee8	0.14812815
194	0xbdf3a2cf	-0.11896288
195	0x3e1a3875	0.15060599
196	0xbd52c8af	-0.051460918
197	0x3e83a8c1	0.25714687
198	0x3ce4f984	0.02795101
199	0x3e1a842c	0.15089482
200	0x3d2ee855	0.042702038
201	0xbdbd6465	-0.09247664
202	0xbd706aeb	-0.058695715
203	0xbda8a95c	-0.08235428
204	0xbd9c20a0	-0.0762341
205	0xbce84dac	-0.02835735
206	0xbd98fb8f	-0.07469856
207	0xbda01109	-0.07815749
208	0xbd2001b1	-0.039064113
209	0xbd07d96b	-0.03316633
210	0xbd8c3539	-0.06846089
211	0xbdb77725	-0.08958272
212	0x3e115e2e	0.14196083
213	0xbe149e00	-0.14513397
214	0xbd813dcc	-0.06310615
215	0x3e6155e8	0.22005427
216	0x3ef4d1a8	0.47816205
217	0x3e675ec8	0.2259475
218	0xbe1a1348	-0.15046418
219	0x3df7baa3	0.12096145
220	0xbed2e38f	-0.41189238
221	0xbe2218e7	-0.15829812
222	0x3e031ffa	0.12805167
223	0x3e8093c9	0.2511275
224	0xbe671969	-0.22568287
225	0xbc29fb0f	-0.010374798
226	0xbd613282	-0.05497981
227	0x3ee2e495	0.4431502
228	0xbe02d4bf	-0.12776469
229	0x3c6c2097	0.014412067
230	0x3e1ab9c8	0.15109932
231	0x3dc8f882	0.09813024
232	0xbd65f039	-0.056137297
233	0xbdfce53f	-0.12348413
234	0xbcd7a83e	-0.026325341
235	0xbd346177	-0.044038262
236	0x3d77643b	0.06039832
237	0x3db992d6	0.0906121
238	0x3d00861d	0.0313779
239	0xbd4fea31	-0.05076045
240	0xbd9c4c84	-0.07631782
241	0xbc74ec6f	-0.014948948
242	0xbd71dc8e	-0.059048228
243	0x3e486c2f	0.19572519
244	0xbe5ff94f	-0.21872447
245	0xbd6bae0c	-0.05753903
246	0x3e259d6f	0.16173337
247	0xbc2e8f09	-0.010654219
248	0xbdb77ebf	-0.08959722
249	0xbd48f292	-0.049059458
250	0xbe12518d	-0.14288922
251	0xbe2e1722	-0.17001012
252	0xbdaec025	-0.085327424
253	0x3e3222ea	0.17396131
254	0xbe250602	-0.16115573
255	0xbc779813	-0.015111941

W_readout f4 [1, 7]
0	0x3eb7d156	0.35901898
1	0xbf9f9b63	-1.2469295
2	0x3ef59fd5	0.47973505
3	0xbf84a018	-1.0361357
4	0x3fa45571	1.2838575
5	0xbfd6ecd2	-1.6791022
6	0x3fce0454	1.6095071

bias f4 [74]
0	0x3e16cf74	0.14727575
1	0x3e743f09	0.23852171
2	0x3d59ba7b	0.053156357
3	0xbe12b406	-0.14326486
4	0x3dc6743a	0.09690137
5	0x3dbece37	0.09316676
6	0x3e177e28	0.14794219
7	0x3dcccccd	0.1
8	0x3dcccccd	0.1
9	0x3dcccccd	0.1
10	0x3dcccccd	0.1
11	0x3dcccccd	0.1
12	0x3dcccccd	0.1
13	0x3dcccccd	0.1
14	0x3dcccccd	0.1
15	0x3dcccccd	0.1
16	0x3dcccccd	0.1
17	0x3dcccccd	0.1
18	0x3dcccccd	0.1
19	0x3dcccccd	0.1
20	0x3dcccccd	0.1
21	0x3dcccccd	0.1
22	0x3dcccccd	0.1
23	0x3dcccccd	0.1
24	0x3dcccccd	0.1
25	0x3dcccccd	0.1
26	0x3dcccccd	0.1
27	0x3dcccccd	0.1
28	0x3dcccccd	0.1
29	0x3dcccccd	0.1
30	0x3dcccccd	0.1
31	0x3dcccccd	0.1
32	0x3dcccccd	0.1
33	0x3dcccccd	0.1
34	0x3dcccccd	0.1
35	0x3dcccccd	0.1
36	0x3dcccccd	0.1
37	0x3dcccccd	0.1
38	0x3dcccccd	0.1
39	0x3dcccccd	0.1
40	0x3dcccccd	0.1
41	0x3dcccccd	0.1
42	0x3dcccccd	0.1
43	0x3dcccccd	0.1
44	0x3dcccccd	0.1
45	0x3dcccccd	0.1
46	0x3dcccccd	0.1
47	0x3dcccccd	0.1
48	0x3dcccccd	0.1
49	0x3dcccccd	0.1
50	0x3dcccccd	0.1
51	0x3dcccccd	0.1
52	0x3dcccccd	0.1
53	0x3dcccccd	0.1
54	0x3dcccccd	0.1
55	0x3dcccccd	0.1
56	0x3dcccccd	0.1
57	0x3dcccccd	0.1
58	0x3dcccccd	0.1
59	0x3dcccccd	0.1
60	0x3dcccccd	0.1
61	0x3dcccccd	0.1
62	0x3dcccccd	0.1
63	0x3dcccccd	0.1
64	0x3dcccccd	0.1
65	0x3dcccccd	0.1
66	0x3dcccccd	0.1
67	0x3c7282bd	0.014801678
68	0xbdbf829b	-0.09351083
69	0x3dbf9908	0.0935536
70	0xbed9988c	-0.42499197
71	0x3ccfb00c	0.0253525
72	0x3dd52512	0.10407461
73	0x3b494361	0.0030710327

W_ext f4 [7, 2]
0	0xbfc9db1d	-1.5769993
1	0x3e1b07c2	0.15139678
2	0xbff113cc	-1.8834167
3	0xbfd6a693	-1.6769584
4	0x3e190745	0.1494418
5	0xbfc6e12a	-1.5537465
6	0x3f7517d6	0.95739496
7	0x3f1cfa53	0.61319464
8	0xbd0f8ee8	-0.035048395
9	0x3c775af8	0.015097372
10	0xbedca517	-0.43094704
11	0x3cca11fc	0.024666779
12	0x3de9a096	0.114075825
13	0xbf041034	-0.51587224
