DrosophilaLabRot/data_store/mbon_sensitivity/second_order_only_nets/trained_nets/09_mbons/second_order_no_extinct_5000ep_1hop_N07.pt (torch_old, 25499 bytes, 4 tensors)

W_recur f4 [78, 78]
00000000: 5304 a43d fe94 50be bb97 97bd 86d0 cf3e
00000010: dfc0 a3be eb21 95be 8a65 c7bd 07e8 8cbd
00000020: a22f b73e f037 853e 1528 8e3d a734 333c
00000030: 72f6 503e b01a b73d 96ae 2ebe 14fd 9b3d
00000040: 890d 2e3e 7897 853d 8bd5 123e 151d 56bd
00000050: 0ba9 0dbd 292d a6bd a21d 79bd 3c20 8e3d
00000060: 0c2c 64be 7ba8 84bc 645b dbbc 3535 fa3c
00000070: 5148 81bd a71b cc3c fb65 d9bd d2cc 143d
00000080: 15ae 88bd ab81 d33d b810 0cbe bfc5 90bc
00000090: 11a6 9dbd 7094 89bd 3013 17bd e42e 743d
000000a0: d7fb 02be 6179 54bd d6d1 0539 ad9e 8f3d
000000b0: 0b7f a7bd 0b38 8abd 1d50 0a3d 54b2 c9bc
000000c0: e7b7 953b 0246 50be 3ff8 423d cf17 ffbb
000000d0: 9d06 163d 91db 62bd c327 443d 05c3 c93c
000000e0: c1ab bcbc ef88 423d d8a2 b3bc de60 783d
000000f0: 8721 daba f1e2 c73b 2cd4 81be 3359 203c
00000100: 1997 f8bd 472a 0abe f58b 9c3c ceb5 2dbc
00000110: 8bff 15be 9480 fa3d 7667 3f3e 18f0 83bd
00000120: 4974 40bd 389f 62be ceb3 283e 1ab8 183f
00000130: 9bad f43c 7255 f03e 6187 52be f71d 81be
00000140: e035 ccbe 19c4 8c3e c61e f93e 0636 ac3e
00000150: 5bc2 6abd a57b 27bd d4f8 0c3e 6d39 8e3c
00000160: a1e7 0cbe 54da 2f3e 0526 2cbe 7842 a2bb
00000170: a114 97bd c25b ca3d a0bb 3ebd b00b a2bd
00000180: 3e1f 3abe d949 563d f98b 473e 6d9f cfbd
00000190: cb2e fa3d dff0 913e e9b0 a3bd 3db5 ddbd
000001a0: b0a9 473e ca6f 843d ac63 253d 9d2b 16be
000001b0: 86dd 053e ac29 99be ec3a a3bb b2aa 3d3d
000001c0: d6fc 563d 0530 06be ea71 b7bd db98 91bd
000001d0: c656 b6bd 65cc ba3c 1bab 0e3d ba9f 943c
000001e0: 4a85 7abd 52cf e6bd da39 77bd 16c2 86bd
000001f0: 2ebb b6bd 35a4 89bd fce9 693d 32b7 bb3d
00000200: f165 993c e419 263e 383a d73c 0e20 15bd
00000210: d34b f33d 42ca 2ebd 1c9e 16be 85bf acbd
00000220: 6183 923d 3289 d2bd f0e7 1b3d 7c8e 7bbd
00000230: 52f0 98bd 9b8a 113e 5426 a5b9 93a4 d93d
00000240: 36c8 37be d245 59bc 33d8 8bbd ca8c d63c
00000250: 7665 02be 2a42 30be db6e 0dbd 8467 21bf
00000260: f65d 333d 9955 c7bd 0b86 d83e ed3c 023e
00000270: 9334 dcbd 5475 49bd d5bf f0be 8a64 1f3e
00000280: 6037 bd3e f8a1 2e3c d6b2 bdbc 6695 e13e
00000290: e39a 22be 94a4 66bd d27f 8ebd dd6e a0bd
000002a0: 5267 7c3d 2a12 23bd ed6e 96bd 793f 43be
000002b0: f701 253e deda db3c a2a5 1dbd 93c3 1c3d
000002c0: 382d 483e c90a 883c 1250 103e 7bad 96bc
000002d0: fec7 cd3c c309 87bb 9146 85bd 0b57 f43b
000002e0: f593 f6bd fb92 bebd 3832 93be f2b2 b7bd
000002f0: 303e c63d 0217 d9bd 0b11 b0bd d010 db3d
00000300: 1ab6 4bbe 7b6c fbbd b983 c33d 244b b8bd
00000310: c7d3 b7bd 9698 45bd 6991 903d 27ab a63c
00000320: bf85 f9bc 207d 3f3d 6a9c 0f3d bae6 90bd
00000330: 9489 9abd 5711 cbbc 76e3 68be 1843 9fbc
00000340: eaf4 a73d fdda 8f3d 6a03 b73c 7916 833d
00000350: 5b8c 353d d7a7 f6bc aa84 7a3c 2292 0fbe
00000360: 20d4 9abd e9d1 19be 408c 64bd be5c bd3d
00000370: 22d2 ce3d 89b9 14bb ea3f a4bd 8384 ddbc
00000380: e68d 263d a14c 3abe 2084 e93a 8007 b53d
00000390: 8ac6 ea3e 6508 5cbc c493 7ebd 480d 6dbe
000003a0: d2c4 d03e e6c8 2c3d 9753 c73e b29a 0c3e
000003b0: 9f79 d73e 14f6 3cbe f58e f1bd 0f71 50be
000003c0: d1dc d33d b0ff a5be 17ce c0bd 64ff 5e3d
000003d0: 63db 22be e946 74bd 2993 823e 42c2 a8bc
000003e0: 01d7 5bbe bf23 a2bd 2145 57bc 600e 68bd
000003f0: cd54 d83d 3a46 03be d733 043c 1dca 3e3d
0.08008637 -0.20369336 -0.07401987 0.40588778 -0.31983086 -0.2912744 -0.09736164 -0.06880193
0.35778528 0.2601924 0.06941239 0.010937846 0.20406511 0.08940637 -0.17058787 0.0761663
0.16997351 0.06523031 0.14339273 -0.05227383 -0.03458504 -0.08114082 -0.060819276 0.06939742
-0.22282428 -0.016193619 -0.026776977 0.03054295 -0.063126214 0.02491553 -0.10615154 0.036328144
-0.066738285 0.103274666 -0.13678253 -0.017672418 -0.0769769 -0.06717765 -0.036883533 0.05961503
-0.12791382 -0.05187357 0.00012762038 0.07012687 -0.081785284 -0.067489706 0.03376781 -0.024621166
0.004569042 -0.20339206 0.047600027 -0.0077848206 0.0366274 -0.055385176 0.047889482 0.024629125
-0.023031117 0.04749387 -0.021928236 0.060639255 -0.0016642072 0.0061000516 -0.25357187 0.009786892
-0.121381946 -0.1349269 0.019109705 -0.010602428 -0.14648263 0.122315556 0.18691811 -0.064422786
-0.0469859 -0.2213105 0.1647484 0.59655917 0.029867938 0.4694019 -0.20559455 -0.25218174
-0.39884853 0.2749336 0.4865629 0.33634967 -0.057314258 -0.0408894 0.13766795 0.017361367
-0.13760234 0.1717313 -0.16811378 -0.0049517713 -0.073769815 0.09880783 -0.046565652 -0.079123855
-0.1817598 0.05231652 0.19486989 -0.1013783 0.12215956 0.28504083 -0.07992727 -0.10825584
0.19498324 0.064666346 0.040378258 -0.14665075 0.13072786 -0.29914606 -0.0049813893 0.046305366
0.052487217 -0.13104255 -0.08957274 -0.07109233 -0.089032695 0.022802541 0.034831148 0.01814257
-0.06116227 -0.11270012 -0.060357906 -0.06579988 -0.089224204 -0.06720773 0.05710791 0.09165801
0.018725367 0.16220814 0.026272878 -0.036407523 0.11879697 -0.042673357 -0.14708751 -0.08434967
0.07153965 -0.10280074 0.03806299 -0.06141518 -0.074677125 0.1421303 -0.0003149981 0.10627093
-0.17947468 -0.013261275 -0.06828346 0.02619018 -0.12734017 -0.1721274 -0.03452955 -0.6304858
0.04379078 -0.09733123 0.42289767 0.12718554 -0.10752215 -0.04918416 -0.47021356 0.15565696
0.3695631 0.010658734 -0.023156565 0.44059294 -0.15879397 -0.056309298 -0.069579735 -0.078336455
0.06162197 -0.039812244 -0.07345376 -0.19067182 0.16114031 0.026837762 -0.038488038 0.03827245
0.195485 0.016606705 0.14093044 -0.018393269 0.025119778 -0.0041210367 -0.065076 0.0074566654
-0.12039939 -0.09305378 -0.2874925 -0.08969678 0.0967983 -0.106000915 -0.08597001 0.10696566
-0.19893685 -0.122765504 0.095466085 -0.08998707 -0.0897594 -0.04824122 0.07058985 0.020345284
-0.030459283 0.046750188 0.035061277 -0.070752576 -0.07545772 -0.024788542 -0.2274302 -0.019441172
0.082010105 0.070241906 0.022340495 0.06400771 0.044323307 -0.03010933 0.015290419 -0.14020589
-0.07559991 -0.1502148 -0.055797815 0.09246205 0.100986734 -0.0022693595 -0.08020003 -0.027040726
0.04066267 -0.18193294 0.0017815866 0.08839321 0.45854598 -0.013429736 -0.06215264 -0.23149598
0.40775162 0.04218378 0.3893096 0.13730887 0.42084977 -0.18453246 -0.11794845 -0.20355628
0.10344852 -0.32421637 -0.094143085 0.05444278 -0.15904002 -0.059637938 0.255029 -0.020600442
-0.21468736 -0.07916974 -0.01313904 -0.056654334 0.105630495 -0.12819758 0.008069 0.04657947

W_readout f4 [1, 9]
00000000: 29ad 3bbf 058e 53bf 1956 8dbf ecd9 333f
00000010: 3587 423f 071c 2a3d 4956 43be 79f9 9f3f
00000020: db06 e83d
-0.73311096 -0.8263858 -1.10419 0.702544 0.7598756 0.041530635 -0.19075884 1.2498008
0.113294326

bias f4 [78]
00000000: 912d b13c d6d0 f93d 351f d43d 4448 c03d
00000010: 2efb 613d 0dc1 013e ab77 5b3d b0da ce3d
00000020: 5c11 af3d cdcc cc3d cdcc cc3d cdcc cc3d
00000030: cdcc cc3d cdcc cc3d cdcc cc3d cdcc cc3d
00000040: cdcc cc3d cdcc cc3d cdcc cc3d cdcc cc3d
00000050: cdcc cc3d cdcc cc3d cdcc cc3d cdcc cc3d
00000060: cdcc cc3d cdcc cc3d cdcc cc3d cdcc cc3d
00000070: cdcc cc3d cdcc cc3d cdcc cc3d cdcc cc3d
00000080: cdcc cc3d cdcc cc3d cdcc cc3d cdcc cc3d
00000090: cdcc cc3d cdcc cc3d cdcc cc3d cdcc cc3d
000000a0: cdcc cc3d cdcc cc3d cdcc cc3d cdcc cc3d
000000b0: cdcc cc3d cdcc cc3d cdcc cc3d cdcc cc3d
000000c0: cdcc cc3d cdcc cc3d cdcc cc3d cdcc cc3d
000000d0: cdcc cc3d cdcc cc3d cdcc cc3d cdcc cc3d
000000e0: cdcc cc3d cdcc cc3d cdcc cc3d cdcc cc3d
000000f0: cdcc cc3d cdcc cc3d cdcc cc3d cdcc cc3d
00000100: cdcc cc3d cdcc cc3d cdcc cc3d cdcc cc3d
00000110: cdcc cc3d 6c13 ce3d 8661 44bd cb20 173d
00000120: 59d2 8b3c 5eed b2be ed68 1e3e 0a01 8ebe
00000130: dadb 3fba efe8 973c
0.021628173 0.121980354 0.10357515 0.093887836 0.055171184 0.126713 0.05358092 0.10100305
0.08548233 0.1 0.1 0.1 0.1 0.1 0.1 0.1
0.1 0.1 0.1 0.1 0.1 0.1 0.1 0.1
0.1 0.1 0.1 0.1 0.1 0.1 0.1 0.1
0.1 0.1 0.1 0.1 0.1 0.1 0.1 0.1
0.1 0.1 0.1 0.1 0.1 0.1 0.1 0.1
0.1 0.1 0.1 0.1 0.1 0.1 0.1 0.1
0.1 0.1 0.1 0.1 0.1 0.1 0.1 0.1
0.1 0.1 0.1 0.1 0.1 0.10062298 -0.047944568 0.03689651
0.017068075 -0.34946722 0.15469714 -0.27735168 -0.0007318832 0.018543689

W_ext f4 [9, 2]
00000000: 8264 dcbd 0b40 73bf ba42 843e 1199 0b3e
00000010: 52e8 fd3d e201 54bd bc9e 58bf 5b26 ed3c
00000020: d208 a23e 1e33 3a3f 413e 653d 2e07 68bf
00000030: 0c5d 543f 53d7 0c3f ee65 0bbf ed37 11c0
00000040: 84dd 9b3d 9910 c03d
-0.10761358 -0.95019597 0.25832158 0.13632609 0.12397827 -0.051759608 -0.8461721 0.028948953
0.31647354 0.7273425 0.055967573 -0.90635955 0.8295448 0.5501606 -0.5445241 -2.2690384
0.0761061 0.09378166
