DrosophilaLabRot/data_store/mbon_sensitivity/first_order_nets/trained_nets/08_mbons/first_order_2000ep_1hop_N02.pt (torch_old, 24247 bytes, 4 tensors)

W_recur f4 [76, 76]
0	0xbbcbe4aa	-0.0062223272
1	0x3ded1f40	0.11578226
2	0xbcba90ef	-0.022774188
3	0xbe63c5b4	-0.22243387
4	0xbe08893f	-0.13333605
5	0xbdd22062	-0.10260083
6	0x3ed01815	0.40643373
7	0xbf114c13	-0.56756705
8	0xbd47808e	-0.048706584
9	0x3dba3236	0.09091608
10	0x3d08e670	0.033422887
11	0x3d1bce13	0.038038325
12	0xbd87b9c5	-0.066272296
13	0xbd06cb96	-0.032909
14	0x3cc8d67b	0.024516335
15	0x3e419eea	0.18908277
16	0x3ddbdd83	0.107356094
17	0xbe194d25	-0.14970835
18	0x3da15dfb	0.078792535
19	0xbdaf6385	-0.08563904
20	0x3ca5122d	0.020150268
21	0xbd93b17c	-0.07211587
22	0x3dae9fdd	0.08526585
23	0xbcb58bf9	-0.02216147
24	0xbdcac188	-0.099001944
25	0x3e313eee	0.17309162
26	0x3d3171a0	0.043321252
27	0x3e72d550	0.23714185
28	0xbdc568fb	-0.09639164
29	0x3d5974b6	0.05308982
30	0x3e7f88ed	0.24954577
31	0xbdbf5316	-0.09342019
32	0xbd9f283d	-0.07771347
33	0xbd906771	-0.0705098
34	0xbdde1a06	-0.10844807
35	0xbe3dddab	-0.18541591
36	0xbe1bec23	-0.15226798
37	0xbdc9a5d6	-0.09846084
38	0x3d91ce82	0.07119466
39	0xbdd6dbce	-0.10491143
40	0x3dff91be	0.1247897
41	0x3d0cd207	0.034379985
42	0xbd952062	-0.07281567
43	0x3c8ef5de	0.017451223
44	0xbc87e06a	-0.016586501
45	0xbdec649e	-0.11542629
46	0xbc9fadac	-0.019491993
47	0xbcd03f21	-0.025420727
48	0x3d05ab8c	0.032634303
49	0xbde04448	-0.109505236
50	0xbd2191ff	-0.039445873
51	0xbdca7483	-0.09885504
52	0x3c461b55	0.012091477
53	0xbc11739f	-0.008877664
54	0xbd3eeb26	-0.046610974
55	0xbd4a16ec	-0.049338266
56	0xbd5bfbd6	-0.053706966
57	0xbe67df86	-0.22643861
58	0x3b12fab8	0.0022427272
59	0xbbe6ae19	-0.007039797
60	0x3c92d216	0.017922442
61	0x3e01b3a5	0.12666185
62	0xbd8e087d	-0.06935213
63	0x3ca85294	0.020547189
64	0x3c32037f	0.010865091
65	0xbbd758fc	-0.006571887
66	0xbe6e3dfd	-0.23265834
67	0x3e3f8143	0.18701653
68	0xbcbf5011	-0.023353608
69	0xbc06aa88	-0.008219369
70	0xbe8d3a14	-0.27583373
71	0x3c73511b	0.01485088
72	0x3ec48288	0.38380837
73	0x3ebe3535	0.3714997
74	0x3d71e6ef	0.059058126
75	0xbe5c0b63	-0.21488719
76	0x3e60f1d5	0.21967252
77	0xbe9df76a	-0.30852824
78	0x3f2302fe	0.6367644
79	0x3dbcd169	0.09219629
80	0x3df3f0b9	0.119111486
81	0x3ee44b13	0.44588527
82	0xbec5885d	-0.385806
83	0xbe689dcd	-0.22716446
84	0x3d9c00b3	0.07617321
85	0xbddcd37b	-0.10782524
86	0x3d7003de	0.058597438
87	0xbe215b69	-0.15757526
88	0xbe0e26a9	-0.13881935
89	0x3d84ee60	0.06490779
90	0xbd3ea297	-0.046541777
91	0x3d83eddc	0.064418525
92	0xbdd08268	-0.10181123
93	0xbcaa29d0	-0.02077189
94	0x3e56b5bb	0.20967762
95	0x3e12da03	0.14340977
96	0x3dac9d3d	0.08428428
97	0xbd89446f	-0.06702506
98	0x3d9c473c	0.076307744
99	0x3dba2c7e	0.090905175
100	0x3b25b09c	0.002528227
101	0xbd236fa5	-0.039901394
102	0x3c8f1445	0.01746572
103	0x3b036c8d	0.0020053715
104	0x3c51356f	0.012769087
105	0xbce35e63	-0.027754968
106	0x3d18b547	0.037282255
107	0xbb0893dd	-0.0020840087
108	0x3e15dd5e	0.14635226
109	0x3dee5795	0.11637799
110	0xbcaa0733	-0.020755386
111	0x3e321303	0.17390065
112	0x3c3015bd	0.01074737
113	0xbe080018	-0.13281286
114	0xbdf12bd1	-0.117759354
115	0xbdaa06f9	-0.08302111
116	0x3e2caca9	0.1686274
117	0xbd16e54c	-0.03683977
118	0xbd946309	-0.07245452
119	0x3e2683b3	0.16261177
120	0xbe13c479	-0.14430417
121	0x3d741be6	0.05959692
122	0x3bc5bab6	0.0060342206
123	0x3c4bc3f6	0.012436857
124	0x3ccdaf1f	0.025107918
125	0xbdc4a614	-0.096019894
126	0x3d45b059	0.04826388
127	0x3e530433	0.2060707
128	0x3bc24601	0.0059287553
129	0xbd928159	-0.07153577
130	0x3dd70c26	0.10500364
131	0x3e42e601	0.19033052
132	0xbc59891a	-0.0132773165
133	0x3e305bef	0.1722257
134	0x3e46e2dc	0.19422477
135	0xbdab6036	-0.0836796
136	0x3dadc8a4	0.08485535
137	0x3ca87d48	0.020567551
138	0xbc209358	-0.0098007545
139	0x3e00894d	0.12552376
140	0x3db099fa	0.08623119
141	0xbe5cd045	-0.21563824
142	0x3d4ea85f	0.05045354
143	0xbd5adf5e	-0.053435676
144	0xbe48f680	-0.19625282
145	0xbdf70e48	-0.12063271
146	0x3dcef680	0.1010561
147	0xbd28c0e6	-0.041199587
148	0xbee3ac71	-0.444675
149	0x3f12315a	0.57106555
150	0x3d199665	0.037496943
151	0x3ddb3d22	0.107050195
152	0xbc2826ce	-0.010263158
153	0xbdac5199	-0.08414001
154	0x3e8f158e	0.27946132
155	0x3eee5146	0.46546382
156	0xbf0eebd9	-0.55828625
157	0xbddf9bd9	-0.109183975
158	0x3eba5962	0.3639632
159	0x3eb3e670	0.35136747
160	0xbd9136bb	-0.07090517
161	0xbd368aed	-0.044566084
162	0x3e25660c	0.16152209
163	0xbe6ddcba	-0.23228732
164	0xbd1489cf	-0.036264237
165	0xbc7086b4	-0.014680553
166	0x3d9986bd	0.074964024
167	0x3d418786	0.047248386
168	0x3b15ee78	0.0022877734
169	0x3d15b49d	0.0365492
170	0xbe1a0c1b	-0.1504368
171	0x3e033088	0.12811482
172	0xbc178638	-0.009248309
173	0x3d383a6d	0.044977594
174	0x3e085508	0.13313687
175	0x3e21964d	0.15779991
176	0x3d203565	0.03911342
177	0x3d7cd9f7	0.061731305
178	0x3ce5b2c2	0.02803934
179	0x3d5b8b46	0.05359962
180	0x3d2c5a6f	0.04207843
181	0xbd2665a4	-0.040624276
182	0x3e237eb7	0.15966307
183	0xbdf89588	-0.12137896
184	0xbd1e70e4	-0.03868188
185	0x3e55e056	0.20886359
186	0x3d12cd9a	0.03584061
187	0xbd28446a	-0.04108087
188	0xbd23ee1e	-0.040022008
189	0xbdb395c2	-0.087687984
190	0xbdd955f6	-0.10612099
191	0x3e066702	0.13125232
192	0xbcc47df8	-0.023985848
193	0xbd385987	-0.045007255
194	0x3deeabf9	0.11653895
195	0x3e9a4bda	0.30135995
196	0x3d9bf7df	0.07615637
197	0xbcafec21	-0.0214749
198	0x3d39dda4	0.04537739
199	0x3dd53f9e	0.10412525
200	0xbd908cd9	-0.070581146
201	0x3e0993c7	0.13435279
202	0xbd2b181c	-0.04177104
203	0xbcfd09f2	-0.030888531
204	0x3e01bace	0.12668917
205	0xbdee6573	-0.11640444
206	0x3d861c2a	0.065483406
207	0x3e26242d	0.16224737
208	0x3e5c0c7c	0.21489137
209	0x3c37d73e	0.011220751
210	0xbe6e7de0	-0.23290205
211	0x3e48a5c8	0.1959449
212	0xbdbe5fc9	-0.09295613
213	0x3e8d912f	0.2764983
214	0x3da0d8df	0.07853865
215	0x3ca1401a	0.019683886
216	0x3ca30839	0.019901382
217	0x3ce335b1	0.027735563
218	0xbd81781c	-0.06321737
219	0xbe0cf933	-0.13766937
220	0x3cbe4fe3	0.023231452
221	0xbe17b12b	-0.14813678
222	0x3de85a1c	0.11345312
223	0x3e80d2d3	0.25160846
224	0x3caf074d	0.021365786
225	0x3eb7167e	0.35759348
226	0xbedc71b5	-0.43055502
227	0x3e3e9c90	0.18614411
228	0xbe98af72	-0.29821354
229	0xbdb2d3f5	-0.08731834
230	0x3e9c6872	0.30548435
231	0xbe8d4f98	-0.27599788
232	0x3c4c7530	0.012479112
233	0x3df3e005	0.11907963
234	0x3cd2c783	0.0257299
235	0xbde0cfb6	-0.10977118
236	0x3c201a63	0.009771916
237	0xbdeb9699	-0.115033336
238	0xbd50a37e	-0.05093717
239	0x3b5b62c4	0.0033475617
240	0xbe2e4b27	-0.17020856
241	0xbd3d24bb	-0.046177607
242	0x3d411e21	0.047147874
243	0x3dae2cbe	0.08504628
244	0x3db3d34e	0.087805375
245	0xbd8a78dc	-0.06761333
246	0xbdf4b6e9	-0.1194895
247	0xbe42c5d2	-0.19020775
248	0xbe35b4a3	-0.17744689
249	0x3e0b5289	0.13605703
250	0xbd20ec05	-0.039287586
251	0x3cd67ae0	0.026181638
252	0xbe876401	-0.26443484
253	0x3de0e2bd	0.10980747
254	0x3e360211	0.17774226
255	0x3d818e7e	0.06326006

W_readout f4 [1, 8]
0	0x3e5b71d4	0.2143014
1	0xbf0e9003	-0.55688494
2	0x3f2f7f64	0.6855376
3	0xbec135b3	-0.37736282
4	0x3f317533	0.69319457
5	0x3ee42527	0.44559595
6	0xbf0e30c7	-0.5554318
7	0xbf073a81	-0.52823645

bias f4 [76]
0	0xbd7b8cf7	-0.06141373
1	0x3dcc4ece	0.09975968
2	0x3de0c9be	0.10975979
3	0x3dd4890d	0.10377703
4	0x3e031fca	0.12805095
5	0x3d80d231	0.06290091
6	0x3de5b133	0.11215439
7	0x3d765296	0.060137354
8	0x3dcccccd	0.1
9	0x3dcccccd	0.1
10	0x3dcccccd	0.1
11	0x3dcccccd	0.1
12	0x3dcccccd	0.1
13	0x3dcccccd	0.1
14	0x3dcccccd	0.1
15	0x3dcccccd	0.1
16	0x3dcccccd	0.1
17	0x3dcccccd	0.1
18	0x3dcccccd	0.1
19	0x3dcccccd	0.1
20	0x3dcccccd	0.1
21	0x3dcccccd	0.1
22	0x3dcccccd	0.1
23	0x3dcccccd	0.1
24	0x3dcccccd	0.1
25	0x3dcccccd	0.1
26	0x3dcccccd	0.1
27	0x3dcccccd	0.1
28	0x3dcccccd	0.1
29	0x3dcccccd	0.1
30	0x3dcccccd	0.1
31	0x3dcccccd	0.1
32	0x3dcccccd	0.1
33	0x3dcccccd	0.1
34	0x3dcccccd	0.1
35	0x3dcccccd	0.1
36	0x3dcccccd	0.1
37	0x3dcccccd	0.1
38	0x3dcccccd	0.1
39	0x3dcccccd	0.1
40	0x3dcccccd	0.1
41	0x3dcccccd	0.1
42	0x3dcccccd	0.1
43	0x3dcccccd	0.1
44	0x3dcccccd	0.1
45	0x3dcccccd	0.1
46	0x3dcccccd	0.1
47	0x3dcccccd	0.1
48	0x3dcccccd	0.1
49	0x3dcccccd	0.1
50	0x3dcccccd	0.1
51	0x3dcccccd	0.1
52	0x3dcccccd	0.1
53	0x3dcccccd	0.1
54	0x3dcccccd	0.1
55	0x3dcccccd	0.1
56	0x3dcccccd	0.1
57	0x3dcccccd	0.1
58	0x3dcccccd	0.1
59	0x3dcccccd	0.1
60	0x3dcccccd	0.1
61	0x3dcccccd	0.1
62	0x3dcccccd	0.1
63	0x3dcccccd	0.1
64	0x3dcccccd	0.1
65	0x3dcccccd	0.1
66	0x3dcccccd	0.1
67	0x3dcccccd	0.1
68	0xbde46daa	-0.11153729
69	0xbc7a06fe	-0.015260456
70	0xbdba2a1c	-0.09090063
71	0xbeb1d4d2	-0.34732682
72	0xbce8ad17	-0.028402848
73	0xbd147fb3	-0.036254596
74	0xbd171c8d	-0.036892463
75	0xbdfd818a	-0.12378223

W_ext f4 [8, 2]
0	0xbd1a710b	-0.037705462
1	0x3de2723b	0.11056944
2	0x3e5f1719	0.21786155
3	0xbf055e42	-0.5209695
4	0xbdc5c622	-0.096569315
5	0x3e9d5207	0.30726644
6	0x3f21986a	0.6312319
7	0xbf58b58e	-0.8465203
8	0xbf06c248	-0.526402
9	0x3d2e1d2d	0.042508293
10	0xbd65f26d	-0.0561394
11	0x3e71adef	0.23601507
12	0x3e820996	0.25397938
13	0xbef14155	-0.47120157
14	0x3eefcb36	0.46834725
15	0xbf01e615	-0.507417
