DrosophilaLabRot/data_store/mbon_sensitivity/first_order_nets/trained_nets/08_mbons/first_order_2000ep_1hop_N11.pt (torch_old, 24247 bytes, 4 tensors)

W_recur f4 [76, 76]
0	0xbe313c93	-0.17308263
1	0x3ea07b24	0.3134395
2	0x3e80301f	0.25036713
3	0xbbcf8d18	-0.0063339584
4	0x3e0c7fbf	0.13720606
5	0x3dea8594	0.11451259
6	0xbefbc8dd	-0.49176684
7	0x3d0b7f84	0.034057155
8	0x3e2b1339	0.16706552
9	0x3da2777b	0.07932945
10	0x3dc222c2	0.09479286
11	0x3e373c71	0.1789415
12	0x3d649a4d	0.055811215
13	0xbb30a373	-0.0026952892
14	0x3c858f9f	0.016303835
15	0x3dc89149	0.09793336
16	0x3dc72169	0.09723169
17	0x3e021c4a	0.12706104
18	0xbdbd3cc9	-0.092401095
19	0xbc8ad001	-0.016944887
20	0xbdc8e679	-0.09809584
21	0x3dfb4020	0.1226809
22	0xbd57289b	-0.05252896
23	0xbe1344ad	-0.14381666
24	0xbd4ba18e	-0.049714617
25	0xbea78199	-0.32716063
26	0x3c5323ca	0.012886951
27	0x3e1aae24	0.15105492
28	0x3da6d0ba	0.0814528
29	0x3d4db595	0.050222
30	0x3d1ebfa8	0.038756996
31	0xbdf6b223	-0.12045696
32	0xbc04031e	-0.008057384
33	0x3d9ce420	0.07660699
34	0xbdf4b036	-0.11947672
35	0xbd866b4f	-0.06563436
36	0xbd848cd6	-0.06472175
37	0x3cbbce5b	0.022925546
38	0xbe655d67	-0.22398911
39	0x3da7bf69	0.081908055
40	0xbd218385	-0.039432067
41	0xbe1bfe3e	-0.15233704
42	0x3dbf19c3	0.093310855
43	0x3d58e2ae	0.052950554
44	0x3e173ac8	0.14768517
45	0xbe03b159	-0.12860622
46	0xbdddb5d5	-0.10825697
47	0x3dac2532	0.08405532
48	0xbaf38e21	-0.0018581786
49	0xbe28b73c	-0.16476148
50	0x3e7b41aa	0.24536768
51	0x3de2ea4e	0.11079846
52	0xbc8685e7	-0.016421271
53	0xbdb635ce	-0.08896981
54	0xbd9f6c28	-0.07784301
55	0x3d3fffb3	0.046874713
56	0x3e63f08b	0.22259729
57	0x3d86d884	0.06584266
58	0xbdd21cf1	-0.102594264
59	0x3d961705	0.073286094
60	0xbdbca01d	-0.09210227
61	0xbb6b5e91	-0.003591452
62	0xbd5d0521	-0.05395997
63	0xbd334efb	-0.043776494
64	0xbe2a314b	-0.16620366
65	0x3d17c4fe	0.0370531
66	0xbdd42631	-0.10358847
67	0x3dcd73a6	0.10031824
68	0x3e3f6af2	0.1869314
69	0x3eaec8e4	0.34137642
70	0x3eb0944a	0.34488136
71	0x3e18f479	0.14937009
72	0xbe427c15	-0.18992646
73	0x3e85c1d2	0.26124436
74	0x3e81c593	0.2534605
75	0x3e160d3b	0.14653485
76	0xbce04dd4	-0.027380861
77	0x3edec3f2	0.4350887
78	0x3e603727	0.21896039
79	0xbd65f6ef	-0.056143697
80	0x3e7e7a49	0.24851336
81	0xbecaa2e6	-0.39577407
82	0xbe125295	-0.14289315
83	0xbf025032	-0.5090362
84	0x3d124b95	0.035716612
85	0x3dc9227b	0.0982103
86	0x3da3ee4c	0.08004436
87	0xbd40e05d	-0.04708897
88	0xbe34e369	-0.17664875
89	0xbdd7cd5b	-0.10537215
90	0x3e01ebf9	0.12687673
91	0xbe775341	-0.24152853
92	0xbc538fd4	-0.012912709
93	0xbd4bb9f2	-0.04973788
94	0x3d5c66ca	0.053808965
95	0xbdd332fa	-0.103124574
96	0xbd8f120c	-0.06985864
97	0xbd209e30	-0.03921336
98	0x3da53551	0.0806681
99	0xbd775064	-0.0603794
100	0x3d82df59	0.063902564
101	0xbe2dad40	-0.16960621
102	0xbd64241c	-0.0556985
103	0xbd7d018a	-0.061769046
104	0xbcbed662	-0.023295585
105	0x3dfe73b2	0.12424411
106	0x3e44f213	0.19232969
107	0xbce3c237	-0.02780257
108	0xbd9a445b	-0.07532569
109	0xbe052f61	-0.13006355
110	0x3c821a08	0.015881553
111	0xbd7ad1a5	-0.06123509
112	0x3e0c7887	0.13717853
113	0x3d9c1fa0	0.076232195
114	0xbc16cc78	-0.009204023
115	0x3d68d423	0.056842934
116	0x3cad5916	0.021160644
117	0xbd872482	-0.0659876
118	0x3e21fa42	0.15818122
119	0xbcc9d76a	-0.02463885
120	0xbe682668	-0.22670901
121	0xbd8febb3	-0.07027378
122	0xbe5d298e	-0.21597883
123	0xbd7426df	-0.059607383
124	0xbcdcdace	-0.026959803
125	0x3e1b777f	0.15182303
126	0xbe44a33b	-0.19202892
127	0xbe057f17	-0.13036762
128	0xbdec0afe	-0.11525534
129	0x3db3d797	0.08781355
130	0xbc79b312	-0.015240448
131	0x3d348370	0.04407066
132	0xbd7e74ad	-0.06212299
133	0x3bf7e919	0.007565629
134	0x3cfb993a	0.030712713
135	0xbc31321c	-0.01081517
136	0x3cb28f7f	0.02179694
137	0x3d979e20	0.07403207
138	0x3e081fff	0.13293456
139	0x3e055b5c	0.13023132
140	0xbd9598ee	-0.0730456
141	0xbd119f6c	-0.035552427
142	0x3da796bf	0.081830494
143	0x3d9fe364	0.07807043
144	0x3ea2ea2f	0.31819293
145	0xbd827519	-0.06369991
146	0x3e298159	0.16553248
147	0x3e102b8d	0.14079113
148	0x3f000f7a	0.50023615
149	0x3e4f93e9	0.20271267
150	0x3d8246fa	0.06361194
151	0x3d88fc65	0.066887654
152	0xbdc1d9a3	-0.09465339
153	0x3cbc8e9f	0.023017226
154	0x3b85f6cf	0.00408826
155	0x3e0b23d9	0.13587894
156	0xbd5ffeed	-0.054686476
157	0xbe2d8e0e	-0.16948721
158	0x3b6a69ea	0.0035768696
159	0xbdecaf3a	-0.11556859
160	0xbdfac0fd	-0.12243841
161	0xbdd1f2b2	-0.102513686
162	0xbe322bfc	-0.17399591
163	0xbde0f5f6	-0.10984413
164	0xbdc0deb5	-0.09417478
165	0xbcd6289a	-0.026142407
166	0x3e4b39e2	0.198463
167	0xbd68645e	-0.056736343
168	0x3ebc74ed	0.36807957
169	0xbdf4b47d	-0.11948488
170	0x3e271c43	0.16319375
171	0xbe9cb006	-0.30603045
172	0xbd10843a	-0.03528235
173	0x3d4157ae	0.04720276
174	0x3d9e2d13	0.07723441
175	0xbe96bcd1	-0.2944093
176	0xbc70c8e0	-0.01469633
177	0xbd92ae9a	-0.07162209
178	0xbda205d7	-0.0791127
179	0x3d5933be	0.05302786
180	0xbdc0f119	-0.09420986
181	0x3e00add7	0.12566315
182	0x3d95aa99	0.073079295
183	0xbe859b35	-0.26094976
184	0xb9ddbba8	-0.0004229222
185	0xbdcbda95	-0.099538006
186	0xbdd94c8e	-0.10610305
187	0x3e384317	0.17994343
188	0xbdc1c1c1	-0.09460784
189	0x3db3f7cf	0.087875
190	0xbba22a5c	-0.0049488973
191	0x3d218f2c	0.03944318
192	0x3dd5a039	0.10430951
193	0xbc326b1e	-0.010889797
194	0xbd9f484c	-0.077774614
195	0x3e0cb92a	0.1374251
196	0x3dedb53a	0.11606832
197	0x3b6d1839	0.0036177768
198	0x3cbd9332	0.023141477
199	0xbd4c9c17	-0.049953546
200	0x3de601c8	0.112308085
201	0x3e15534a	0.14582554
202	0x3d72b85b	0.059257846
203	0xbd9a5f41	-0.075376995
204	0x3d388a64	0.045053855
205	0xbe93f39a	-0.2889679
206	0x3d6136f8	0.054984063
207	0x3da3c1a3	0.07995918
208	0xbcc035c5	-0.02346314
209	0x3d966370	0.07343185
210	0x3d8ee792	0.06977762
211	0xbd1af51e	-0.03783142
212	0x3dd164c6	0.10224299
213	0x3d769dc3	0.060209047
214	0x3e19f48d	0.15034695
215	0x3c85c091	0.016327174
216	0xbd07124f	-0.032976445
217	0x3d90546c	0.07047352
218	0x3d8aa00a	0.06768806
219	0xbe1e80f0	-0.15478873
220	0xbdd3c944	-0.10341123
221	0x3e5387b8	0.20657241
222	0x3d2d38ff	0.042290684
223	0xbe93145e	-0.28726476
224	0x3d8f230d	0.06989107
225	0x3e3e94da	0.1861147
226	0x3dcb963c	0.09940764
227	0xbc8024cf	-0.015642552
228	0xbd481600	-0.048849106
229	0xbe16eb18	-0.14738119
230	0xbe0197d0	-0.12655568
231	0x3e4d1598	0.20027769
232	0xbdf99ac6	-0.12187724
233	0x3d8df06d	0.06930623
234	0x3eee0813	0.46490535
235	0xbca899f1	-0.020581217
236	0x3d8985db	0.06714984
237	0xbc33f4d2	-0.010983663
238	0xbdd88060	-0.105713606
239	0x3dc25690	0.09489167
240	0xbddfead3	-0.10933461
241	0x3e36cfec	0.17852753
242	0xbe330e41	-0.17485906
243	0xbe8090bd	-0.25110427
244	0x3e32f4ef	0.17476247
245	0xbe0376f5	-0.12838347
246	0xbc9a645c	-0.018846683
247	0xbda5aab3	-0.08089199
248	0xbdde9def	-0.10869967
249	0xba554f1f	-0.0008137095
250	0xba32fb88	-0.0006827642
251	0xbe43909c	-0.19098133
252	0xbe0e9cc7	-0.13926993
253	0x3e05ce57	0.13066994
254	0xbe3d7452	-0.18501404
255	0xbcc930b5	-0.024559358

W_readout f4 [1, 8]
0	0xbf8f674a	-1.1203396
1	0x3ee65b74	0.44991648
2	0x3dada8b2	0.08479442
3	0x3d63bf8e	0.055602603
4	0xbe05ac78	-0.13054073
5	0x3f7a5fac	0.97802234
6	0xbf62a6ff	-0.88536066
7	0x3f13e73f	0.5777473

bias f4 [76]
0	0x3dfe0ada	0.124044135
1	0x3d1881fc	0.037233338
2	0x3d784012	0.060607977
3	0x3dde4986	0.10853867
4	0x3e380a89	0.17972769
5	0x3e07c9d8	0.13260591
6	0x3c5ce412	0.013482111
7	0x3d286fb7	0.041122165
8	0x3dcccccd	0.1
9	0x3dcccccd	0.1
10	0x3dcccccd	0.1
11	0x3dcccccd	0.1
12	0x3dcccccd	0.1
13	0x3dcccccd	0.1
14	0x3dcccccd	0.1
15	0x3dcccccd	0.1
16	0x3dcccccd	0.1
17	0x3dcccccd	0.1
18	0x3dcccccd	0.1
19	0x3dcccccd	0.1
20	0x3dcccccd	0.1
21	0x3dcccccd	0.1
22	0x3dcccccd	0.1
23	0x3dcccccd	0.1
24	0x3dcccccd	0.1
25	0x3dcccccd	0.1
26	0x3dcccccd	0.1
27	0x3dcccccd	0.1
28	0x3dcccccd	0.1
29	0x3dcccccd	0.1
30	0x3dcccccd	0.1
31	0x3dcccccd	0.1
32	0x3dcccccd	0.1
33	0x3dcccccd	0.1
34	0x3dcccccd	0.1
35	0x3dcccccd	0.1
36	0x3dcccccd	0.1
37	0x3dcccccd	0.1
38	0x3dcccccd	0.1
39	0x3dcccccd	0.1
40	0x3dcccccd	0.1
41	0x3dcccccd	0.1
42	0x3dcccccd	0.1
43	0x3dcccccd	0.1
44	0x3dcccccd	0.1
45	0x3dcccccd	0.1
46	0x3dcccccd	0.1
47	0x3dcccccd	0.1
48	0x3dcccccd	0.1
49	0x3dcccccd	0.1
50	0x3dcccccd	0.1
51	0x3dcccccd	0.1
52	0x3dcccccd	0.1
53	0x3dcccccd	0.1
54	0x3dcccccd	0.1
55	0x3dcccccd	0.1
56	0x3dcccccd	0.1
57	0x3dcccccd	0.1
58	0x3dcccccd	0.1
59	0x3dcccccd	0.1
60	0x3dcccccd	0.1
61	0x3dcccccd	0.1
62	0x3dcccccd	0.1
63	0x3dcccccd	0.1
64	0x3dcccccd	0.1
65	0x3dcccccd	0.1
66	0x3dcccccd	0.1
67	0x3dcccccd	0.1
68	0xbda5d6c7	-0.08097606
69	0xbc797916	-0.015226623
70	0xbeb5820c	-0.3545078
71	0xbedc4a4b	-0.4302543
72	0x3dcccccd	0.1
73	0xbd8167e5	-0.063186444
74	0xbc02ac07	-0.007975585
75	0xbd5de831	-0.054176513

W_ext f4 [8, 2]
0	0x3e952e11	0.29136708
1	0xbf5bbd59	-0.85835797
2	0xbf074fe5	-0.52856284
3	0x3e83d379	0.25747278
4	0x3f12a955	0.5728963
5	0xc000d15d	-2.0127785
6	0x3f7d09c1	0.9884301
7	0x3f82951b	1.0201753
8	0xbfd0385a	-1.6267197
9	0xbe3d5e74	-0.18493062
10	0xbf1b5689	-0.6067892
11	0x3ea6cac8	0.32576585
12	0x3e93db46	0.2887823
13	0xbe035df5	-0.1282881
14	0xbebfb151	-0.3743997
15	0x3ee859e2	0.45381075
