DrosophilaLabRot/data_store/mbon_sensitivity/first_order_nets/trained_nets/08_mbons/first_order_2000ep_1hop_N01.pt (torch_old, 24247 bytes, 4 tensors)

W_recur f4 [76, 76]
000000 11 9c dd 3e d9 e2 05 be 72 42 83 bd de ba e4 bb
       0.43283132 -0.13074817 -0.06409158 -0.006980284
000010 cd c4 77 be 65 5d fa 3d 6d 8c 71 be 38 9f 11 bb
       -0.24196167 0.12224845 -0.23588724 -0.0022220146
000020 f6 75 27 3e 4d 85 a6 3d 65 c5 13 bd fb 4d 32 be
       0.16353592 0.08130894 -0.036076922 -0.1741256
000030 bf 93 20 3d 34 a7 28 be d3 d2 c9 bd d2 5b 96 3c
       0.0392034 -0.16470033 -0.09854665 0.01835433
000040 b9 99 8d bd 54 14 28 3d fd 49 31 be 3d 3d 6f bd
       -0.06914086 0.04103501 -0.1731338 -0.05840801
000050 63 41 7b 3d e3 89 01 bc 70 fd 2b 3d 41 21 02 bd
       0.061341655 -0.00790641 0.041989744 -0.031769995
000060 6e 9a a0 bd 9c cf b7 3c 71 8b f1 3d 75 81 0c 3e
       -0.07841955 0.022437863 0.117941745 0.13721259
000070 12 4a 88 3c 13 2e 76 bd 53 a9 05 be 6d ae a7 be
       0.016636882 -0.060102534 -0.13052873 -0.32750264
000080 6e 12 31 3d a8 22 e0 bd 16 91 00 3e b3 e9 68 3d
       0.043230467 -0.1094411 0.12555346 0.056863498
000090 5a a6 85 bc 52 2b 1b 3d e1 78 db 3d ff 94 22 be
       -0.016314674 0.03788311 0.10716415 -0.1587715
0000a0 3d 37 1d 3e f4 f7 b6 bd 7b 79 28 3e b9 24 9d 3d
       0.15353103 -0.08934012 0.16452591 0.0767302
0000b0 e5 92 b1 bd bc ca 39 3d cf 86 8a bd 81 3b 47 bd
       -0.08670596 0.04535936 -0.06763994 -0.04864073
0000c0 a4 80 91 3d 16 29 04 3e 9f 5b a3 bd cd 77 22 be
       0.071046144 0.12906298 -0.0797646 -0.15866013
0000d0 21 d5 0a 3d f2 66 15 bd 97 d2 44 3d da de ed bb
       0.03389466 -0.03647513 0.048052397 -0.007259232
0000e0 79 62 66 3c 54 8b 23 be 46 22 d9 bd c3 6d 1e bc
       0.014061564 -0.15971118 -0.1060224 -0.009669724
0000f0 25 57 ab bd f0 fa 21 bd c0 5d 55 3d 46 d5 8c 3d
       -0.08366231 -0.039545953 0.05209136 0.06876616
000100 7a 1a f7 bd 19 90 e6 3c bf b7 91 bd 19 a8 13 be
       -0.12065597 0.028144883 -0.07115125 -0.14419593
000110 ce 1e 35 3c 06 de 1f 3e 71 a9 15 3e 1d 36 4d 3c
       0.011054708 0.15612039 0.14615418 0.012525109
000120 d8 e5 07 3e ad 4c b9 be b8 20 48 bf 62 a5 4f bf
       0.13271272 -0.3619131 -0.78174925 -0.8111173
000130 ed ab 96 3d 71 0f 70 3e 2d 2b 82 be a9 15 af 3e
       0.07357011 0.2344339 -0.25423566 0.34196213
000140 5a a3 ec 3d 32 f4 db bd 69 b5 aa bd f9 86 b4 bd
       0.11554594 -0.10739936 -0.083353825 -0.088148065
000150 31 07 8a 3c 09 40 9d bc 44 e7 84 3d 58 0d ed bd
       0.016849132 -0.019195573 0.06489423 -0.11574811
000160 d5 eb 96 bd 9a 55 37 3e 66 48 df 3d f2 cd 03 be
       -0.073692 0.17903748 0.10902481 -0.1287153
000170 f3 cc 8a bd a7 4e 52 3d a0 06 01 3c 24 0e 07 3b
       -0.06777372 0.05134454 0.007875115 0.0020607794
000180 61 cc 99 3d 21 c2 8d 3c 58 14 f9 3d 19 ad ab 3c
       0.07509685 0.017304482 0.121620834 0.020956563
000190 d4 a5 a3 bd 3b c1 e7 bc 70 41 2c 3d 14 27 01 3c
       -0.079906136 -0.028290382 0.042054594 0.007882852
0001a0 5f f9 8e bd a0 29 34 bd 5b 6b d0 3d dc bd 01 3d
       -0.069811575 -0.04398501 0.101767264 0.031675205
0001b0 ea b4 0b 3e 2b 17 e2 bc b3 98 bd bd 58 7e eb 3d
       0.13643232 -0.027598938 -0.09257641 0.114987075
0001c0 0c 03 05 3d ec 7a a4 3c 4d b2 e4 bc bf 99 3b 3e
       0.03247361 0.020078145 -0.027917052 0.18320368
0001d0 6c e1 90 bc ec d1 b3 bd 0a 47 cb bb 13 63 1b bd
       -0.017685615 -0.08780274 -0.006203537 -0.03793628
0001e0 b2 4a bc bd 37 ac 6b bc f2 d3 8a bc eb 87 b3 3c
       -0.091939345 -0.014384321 -0.016946767 0.021915397
0001f0 e3 3f c3 3d 03 ab 3c 3d 42 5e 48 3e a1 33 2e 3e
       0.0953367 0.046061527 0.19567207 0.17011882
000200 61 2f 76 3d 8d c0 19 3e 48 bf 14 3d 51 7b 1f bd
       0.060103778 0.15014859 0.036315233 -0.038935963
000210 6f 4c 8e bd 79 fe 33 3d c0 89 c3 3d dc 5f 46 3d
       -0.06948172 0.043943856 0.09547758 0.048431262
000220 76 66 db bd 45 c6 96 bd 77 59 66 bc 71 ea 55 be
       -0.10712902 -0.07362036 -0.014059416 -0.20890214
000230 02 05 30 3e 4e 97 4c bd bf a9 95 be f4 49 b5 bd
       0.1718941 -0.049948983 -0.29231068 -0.08851996
000240 9d 3f da bd b3 e1 d2 bd 7b 0b 98 3d af 00 ca 3e
       -0.106566645 -0.10296955 0.07424065 0.39453647
000250 cb 69 2f be 8a c0 be bc 89 d9 b3 3e 8e 3c 73 be
       -0.171302 -0.02328517 0.35126904 -0.23753569
000260 c2 c8 c0 3e e2 04 e4 be a9 82 ee be 72 00 12 be
       0.37653166 -0.44534975 -0.4658406 -0.14257982
000270 60 00 61 be 7a 91 04 bd 59 2d 1e 3c 51 0c 17 3f
       -0.219728 -0.0323653 0.009654366 0.5900317
000280 e2 75 f0 bc f4 2d 50 bd d7 33 81 3e 93 df a9 3b
       -0.029353086 -0.050825074 0.25234863 0.005184123
000290 c2 fa 7b bd 35 52 43 3e 8d fb a2 bc f9 de 8e 3d
       -0.06151844 0.19074328 -0.01989534 0.069761224
0002a0 b2 29 ce 3c e8 af 1a be f7 27 38 be 77 66 e8 bd
       0.025166366 -0.15106165 -0.17983995 -0.113476686
0002b0 21 72 4e be 1f 66 a0 3d 05 ac 27 3d e6 d1 9e bc
       -0.20160724 0.07831978 0.040935535 -0.019387197
0002c0 a7 d3 84 bc dc 40 47 be 4a 36 06 bd 93 a9 3e 3d
       -0.016214205 -0.19458336 -0.032766618 0.046548437
0002d0 8b 83 ec bd c3 96 34 be ac 70 2d 3d 20 12 40 3d
       -0.11548527 -0.17635636 0.04234378 0.046892285
0002e0 e3 9c ed bc 5a 0f b6 bc f8 87 90 bd ee 3d 04 be
       -0.029005473 -0.022224117 -0.07057184 -0.1291425
0002f0 0e 1d b6 3d ce 74 0a 3e 1d 9f f6 bc 88 a8 72 be
       0.088922605 0.1352112 -0.030105168 -0.23697102
000300 4a 39 3b bc 12 88 f8 3d 7d bd eb bd 93 66 ab 3a
       -0.011427233 0.12135328 -0.115107514 0.0013076834
000310 6f ba c7 bd 01 96 9e bd 89 87 f6 3d ba 97 a1 bc
       -0.09752356 -0.07743455 0.1203757 -0.01972567
000320 4c 0c 40 bb 52 ab c5 bc 1c 98 09 bd 8c fa 3e 3c
       -0.0029304205 -0.024129543 -0.03359233 0.011656415
000330 0a 28 26 3d bb bc b0 bd a2 b7 91 3d 3c 49 07 bd
       0.040565528 -0.086297475 0.07115103 -0.033028826
000340 bc e2 de 3c c8 e1 0c bd 8a ec 72 bc a5 a6 b3 3c
       0.027207725 -0.03439501 -0.014826903 0.021930048
000350 d8 f4 51 bc 6e 70 c8 3d 39 38 c2 bd f0 0a d0 3d
       -0.012814723 0.09787069 -0.0948338 0.10158336
000360 04 27 4e bd 69 5e 96 3d 3d ec 08 bd 05 90 88 be
       -0.050330177 0.07342226 -0.03342842 -0.26672378
000370 e7 d6 f6 3d eb f1 b3 be 57 8d b0 be 26 72 e1 3e
       0.12052708 -0.35145506 -0.34482834 0.440324
000380 5f 01 d7 bd f7 7e 58 bc 83 e7 0e 3e 84 86 93 be
       -0.104983084 -0.0132138645 0.13955502 -0.28813565
000390 a5 b0 fd 3c d1 ca b5 be b0 85 97 be ed 2f 11 3e
       0.03096802 -0.355063 -0.29594183 0.14178438
0003a0 01 a5 74 3e b5 55 fb 3e fe 53 cb bd 02 b4 19 be
       0.23891069 0.49088827 -0.099281296 -0.15010074
0003b0 9e e7 74 3c df 37 92 3e 70 c2 5f 3d 19 18 80 3d
       0.0149478 0.2855825 0.05462879 0.06254596
0003c0 8d 19 b4 bd 7f 85 37 39 9f 9a b7 3d 33 05 8e 3c
       -0.08793936 0.00017501971 0.089650385 0.017336464
0003d0 b1 39 9c 3d b1 1e 4c bd 76 9d 02 be 76 f2 1f 3e
       0.07628191 -0.049833957 -0.12755379 0.15619835
0003e0 48 0f 6e be dd d8 cf bd 32 5b 01 3e aa e5 43 3e
       -0.23248017 -0.10148785 0.12632445 0.19130579
0003f0 ca c3 b2 bd f2 76 4c 3d 59 5f 7e bc fa 25 51 bd
       -0.0872875 0.049918123 -0.015525662 -0.051061608

W_readout f4 [1, 8]
000000 b0 d3 24 bf fb 25 e5 3e 4d 47 18 3f 9e f8 03 bf
       -0.6438551 0.4475554 0.59483796 -0.51551235
000010 ad 29 9d 3f c4 e5 1f bf e2 21 81 be 76 97 99 be
       1.2278343 -0.6245997 -0.25221163 -0.29998368

bias f4 [76]
000000 04 d6 83 3d 22 04 16 3e 42 4e 04 3d 57 8f 1f 3d
       0.064373046 0.14650014 0.032301195 0.03895506
000010 0b c0 e5 3d 51 89 04 3e 83 f4 c2 3d 3a 4c 2e 3e
       0.1121827 0.12943007 0.09519293 0.17021266
000020 cd cc cc 3d cd cc cc 3d cd cc cc 3d cd cc cc 3d
       0.1 0.1 0.1 0.1
000030 cd cc cc 3d cd cc cc 3d cd cc cc 3d cd cc cc 3d
       0.1 0.1 0.1 0.1
000040 cd cc cc 3d cd cc cc 3d cd cc cc 3d cd cc cc 3d
       0.1 0.1 0.1 0.1
000050 cd cc cc 3d cd cc cc 3d cd cc cc 3d cd cc cc 3d
       0.1 0.1 0.1 0.1
000060 cd cc cc 3d cd cc cc 3d cd cc cc 3d cd cc cc 3d
       0.1 0.1 0.1 0.1
000070 cd cc cc 3d cd cc cc 3d cd cc cc 3d cd cc cc 3d
       0.1 0.1 0.1 0.1
000080 cd cc cc 3d cd cc cc 3d cd cc cc 3d cd cc cc 3d
       0.1 0.1 0.1 0.1
000090 cd cc cc 3d cd cc cc 3d cd cc cc 3d cd cc cc 3d
       0.1 0.1 0.1 0.1
0000a0 cd cc cc 3d cd cc cc 3d cd cc cc 3d cd cc cc 3d
       0.1 0.1 0.1 0.1
0000b0 cd cc cc 3d cd cc cc 3d cd cc cc 3d cd cc cc 3d
       0.1 0.1 0.1 0.1
0000c0 cd cc cc 3d cd cc cc 3d cd cc cc 3d cd cc cc 3d
       0.1 0.1 0.1 0.1
0000d0 cd cc cc 3d cd cc cc 3d cd cc cc 3d cd cc cc 3d
       0.1 0.1 0.1 0.1
0000e0 cd cc cc 3d cd cc cc 3d cd cc cc 3d cd cc cc 3d
       0.1 0.1 0.1 0.1
0000f0 cd cc cc 3d cd cc cc 3d cd cc cc 3d cd cc cc 3d
       0.1 0.1 0.1 0.1
000100 cd cc cc 3d cd cc cc 3d cd cc cc 3d cd cc cc 3d
       0.1 0.1 0.1 0.1
000110 55 c4 5b bd 31 61 dd 3d a6 a9 0e bf 52 09 83 3d
       -0.053654034 0.108095534 -0.5572761 0.06398262
000120 37 76 36 3d d3 9a c5 bc c3 0b a9 bc d3 7f 42 3e
       0.044546332 -0.024121678 -0.020635491 0.18994074

W_ext f4 [8, 2]
000000 6a df 01 c0 fc 62 f0 be d3 1d ba 3e dc ba 37 3c
       -2.029261 -0.4695052 0.3635088 0.011213984
000010 2d 41 20 bf 05 22 a4 3f 1b a4 6d 3e 44 2e 39 3e
       -0.6259945 1.2822882 0.23207133 0.18084055
000020 6e 92 0b bf 26 fc b1 3e a5 1f 9a 3e e9 0b 56 bf
       -0.5452031 0.34762686 0.30102268 -0.83611923
000030 a1 7b 36 bf 8c d8 f6 3d 53 80 73 bf ea 64 52 3d
       -0.7128239 0.12053022 -0.9511768 0.05136577
