DrosophilaLabRot/data_store/mbon_sensitivity/second_order_nets/trained_nets/06_mbons/second_order_5000ep_1hop_N08.pt (torch_old, 21839 bytes, 4 tensors)

W_recur f4 [72, 72]
00000000: 4af7 1b3d 0084 9c3d d517 c5be aacc 93bd
00000010: c332 733e b9c1 e43e 7cc2 443e 9373 5abd
00000020: 312d 18be 3166 323e 3b41 b9bd 8960 a03d
00000030: e60e 51be 1d98 b0bd 1495 413d 3ff3 45bd
00000040: 1871 47bd f588 823d f447 7e3d c6e0 b9bd
00000050: 41c3 d43c ac21 0bbe 498f b039 1bd0 6d3d
00000060: a124 b83a 121e afbd bf3c 403d 6b02 19be
00000070: 73e1 a5bd aad2 7fbd dbc9 96bd 2e50 e1bd
00000080: 7f7c 343d 780b 913d d70c 45bd d3f1 063d
00000090: e616 153d 507c 1dbe d842 853d 95a8 cdbd
000000a0: f849 bf3d e3db 90bc 0324 d6bd 8d5d 2c3d
000000b0: 5898 633d 5f12 75bd adba 243e 61ad 773e
000000c0: b40c 8d3d edb9 99bd 71a4 14bd 2871 313d
000000d0: 7327 86be 958a cb3d 5e78 0fbd 953d 0dbd
000000e0: d0a1 023e b7ec 06be bd87 4cbe 12fd 98bd
000000f0: 39df b4bd 3165 04bd c417 1c3e 8b9b 28be
00000100: 98e0 973c 89ed 89be f190 2fbf ae9d 46bd
00000110: b871 743b 690d b9bc d867 0bbe 0960 ce3e
00000120: 0c3e e03e 09f3 bcbe fa46 f93d 9f60 453d
00000130: 94c0 563f 63a6 ef3c ac24 083c a075 b4bd
00000140: b3e5 06be adcd 6cbd d6a1 12be d125 293e
00000150: 0346 91bd d578 453c 8423 66bd f36f 113e
00000160: 0ab7 1f3e b212 dcbd 512d d3bc 6dfd 40bd
00000170: e97b 64bd 317b 94bc 7bf1 4b3e bf4b bbbc
00000180: 0799 9f3d 988b 46be 3720 fabd af85 023e
00000190: 1784 e0bd 20cf ebbc de3d 463d fcf9 4e3e
000001a0: 9051 9f3d 7560 91bc 6253 4ebe fdfe 483e
000001b0: b0f6 9ebd f359 24be db00 8b3d e2d4 f43d
000001c0: 997a aabc 0327 0f3d a4b0 a83d f9f9 0ebd
000001d0: 1021 103e 54ba 37bd 06bd 3ebd d873 adb9
000001e0: 7782 b63c ae0b 82bd 146c f4bd ed81 303e
000001f0: 7783 ffbd d500 0fbd 2ac7 b83d 528a cd3c
00000200: 2d4d 41bd 256c dbbd 2c5d dabd 663b 46bd
00000210: 4a79 243e c3d5 39bd 4fe8 643d 2da0 5dbd
00000220: bd1b 793d e587 47be 16db 0d3f 1e12 8bbe
00000230: add6 e9be 0095 e9bc a0fa c5bd 76d9 6a3e
00000240: e089 f8ba 1a11 a33e dac2 edbe 8312 bb3e
00000250: 9edc d73d b3e8 9a3e 54a2 7fbc 9233 15be
00000260: fcc9 63bd 3248 f1bc 3d86 1cbe 87a9 35be
00000270: e60b b7bd 6d23 b9bc 40ce bbbd 69df 24be
00000280: 569c eabd 5a41 42be 15b0 bdbd be35 85bd
00000290: 2b3a 373d bad6 52bb e6fd ef3d 54a7 543e
000002a0: 69ec bbbd 465f 18be 8aa5 723e e821 973d
000002b0: e717 e93d e9ea 48be ded1 50bd f2d7 483d
000002c0: eb72 a63d f427 3b3d 449d cb3c 127c 19bd
000002d0: 0594 42be efd2 80be 3133 313c 72c4 debd
000002e0: f8f0 0fbd 100f e93d 8cf3 4abd 6013 c039
000002f0: 0f7c 81bd 9474 39bd 1260 0fbd 2176 07be
00000300: 0404 d13d fdc6 523d 5511 42bd 7963 8b3d
00000310: 73b0 433b d07f d4bd 1be2 853d edab 72be
00000320: aa9f 0a3d 9614 18bd ce79 cf3b 8414 13be
00000330: a82d 153e 0ea8 f6bc 88bd b1bd cd58 0fbe
00000340: 4052 a2bd 740d c23d 5a92 7e3e 5019 6dbe
00000350: 8afd 2fbf 29ab 6abd e85d c3bd 3978 1bbe
00000360: 4291 863e 6444 513f 4b15 ee3c d11b 563e
00000370: e035 abbe 6eb7 073f a8fd 693c c7fd 933b
00000380: dd94 b03c f94c d23c cf73 5fbe b3c5 96be
00000390: d597 c23d 94bd adbc 7eff 2dbe edc3 20bd
000003a0: 1ecc 80bd cd9d 203e fe85 e5bd d0f7 033d
000003b0: a06c 7e3d a4b5 073e ce93 ddbc 919f 2ebe
000003c0: 7dd7 f8bb 0935 fc3d ecde 43be 6a0f 94bc
000003d0: 2b16 31be 8eb4 973d ddeb c7bc 06b0 ddbc
000003e0: ec4c 6bbd 5fe7 f6bc 6987 5c3e ad64 823e
000003f0: 2b41 bc3c 9d64 0c3e 2450 8a3c d08f af3d
0.03807763 0.076423645 -0.38494745 -0.07216771 0.23749833 0.4467905 0.19214815 -0.053332876
-0.14860989 0.17421795 -0.09045645 0.078309126 -0.2041584 -0.08622763 0.047261313 -0.04832768
-0.04869184 0.06373779 0.06208034 -0.09076075 0.02597201 -0.13587064 0.00033676092 0.058059793
0.0014049002 -0.08550657 0.046932932 -0.14942329 -0.08099642 -0.062456764 -0.073627196 -0.11001621
0.04406404 0.070822656 -0.04810795 0.032945465 0.03639879 -0.15379453 0.0650689 -0.1004192
0.0934028 -0.017682975 -0.104560874 0.042081404 0.05556521 -0.059831973 0.16086836 0.24187233
0.068871886 -0.07506166 -0.036289636 0.043320805 -0.26201972 0.09938542 -0.0350269 -0.034482557
0.12757039 -0.13176237 -0.19973655 -0.07470144 -0.08831639 -0.032323066 0.15243441 -0.16465585
0.018539712 -0.26939037 -0.6858054 -0.04849022 0.0037299227 -0.022589402 -0.13613832 0.40307644
0.43797338 -0.3690417 0.12171741 0.04818785 0.838876 0.029254144 0.0083095245 -0.08811498
-0.13173561 -0.057813335 -0.14319548 0.16518332 -0.07093432 0.012052734 -0.056186214 0.14202861
0.15597168 -0.10745753 -0.025778444 -0.047116686 -0.055782232 -0.018125148 0.19916336 -0.022863267
0.077928595 -0.19389188 -0.12213176 0.12746309 -0.10962694 -0.028785288 0.048398845 0.20212549
0.07779229 -0.01774619 -0.20148996 0.1962852 -0.07761896 -0.16049938 0.067872725 0.11954667
-0.020810412 0.034949314 0.082368165 -0.03490636 0.14075112 -0.04485543 -0.046566986 -0.00033083442
0.022279007 -0.06349884 -0.11934677 0.17237063 -0.12476247 -0.034912903 0.090223625 0.02509037
-0.04719274 -0.10713986 -0.106623024 -0.04839649 0.16061893 -0.045369875 0.05588561 -0.054107834
0.06081747 -0.19485433 0.55412424 -0.2716226 -0.45671597 -0.028513432 -0.096669436 0.22934517
-0.0018961988 0.31848985 -0.46437722 0.3653756 0.10540126 0.3025566 -0.015602667 -0.14570454
-0.05561255 -0.02945337 -0.15285583 -0.17740451 -0.08937816 -0.0225999 -0.091701984 -0.16100849
-0.114556 -0.18970242 -0.092621006 -0.06504391 0.044733208 -0.0032171444 0.11718349 0.20766956
-0.09175951 -0.14880094 0.2369596 0.07379514 0.11381512 -0.19620861 -0.050981395 0.049034066
0.081273876 0.0456924 0.024855264 -0.03747184 -0.19001777 -0.2516093 0.010815428 -0.10877313
-0.035141915 0.11379826 -0.04954867 0.0003663553 -0.063224904 -0.045277193 -0.03500373 -0.13228656
0.10205844 0.0514593 -0.04737981 0.06806082 0.002985981 -0.10375941 0.06537267 -0.23698397
0.033843674 -0.037129007 0.006331659 -0.14363295 0.14568198 -0.030109432 -0.08678728 -0.13998719
-0.07925844 0.09475222 0.24860516 -0.23154187 -0.68746245 -0.057292137 -0.095393956 -0.1518258
0.26282698 0.8174498 0.029062888 0.20909049 -0.3343954 0.53014266 0.014281668 0.0045163366
0.021555359 0.025671469 -0.21821521 -0.29447708 0.09501616 -0.021208562 -0.16991994 -0.03924935
-0.06288932 0.15685196 -0.112071976 0.032218754 0.06211531 0.13252884 -0.027048018 -0.17053057
-0.0075940476 0.12314803 -0.19128007 -0.018073756 -0.17293613 0.07407485 -0.02440446 -0.027061474
-0.057446405 -0.030139623 0.2153603 0.25467435 0.022980293 0.13710256 0.016883917 0.08572352

W_readout f4 [1, 6]
00000000: 8f70 813f f6c6 8f3f a4b7 353f 598b 0dbf
00000010: 55e7 0cc0 ac87 823e
1.0112475 1.1232593 0.7098334 -0.5529075 -2.2016194 0.25494134

bias f4 [72]
00000000: fc2a c3bc 19a5 a33d 45ba d23d 3ff0 863e
00000010: b198 113c e25e 78be cdcc cc3d cdcc cc3d
00000020: cdcc cc3d cdcc cc3d cdcc cc3d cdcc cc3d
00000030: cdcc cc3d cdcc cc3d cdcc cc3d cdcc cc3d
00000040: cdcc cc3d cdcc cc3d cdcc cc3d cdcc cc3d
00000050: cdcc cc3d cdcc cc3d cdcc cc3d cdcc cc3d
00000060: cdcc cc3d cdcc cc3d cdcc cc3d cdcc cc3d
00000070: cdcc cc3d cdcc cc3d cdcc cc3d cdcc cc3d
00000080: cdcc cc3d cdcc cc3d cdcc cc3d cdcc cc3d
00000090: cdcc cc3d cdcc cc3d cdcc cc3d cdcc cc3d
000000a0: cdcc cc3d cdcc cc3d cdcc cc3d cdcc cc3d
000000b0: cdcc cc3d cdcc cc3d cdcc cc3d cdcc cc3d
000000c0: cdcc cc3d cdcc cc3d cdcc cc3d cdcc cc3d
000000d0: cdcc cc3d cdcc cc3d cdcc cc3d cdcc cc3d
000000e0: cdcc cc3d cdcc cc3d cdcc cc3d cdcc cc3d
000000f0: cdcc cc3d cdcc cc3d cdcc cc3d cdcc cc3d
00000100: cdcc cc3d cdcc cc3d 5398 92bd 1099 11bd
00000110: da0f ef3d 8147 ad3d 0207 36bc 3a98 8abd
-0.023824207 0.07990474 0.10289434 0.26355168 0.008886502 -0.24254945 0.1 0.1
0.1 0.1 0.1 0.1 0.1 0.1 0.1 0.1
0.1 0.1 0.1 0.1 0.1 0.1 0.1 0.1
0.1 0.1 0.1 0.1 0.1 0.1 0.1 0.1
0.1 0.1 0.1 0.1 0.1 0.1 0.1 0.1
0.1 0.1 0.1 0.1 0.1 0.1 0.1 0.1
0.1 0.1 0.1 0.1 0.1 0.1 0.1 0.1
0.1 0.1 0.1 0.1 0.1 0.1 0.1 0.1
0.1 0.1 -0.0715796 -0.035546362 0.11672945 0.08460904 -0.011110069 -0.06767316

W_ext f4 [6, 2]
00000000: b20a 973e 3eb8 88be 8f1a 0bbe 4dd1 c63e
00000010: e81e 37bf 4445 a1bf 1fa8 bebf 1709 a4bf
00000020: 8aac c0bf b330 dbbe f11e bbbf 8ff5 f03e
0.29500347 -0.26703066 -0.1358435 0.3883156 -0.71531534 -1.2599263 -1.4895056 -1.2815274
-1.5052655 -0.42810592 -1.4618818 0.47062346
