network_compare_backup/2nd_order_1hop_min_mbon/trained_nets/min_2nd_order_5000ep_1hop_N14.pt (torch_old, 21839 bytes, 4 tensors)

W_recur f4 [72, 72]
00000000: c262 313d d9ba 643d 1703 02be 6457 ee3d
00000010: b152 593e f657 65bd e912 e33d 5efc c3bd
00000020: 71f3 cb3c cee0 66bc d4e6 c93d bcfb 13bd
00000030: fdd5 ea3d d2a6 6f3d c491 68be 2e66 1a3e
00000040: 3723 343d 7189 0bbe b03f 003e f0c2 143e
00000050: 424d f8bd b4c4 9abc 5fb5 06be e4ec 613e
00000060: 5f6d 81bd 876b ef3d cbe7 ed3b 23de c1bc
00000070: 804f ffbd 1cb4 e8bc f155 87bd ac37 003e
00000080: e42f 243e fe6c 02be 01fa a83c 995f 51be
00000090: b658 09be 4ff4 05be 71dd 4a3d 9473 55bd
000000a0: 98ba d93d e3a0 813d 1e23 9bbd e3da 6bbc
000000b0: f02d a6be 8a6b dbbd 8589 573e e408 03be
000000c0: 99c7 50bd 94b0 01be b6b7 0ebe 4e74 6f3d
000000d0: 4e00 17bd 99cd 57be e12b 82bc 632e dd3d
000000e0: 0c29 b8bb e723 e63d 6a15 833e b56e 5a3e
000000f0: c8f5 e83d 8c7b c8bd f7db a9bd 4cb7 a5bb
00000100: 4f92 913c feda 0dbd 415d 4fbe 568f ee3e
00000110: b0e7 a7be daef 8d3d 127c 033e 63f9 dc3e
00000120: 3eb2 5ebd 3fa2 f2bd ae30 8b3e 1a4c 6d3e
00000130: dd4d 0a3d a11e 78bf a360 5d3e acc1 9fbd
00000140: 6267 a33c 2ed3 04bd 27c0 0bbe b8bb ffbc
00000150: 5b10 95bd 7bd2 a43c dc33 333c c578 773d
00000160: 6043 34be cf2b bd3c 3cb2 523d b61e 213e
00000170: 3443 483d 02ea bfbd 88be 12be 80fb 75be
00000180: 97d7 083e eae6 793c 9bd2 a7bd b415 db3d
00000190: 5401 bcbd f802 4b3e 8351 de3d d31d 0bbd
000001a0: 08fc 4dbe 6bd6 673d 0cfd 863d c36c babd
000001b0: 0a63 bebd 1a23 4b3e eae0 cc3a 89c5 273e
000001c0: e8b3 533c 7367 d1bd d3fe e73d 0254 8f3d
000001d0: 0967 203d 8489 1f3d 61f5 23bd e9f1 0a3e
000001e0: d6d8 95bd 0c65 413e dda7 6d3d 6bab efbd
000001f0: db9a 133e e42f adbd 2cd7 333c 29a0 fbbd
00000200: 5783 bb3d 6ea8 303e 9270 983d 4269 1a3e
00000210: 7568 5cbb 8cae a3bd 4430 503a f924 273e
00000220: 6c99 913d 76d0 d9bb 2cea bb3d 015e 173e
00000230: 51e9 d33c b2e6 533e 93c3 b1bc 5374 d93e
00000240: 933b 5cbf 4695 343e 06cd e93e dad2 0d3f
00000250: 55fc e7be c154 643e e65c 473d 04c3 6c3d
00000260: 5829 b83c b6b8 ebbb 9cc6 29bd b0e3 debb
00000270: 41f9 613e 279b f23a 9406 b4bc dc3d ddbc
00000280: 3d5d 2a3d 116b 65bd 2d93 a7bc dcca 813b
00000290: e921 5a3e e079 cdbc a343 9e3e 3d5d 2d3e
000002a0: bd43 fa3d 41ec c8bc 109d 833d 14a3 6cbd
000002b0: 1e2a 0cbe 2afa 733e 1923 9a3d 43cc 133c
000002c0: 828a f83c 1262 0e3e f8a3 af3c a290 693d
000002d0: 6d72 29bd 6c7a 86be c113 813e ccce d8bc
000002e0: 69af 113c 2965 2cbe aa07 4f3e c749 6f3d
000002f0: 6f40 dcbd a025 f33b a07e 76bd 3d52 543d
00000300: a4af 37bd ddac f93c 5ebc 263c e278 e83c
00000310: 35bc 133e 2949 353e 3326 a1be 587b 60bd
00000320: ec52 41bc e777 f83c 7572 b2bd 7a28 343d
00000330: b9a5 743d a101 16bb fea8 81bc 8aa3 ae3e
00000340: 7923 433e fe54 f13d 2afd 8dbe 4a83 cfbd
00000350: 7e03 4abe 1a8d 5bbd 3032 8fbe 4810 1ebf
00000360: 0793 153f 7db9 b0be 7b76 033f b6c7 0bbf
00000370: c38c 1bbf b279 113f 4334 023e 297e 993c
00000380: 6fcf 713c 1cef 633d f7bf 0a3e 4736 27bd
00000390: f716 953b f3fb 68be 4330 b5bd 7824 93bd
000003a0: 72f2 923d c060 b6bd ff16 d8bd 6c10 cb3d
000003b0: 305a c23d 017e 72bb b7e7 3fbe e23a 013e
000003c0: 4d72 c53d 3cca c3bc 9c51 b13d cc74 b4bd
000003d0: 08d7 1cbe dcd4 27be 4135 1c3e bb82 ef3b
000003e0: 48a5 12bd 1d6a ca3d 70b8 973d bde3 8f3e
000003f0: 1cc8 133d afc6 463d 953c 4a3d c1d7 553d
0.043307073 0.055842254 -0.12696491 0.11637762 0.2122295 -0.05599209 0.11087591 -0.095696196
0.024896355 -0.014091684 0.0985848 -0.036128744 0.11466596 0.0585087 -0.22711855 0.15078041
0.043978896 -0.13626648 0.12524295 0.14527488 -0.12124111 -0.018892623 -0.13155125 0.22063023
-0.06319689 0.11690431 0.007260298 -0.023665493 -0.12466335 -0.028406195 -0.06608189 0.12521237
0.16033894 -0.1273689 0.020627024 -0.20446624 -0.13412747 -0.13081478 0.04952759 -0.052112177
0.10631293 0.06329515 -0.075750574 -0.014395448 -0.32456923 -0.10713871 0.21048553 -0.1279636
-0.0509716 -0.12665015 -0.13937268 0.058460526 -0.036865525 -0.21074523 -0.015890064 0.10799863
-0.0056201275 0.112373166 0.25602275 0.21331294 0.11375004 -0.0978919 -0.08293908 -0.005057251
0.01776996 -0.034632675 -0.20250417 0.46593732 -0.3279395 0.06930514 0.12840298 0.43159017
-0.054369204 -0.11847352 0.27185577 0.23173562 0.033765662 -0.96921736 0.21618895 -0.07800612
0.019946758 -0.03242796 -0.13647519 -0.031217441 -0.0727851 0.020119896 0.010937657 0.06041791
-0.17603827 0.023092179 0.05143951 0.15734372 0.048892215 -0.09370805 -0.14330494 -0.24021721
0.13363491 0.015252808 -0.08194467 0.10697499 -0.09179941 0.19825351 0.10855391 -0.03396399
-0.20115674 0.05660097 0.065912336 -0.09102776 -0.09296234 0.19837609 0.0015630994 0.16383947
0.012921311 -0.102248095 0.11327901 0.06998445 0.039160762 0.038949504 -0.040028933 0.13568844
-0.07316749 0.18886203 0.058021415 -0.11702617 0.14414541 -0.084564 0.010976594 -0.122864075
0.091559105 0.17251751 0.07443346 0.15079215 -0.0033631597 -0.079922765 0.00079417625 0.16322698
0.07109341 -0.006647165 0.09175524 0.14781953 0.02586809 0.20693472 -0.021699702 0.4247156
-0.86028403 0.17635068 0.45664233 0.5539986 -0.45309702 0.22297956 0.04867258 0.05780317
0.022480652 -0.00719365 -0.041449174 -0.006802045 0.22067739 0.0018509374 -0.021975793 -0.027007036
0.041592825 -0.05601031 -0.020455921 0.0039609503 0.21301998 -0.025082529 0.30910978 0.16930099
0.12219951 -0.024526717 0.06426442 -0.05777271 -0.13687941 0.23825899 0.075262256 0.009020868
0.030339483 0.13904598 0.021440491 0.0570227 -0.04136889 -0.26265275 0.25210384 -0.026465796
0.008891919 -0.16835465 0.20217767 0.05841997 -0.10754477 0.0074202567 -0.060179353 0.05183624
-0.04484524 0.030477935 0.010176746 0.028377954 0.14427264 0.1770369 -0.31474456 -0.05480513
-0.011799555 0.030330611 -0.08713237 0.043983914 0.059728358 -0.0022889154 -0.015827652 0.34109145
0.190565 0.11783789 -0.2773221 -0.10132463 -0.19727895 -0.05360136 -0.27967978 -0.61743593
0.5842747 -0.34516516 0.5135266 -0.5460161 -0.6076166 0.5682632 0.12715249 0.018736916
0.014758929 0.055647954 0.13549791 -0.040823247 0.0045498568 -0.22752361 -0.08847096 -0.0718469
0.07175149 -0.08905172 -0.10551261 0.099152416 0.09489858 -0.0037001374 -0.18740736 0.12620118
0.09640942 -0.023900144 0.08658144 -0.0881134 -0.15316403 -0.16389793 0.1525469 0.0073092855
-0.035802156 0.09883521 0.074082255 0.28103438 0.03607951 0.048529323 0.04937418 0.052207712

W_readout f4 [1, 6]
00000000: af8b cc3f 0da7 67bf 358a 303f b895 8bbf
00000010: 9345 99bf 3288 533f
1.5980128 -0.90489274 0.6896089 -1.0905066 -1.1974357 0.8262969

bias f4 [72]
00000000: 2b60 4a3d 48c6 d13d a165 983e 0385 b33d
00000010: d610 a53d d494 003c cdcc cc3d cdcc cc3d
00000020: cdcc cc3d cdcc cc3d cdcc cc3d cdcc cc3d
00000030: cdcc cc3d cdcc cc3d cdcc cc3d cdcc cc3d
00000040: cdcc cc3d cdcc cc3d cdcc cc3d cdcc cc3d
00000050: cdcc cc3d cdcc cc3d cdcc cc3d cdcc cc3d
00000060: cdcc cc3d cdcc cc3d cdcc cc3d cdcc cc3d
00000070: cdcc cc3d cdcc cc3d cdcc cc3d cdcc cc3d
00000080: cdcc cc3d cdcc cc3d cdcc cc3d cdcc cc3d
00000090: cdcc cc3d cdcc cc3d cdcc cc3d cdcc cc3d
000000a0: cdcc cc3d cdcc cc3d cdcc cc3d cdcc cc3d
000000b0: cdcc cc3d cdcc cc3d cdcc cc3d cdcc cc3d
000000c0: cdcc cc3d cdcc cc3d cdcc cc3d cdcc cc3d
000000d0: cdcc cc3d cdcc cc3d cdcc cc3d cdcc cc3d
000000e0: cdcc cc3d cdcc cc3d cdcc cc3d cdcc cc3d
000000f0: cdcc cc3d cdcc cc3d cdcc cc3d cdcc cc3d
00000100: cdcc cc3d cdcc cc3d e0ba 12bf 474c 05be
00000110: 9c83 36bf 451c 713d 5ddc dc3d 4107 263e
0.04940812 0.10242897 0.29765037 0.08765604 0.08059852 0.007847983 0.1 0.1
0.1 0.1 0.1 0.1 0.1 0.1 0.1 0.1
0.1 0.1 0.1 0.1 0.1 0.1 0.1 0.1
0.1 0.1 0.1 0.1 0.1 0.1 0.1 0.1
0.1 0.1 0.1 0.1 0.1 0.1 0.1 0.1
0.1 0.1 0.1 0.1 0.1 0.1 0.1 0.1
0.1 0.1 0.1 0.1 0.1 0.1 0.1 0.1
0.1 0.1 0.1 0.1 0.1 0.1 0.1 0.1
0.1 0.1 -0.573164 -0.13017379 -0.7129457 0.05886485 0.107842185 0.16213705

W_ext f4 [6, 2]
00000000: a2ac 1c3e ccc7 bd3f 1924 233f 40b9 d53e
00000010: 22b0 873f c548 e53f 0d40 813d cce9 46be
00000020: 4e0b 30be 576a 843e 0eac 74be 7f11 8abf
0.15300229 1.4826598 0.63726956 0.41742897 1.0600626 1.7912832 0.06311045 -0.19425124
-0.17191812 0.2586238 -0.23893759 -1.0786589
