DrosophilaLabRot/data_store/mbon_sensitivity/second_order_nets/trained_nets/02_mbons/second_order_5000ep_1hop_N15.pt (torch_old, 17407 bytes, 4 tensors)

W_recur f4 [64, 64]
00000000: ed0a 12bf 3139 663f 6ee5 a13c cc65 c5bd
00000010: 07d2 9d3d 3ec3 003e ad8c 05be 58a5 9cbd
00000020: 1beb 583d 34de 8c3c c6ea 463d 3aab 453e
00000030: 2a32 223e ee0a 383e 957d 26be 56bf 703d
00000040: 9c3a b43c c6b4 46bd edbb 97bc 9fa2 d43c
00000050: 7b34 d9ba 8d8d 083e 293f c33d a555 c5bb
00000060: 7cca 17bd f24b d63d 9e4f 6a3d a8a4 8ebd
00000070: 1a3d 4e3d c84c f7bd 4041 ed3d cf2d c0bd
00000080: e61f 0dbc 978b 77bc 698e 3e3d 7c19 723c
00000090: 2bf0 9f3d 066e 2cbd d436 69bd bbb5 febd
000000a0: 2ed9 443e 1cd8 f53b 8122 5c3d 23a8 babc
000000b0: 7678 6cbe 1b1d 71ba 88f1 c13d 1b79 083e
000000c0: 1790 7abd 2019 b2bd d72e 1abe dd04 b9bd
000000d0: be4d 043d 8f1a afbb d3f1 a2bc 8b98 34be
000000e0: 80bb 2bbe 02ed 953d 0243 b13b 16bb 393d
000000f0: 98b2 45bd c789 61be 7b5e dc3e 5ede d43e
00000100: 6eb9 bb3e 43a7 23bc 4063 21be 3a9a 3fbd
00000110: f6c8 843e ab5b 05be 72ec 4c3d 233a 82bd
00000120: 07fc 113e 6366 fb3d a531 12be a86b c7bd
00000130: 0d19 c8bd bbea f13d 40e9 81bc ae77 8abd
00000140: ac11 14bd 5e3c 72bd 7529 d4bd cb62 c9bd
00000150: 98de 4dbe d1ea 3b3d ee15 943d 5c9b 4abd
00000160: c543 063d e6bc 2b3c ee50 783d a3a7 1dbe
00000170: c644 91bd 274c 0ebe b0d7 4ebd cb92 c9bc
00000180: e174 98bd 70c3 dbbd b669 50bb 5f84 1a3b
00000190: 8df2 063e 9981 58be 7143 6bbe a9e0 773e
000001a0: c6f9 a73d c002 1bbd 0c3c 05bd e0c7 a43d
000001b0: 5503 babc feef 7b3e 02cc abbb 3e84 e33d
000001c0: ce27 4a3d 286e af3d 358c 22bd a9c2 5cbd
000001d0: 565c 13bc 4d89 9d3c b941 0a3d ae60 8dbd
000001e0: d60e dfbd 49a8 c2bc f820 95bc c66a 863d
000001f0: 2c28 b23d cace 783c 7f90 ed3e 5105 7bbf
00000200: e120 723e e2cf 63bf cf9e 67bd 5c2d 0f3e
00000210: c736 c53d 64a8 f5bd 0e7a 823c 42df 193e
00000220: 7279 2e3e 29cf f7bc d6a9 4c3e 002b bb3c
00000230: eaac 37bd 23ba 643d 40ec e93d 8633 e7bb
00000240: df1d abbd b82f 2bbe 0ac2 3abe c301 7e3e
00000250: 99d2 c9bc 0320 c5bd 91e0 6a3d 2f56 3b3e
00000260: beda ba3d aca7 35be 3f8a 12be 00af d5bd
00000270: 93a6 3abe aa26 223e 917f 48be e9d9 abbd
00000280: ec55 b9bb e411 b4bd 6022 1f3e 4549 1abe
00000290: 725c 4e3c 8b10 80bd 6ddd f63d 51f5 403e
000002a0: 08ec fc3c 1d5a ee3d 5d65 c7bd 1c16 14bd
000002b0: d213 263d 6aaa 533c 12b3 32be 71a5 a7bc
000002c0: 36d7 643d 3ddf 993e bf14 943d 9640 a3bd
000002d0: 7f17 0cbe 58c7 0d3e ad1d 35bd 1785 aebd
000002e0: 8638 c83d b165 52bd ea15 4dbd 43de 0a3e
000002f0: 3b00 a13b bd04 823d eb33 b4be e158 d93e
00000300: f31d 23bf 7856 d33d c2f2 c33d f618 a7bd
00000310: af9c 1e3d a1fa 80bd 29ef 81bd 0bed 38be
00000320: 76d4 68bd 9552 b93c dc6e 0dbe 5129 e5bc
00000330: 8ef2 bfbb bccc f13d 1b3e dcb9 bad2 6dba
00000340: 4777 7abc bae0 913c 3815 3ebc 595b 7d3e
00000350: 0788 e13c 799e 5dbd 07d4 353e 3b35 703d
00000360: 733d 513d 11eb 46be 7762 3f3d 4c52 9abb
00000370: ab95 953c 03ff 1ebe 68bc 9c3d 42b7 753e
00000380: 1ec0 77bd 4608 aebd 9bdf 25bd a919 08be
00000390: c259 de3d 39ca 2ebe 96c8 83bd 5230 af3a
000003a0: 9afa babd 1b3a 123e d6be 54be 77bd bf3c
000003b0: 8856 f139 7f1d 653e 8941 27be 5512 5cbc
000003c0: 523b b0bd ac3b 0a3e fcb0 393e 5385 623c
000003d0: d9e3 d7bd 5224 d6bc 16a1 523e 5efa 1f3d
000003e0: 5d2d a4bd 7754 173e 7617 f13d 5b4b 403e
000003f0: e8b9 ab3b c8a4 93bd 0c30 1bbf 5f94 193e
-0.5704792 0.8993102 0.01976272 -0.09638557 0.07706075 0.12574479 -0.13041945 -0.07648724
0.05295859 0.017195798 0.04856374 0.19303599 0.15839449 0.1797292 -0.16258843 0.058776222
0.022000603 -0.048512243 -0.018522227 0.02595645 -0.0016571427 0.13335247 0.09533531 -0.0060221725
-0.03705834 0.10463704 0.057204835 -0.069649994 0.05035124 -0.12075192 0.11584711 -0.09383737
-0.008613562 -0.015108964 0.04652253 0.014776584 0.0780948 -0.042097114 -0.056937054 -0.12437006
0.19223472 0.007502569 0.053743843 -0.022785252 -0.23092827 -0.00091977575 0.094698966 0.13327448
-0.06117257 -0.086961985 -0.1505693 -0.09034131 0.032300703 -0.005343742 -0.019890701 -0.17636316
-0.16770744 0.07320596 0.0054095993 0.045344435 -0.048266023 -0.22025214 0.43040833 0.41575903
0.3666491 -0.009988609 -0.15760517 -0.04677794 0.2593457 -0.1302325 0.05003018 -0.06358745
0.14256297 0.12275388 -0.1427675 -0.09737331 -0.09770403 0.118123494 -0.015858293 -0.06761108
-0.036149666 -0.059139602 -0.1035947 -0.098332964 -0.20104444 0.045878235 0.07230745 -0.04946457
0.032779474 0.010482049 0.060624056 -0.1539598 -0.070931956 -0.13896237 -0.050498664 -0.02460613
-0.07444168 -0.10730636 -0.003180129 0.0023577434 0.13178463 -0.21143188 -0.22974946 0.24206795
0.082019374 -0.03784442 -0.03252797 0.08045936 -0.022706667 0.24603269 -0.0052428255 0.111092076
0.049354367 0.085659325 -0.039684493 -0.05389658 -0.008994183 0.01923051 0.033754084 -0.06903206
-0.108915016 -0.023761885 -0.018204197 0.06563334 0.086990684 0.015186021 0.46399304 -0.9805499
0.23645355 -0.8898908 -0.056547936 0.13982147 0.096295886 -0.119950086 0.01592734 0.15026572
0.17038515 -0.030250149 0.19986662 0.022847652 -0.044842638 0.055841576 0.11422014 -0.0070557026
-0.08355307 -0.16717422 -0.18238083 0.2480536 -0.024636554 -0.096252464 0.05734307 0.18294595
0.09123753 -0.17739743 -0.14310549 -0.10433769 -0.18227606 0.15835062 -0.19579913 -0.083911724
-0.0056559946 -0.08792475 0.15540457 -0.15067013 0.012595283 -0.06253155 0.12053952 0.18843581
0.030874267 0.116382815 -0.097361304 -0.036153898 0.040546246 0.012919048 -0.17451122 -0.02046463
0.055869304 0.3005313 0.072305195 -0.07971303 -0.13680838 0.13845575 -0.044217754 -0.085214786
0.09776406 -0.05136651 -0.050069727 0.13561349 0.0049133576 0.0634856 -0.3519586 0.42450622
-0.63717574 0.10319227 0.09567787 -0.08159058 0.038723644 -0.06297804 -0.06344444 -0.18059175
-0.056843244 0.022622386 -0.13811821 -0.027973803 -0.005857772 0.11806628 -0.00042007942 -0.0009072233
-0.015287227 0.017807353 -0.011601739 0.24741878 0.027530683 -0.05410621 0.17756663 0.058644515
0.051083993 -0.19425608 0.046724763 -0.0047095176 0.018259844 -0.15526967 0.07653123 0.23995689
-0.06048595 -0.08497672 -0.04049645 -0.13291039 0.10856964 -0.1706933 -0.06434743 0.0013365841
-0.0912983 0.14279978 -0.20775923 0.023405774 0.00046031573 0.22374533 -0.16333593 -0.013432105
-0.086050645 0.13499326 0.1813392 0.013825732 -0.10541505 -0.026140366 0.20569262 0.039057128
-0.08016465 0.14778315 0.11772053 0.18778746 0.0052406676 -0.07209164 -0.6062019 0.14998005

W_readout f4 [1, 2]
00000000: 047c d8bf c68c d53f
-1.6912847 1.6683586

bias f4 [64]
00000000: d6fe 1a3e dae5 173e cdcc cc3d cdcc cc3d
00000010: cdcc cc3d cdcc cc3d cdcc cc3d cdcc cc3d
00000020: cdcc cc3d cdcc cc3d cdcc cc3d cdcc cc3d
00000030: cdcc cc3d cdcc cc3d cdcc cc3d cdcc cc3d
00000040: cdcc cc3d cdcc cc3d cdcc cc3d cdcc cc3d
00000050: cdcc cc3d cdcc cc3d cdcc cc3d cdcc cc3d
00000060: cdcc cc3d cdcc cc3d cdcc cc3d cdcc cc3d
00000070: cdcc cc3d cdcc cc3d cdcc cc3d cdcc cc3d
00000080: cdcc cc3d cdcc cc3d cdcc cc3d cdcc cc3d
00000090: cdcc cc3d cdcc cc3d cdcc cc3d cdcc cc3d
000000a0: cdcc cc3d cdcc cc3d cdcc cc3d cdcc cc3d
000000b0: cdcc cc3d cdcc cc3d cdcc cc3d cdcc cc3d
000000c0: cdcc cc3d cdcc cc3d cdcc cc3d cdcc cc3d
000000d0: cdcc cc3d cdcc cc3d cdcc cc3d cdcc cc3d
000000e0: cdcc cc3d cdcc cc3d cdcc cc3d cdcc cc3d
000000f0: cdcc cc3d cdcc cc3d 225a d03d 7e5b 663d
0.15136275 0.14833775 0.1 0.1 0.1 0.1 0.1 0.1
0.1 0.1 0.1 0.1 0.1 0.1 0.1 0.1
0.1 0.1 0.1 0.1 0.1 0.1 0.1 0.1
0.1 0.1 0.1 0.1 0.1 0.1 0.1 0.1
0.1 0.1 0.1 0.1 0.1 0.1 0.1 0.1
0.1 0.1 0.1 0.1 0.1 0.1 0.1 0.1
0.1 0.1 0.1 0.1 0.1 0.1 0.1 0.1
0.1 0.1 0.1 0.1 0.1 0.1 0.101734415 0.056239597

W_ext f4 [2, 2]
00000000: d49b ab3e 868a 0f3e c9fa 16bf 4f04 4a3e
0.33517325 0.14017686 -0.5897642 0.19728206
