DrosophilaLabRot/data_store/mbon_sensitivity/second_order_only_nets/trained_nets/11_mbons/second_order_no_extinct_5000ep_1hop_N15.pt (torch_old, 28099 bytes, 4 tensors)

W_recur f4 [82, 82]
00000000: 1ad0 23bf 589b 283e 10b7 8f3c 785d 243f
00000010: c9ac bdbe a800 8abd 57eb 713e c4d9 083f
00000020: fc09 4abe b2a8 853e c11b 6d3e 2808 f43c
00000030: 426c f73d fa2f 0abe e786 f8bc 6da8 3c3c
00000040: 5c7a 223d e213 adbc 2ac6 94bd 1768 fb3d
00000050: e5c7 24be ca85 43bd a6b0 983e dbf8 f8bd
00000060: 0735 01be 4333 40bd 1b9b e9bd 9b33 efbd
00000070: 86a0 96bc 6517 f8bc 8b69 203e b8c3 e23d
00000080: 63aa dcbd 8716 d2bc dbd2 1fbe 7cb3 dabc
00000090: 321c 8e3c 7ca2 be3d 9b0d 22be f582 96bd
000000a0: 7e56 1d3d 5f6f 353e ab46 1f3e e19f 56bc
000000b0: 11ea 98bd b2c0 423d e3b9 133d 068d 74be
000000c0: 1aab 7cbc 88c8 ce3c b2c4 8b3d f6d5 86bd
000000d0: 4c3f 863e 8a78 22bd d40f 06be d584 243c
000000e0: 0e6f 62bc e0c3 95bc 2b18 4dbe af5e 963d
000000f0: f42a 38bc 03ec 24be 4394 87bd cd5b 6ebd
00000100: 88ba c43d 83f9 61bd 6902 3a3d 6be9 42bd
00000110: 376c b53d f082 bfbd 7860 b0bd 8714 073d
00000120: eb95 b2be 65fe 973e 6ad6 8f3e 65e0 08be
00000130: 214c c5be a4e0 923e 3992 bf3d a66c cc3d
00000140: ca31 e1be 1ae2 16be 5ce5 0e3e af66 3f3e
00000150: 0adf debd 259e 013e 877f 34be 5f50 c7be
00000160: 6f51 af3b 2756 a53c e4fc 5fbe 8a36 493e
00000170: 8dc0 cabe 72e2 9c3c c792 4e3d f61c 8a3d
00000180: 8743 0ebe 2733 cbbd d4da e2bd 83bd 1bbe
00000190: b08e acbd ecbd 22bd 5a92 03be 9bdd 023e
000001a0: e747 94bd 2462 e83d ac4f 7b3d ca71 ca3d
000001b0: b2b2 813e 1090 50bb 8812 ddbd 5b9e a7bd
000001c0: 9d30 5abd 2216 0a3e feb8 95bd 9322 e4bc
000001d0: 57de bd3b b289 ac3e 1f61 28be 8f5d 213e
000001e0: db2e 66be 4103 22bd b42d 943d 366f db3c
000001f0: e610 b73c e440 1ebe 0201 11be 44bf 473d
00000200: 5893 47be a42c 433d 8fab 11bd b347 98bc
00000210: 3288 083e 7275 f13c 2af6 50bc e405 243d
00000220: 8db7 bf3d d2f8 753d f061 a43d 4aec 01bd
00000230: 09fa 4cbe 333e 94bd e75c 0b3e cda3 4d3e
00000240: cb9b 93bd 5757 64bd 0eaa 21bd 1c93 eabc
00000250: ce90 88bc b026 b5bc 2363 75bd 36ef c4bc
00000260: 5cd3 cdbc a807 9ebe 68ab 90bc b290 87be
00000270: a848 003e 6701 543e 64dd e4be b382 1cbd
00000280: ea89 fabe cb76 acbc d204 acbd 947b e3bc
00000290: 95c9 313e c2a6 f0be 7271 783c 82b3 383c
000002a0: f257 97be f853 8abd 0674 e9be c623 8e3e
000002b0: 8516 43be 7248 ab3e 014d 37be 2234 aebd
000002c0: 6b40 0b3d af70 ccbd 42d2 d23b 0cbc 82bd
000002d0: cbdd 78bd 0275 c7bd a75a 9a3d 6150 bfbd
000002e0: fb00 61bc fbe5 4b3d b5ab 273e f616 f6bd
000002f0: b578 983d 1eb5 f6bc 1e4a cf3b e1f9 87bd
00000300: b158 893d 03e3 5ebd 9972 8cbd a1a5 033d
00000310: e15c 813c 6d74 09be 044d 3ebe 695b 173e
00000320: 332a 503d 17a0 3ebe 9a98 b3bc ef62 193e
00000330: 19bb 68be 8e7f 50be d25d 0abe 1684 e33c
00000340: 9b6e 55bd 681c 903d 3739 283d da23 ba3c
00000350: d5a1 323b ae1b 873d bd61 e5bd 3c91 0fbe
00000360: 3198 55bd f502 adbc d2e1 373d 3c05 16bd
00000370: f725 f33d 4536 aa3d 0813 d1bc ac84 da3c
00000380: a60a 993c 9f8b afbd 4224 3a3c a018 3ebe
00000390: 78cd d6bd 97b2 b7be d5c6 603d e354 133e
000003a0: 144c 49bd 32e1 593d 364e 093e 6917 dcbd
000003b0: da12 d7be 0a32 1b3e e59c b03c 4e18 123e
000003c0: db70 a93e 16cd de3e 3adc 3abd 0e28 f73e
000003d0: 7a64 5e3e 068a 29be 21f8 0ebf e354 77be
000003e0: 23e9 4c3e f9db 2f3e 1595 913c 9bc7 d53e
000003f0: c6e8 ab3d 6c03 16be 81da ca3d 7859 b33d
-0.6398941 0.16465509 0.017543346 0.6420512 -0.37045887 -0.067384064 0.23624931 0.53457284
-0.19730371 0.26105267 0.23155119 0.029789045 0.120811954 -0.13494864 -0.030337764 0.011514765
0.039667472 -0.021127645 -0.07264359 0.12275713 -0.16091879 -0.047735013 0.29822272 -0.121568404
-0.12617885 -0.046923887 -0.11406537 -0.11679765 -0.01838709 -0.030284593 0.15665261 0.11072487
-0.10774686 -0.025645507 -0.15607779 -0.026696913 0.017347429 0.09308335 -0.15825503 -0.07349197
0.038412564 0.17718266 0.15554301 -0.013099642 -0.074665196 0.04754705 0.036065947 -0.23881921
-0.015421653 0.025242105 0.06824626 -0.065837786 0.26220167 -0.039665736 -0.13091975 0.010041435
-0.013820423 -0.018281877 -0.2002875 0.07342278 -0.01124071 -0.16105656 -0.066200756 -0.058193017
0.096058905 -0.055169594 0.045412455 -0.047585886 0.08858531 -0.09351146 -0.0861215 0.03297856
-0.34880003 0.29686275 0.28093272 -0.1336685 -0.38534644 0.28687012 0.09354062 0.099816605
-0.439833 -0.14734688 0.13954681 0.18691514 -0.10882385 0.12657984 -0.17626773 -0.38928506
0.005350284 0.020182682 -0.21873814 0.19649711 -0.3960003 0.019150946 0.050432947 0.06743805
-0.13892947 -0.09921866 -0.110768944 -0.15209012 -0.08425653 -0.039731905 -0.12848797 0.12779848
-0.07240277 0.11346844 0.061355278 0.09884985 0.25331646 -0.003182415 -0.1079455 -0.08184501
-0.053269017 0.13485005 -0.07310675 -0.027848518 0.0057943272 0.33698803 -0.16443299 0.15758346
-0.22478811 -0.039553884 0.0723528 0.026786428 0.022346925 -0.15454441 -0.1416054 0.04876639
-0.19489801 0.047649994 -0.035564 -0.018588876 0.13333204 0.029474948 -0.012754003 0.04004468
0.093611814 0.060051747 0.080264926 -0.031719483 -0.20017256 -0.07238426 0.13609658 0.20082016
-0.072074495 -0.055747356 -0.039468817 -0.0286346 -0.01667061 -0.022113174 -0.059908997 -0.024039846
-0.025125198 -0.30865216 -0.017659858 -0.2647758 0.12527716 0.2070366 -0.44700158 -0.038210582
-0.48933345 -0.021052739 -0.08399357 -0.027768888 0.17362054 -0.47002226 0.015163766 0.011273267
-0.29559284 -0.06754297 -0.4559633 0.27761668 -0.1905156 0.3345371 -0.17900468 -0.08506037
0.03399698 -0.0998243 0.006433756 -0.06383523 -0.060758393 -0.09739114 0.07536822 -0.09341503
-0.013733144 0.049779873 0.16374095 -0.12016098 0.07444898 -0.03011566 0.006325974 -0.066394575
0.0670637 -0.054415714 -0.06857795 0.032140378 0.015791358 -0.13423319 -0.18584067 0.14780964
0.050821494 -0.18615757 -0.021923352 0.14979146 -0.22727622 -0.20361158 -0.13512352 0.027772944
-0.052107435 0.07036668 0.04107019 0.022722173 0.0027257104 0.06597076 -0.11200283 -0.14020246
-0.052147094 -0.021119574 0.044893093 -0.036626086 0.118724756 0.08311132 -0.02552177 0.026674591
0.018681835 -0.085715525 0.011361184 -0.18564081 -0.10488409 -0.3587844 0.05487712 0.1438785
-0.04914482 0.05319328 0.13408741 -0.10746653 -0.4200657 0.15155807 0.021559188 0.14267084
0.33093914 0.43515843 -0.04562018 0.48272747 0.21718016 -0.16556558 -0.55847365 -0.24153475
0.2001081 0.17173757 0.017771283 0.4175385 0.083940074 -0.14649743 0.099049576 0.08757299

W_readout f4 [1, 11]
00000000: f30a 953f e1eb 25bf f62a 38bf 2073 56bc
00000010: bad3 ac3e 9ad7 47bf 8277 113f 2553 e3be
00000020: 55d2 503f d539 ecbe 54b1 b63e
1.1643966 -0.6481305 -0.71940553 -0.013088971 0.33755285 -0.78063357 0.5682298 -0.44399372
0.8157094 -0.46137872 0.35682166

bias f4 [82]
00000000: a674 0f3e 2fad d43c 5886 6e3d c871 f7bb
00000010: 0a67 4b3d b78a 043e 34fb 11be ba9a a83d
00000020: 7410 843d 5305 893d c248 1ebe cdcc cc3d
00000030: cdcc cc3d cdcc cc3d cdcc cc3d cdcc cc3d
00000040: cdcc cc3d cdcc cc3d cdcc cc3d cdcc cc3d
00000050: cdcc cc3d cdcc cc3d cdcc cc3d cdcc cc3d
00000060: cdcc cc3d cdcc cc3d cdcc cc3d cdcc cc3d
00000070: cdcc cc3d cdcc cc3d cdcc cc3d cdcc cc3d
00000080: cdcc cc3d cdcc cc3d cdcc cc3d cdcc cc3d
00000090: cdcc cc3d cdcc cc3d cdcc cc3d cdcc cc3d
000000a0: cdcc cc3d cdcc cc3d cdcc cc3d cdcc cc3d
000000b0: cdcc cc3d cdcc cc3d cdcc cc3d cdcc cc3d
000000c0: cdcc cc3d cdcc cc3d cdcc cc3d cdcc cc3d
000000d0: cdcc cc3d cdcc cc3d cdcc cc3d cdcc cc3d
000000e0: cdcc cc3d cdcc cc3d cdcc cc3d cdcc cc3d
000000f0: cdcc cc3d cdcc cc3d cdcc cc3d cdcc cc3d
00000100: cdcc cc3d cdcc cc3d cdcc cc3d cdcc cc3d
00000110: cdcc cc3d cdcc cc3d cdcc cc3d 43b2 0b3d
00000120: f639 933d ebd5 c33d 73e9 3c3d c2f4 f6bc
00000130: 0d18 9d3d b46d 81bd c842 c6bd 59eb a9bd
00000140: 8af9 f6bd d6c4 b23d
0.14009342 0.025961487 0.05823359 -0.0075514056 0.049658813 0.1294354 -0.14255983 0.08232637
0.06448451 0.06690469 -0.15457442 0.1 0.1 0.1 0.1 0.1
0.1 0.1 0.1 0.1 0.1 0.1 0.1 0.1
0.1 0.1 0.1 0.1 0.1 0.1 0.1 0.1
0.1 0.1 0.1 0.1 0.1 0.1 0.1 0.1
0.1 0.1 0.1 0.1 0.1 0.1 0.1 0.1
0.1 0.1 0.1 0.1 0.1 0.1 0.1 0.1
0.1 0.1 0.1 0.1 0.1 0.1 0.1 0.1
0.1 0.1 0.1 0.1 0.1 0.1 0.1 0.03410555
0.071887895 0.09562286 0.046121072 -0.030146006 0.07670603 -0.06319752 -0.09680706 -0.08296842
-0.120593145 0.0872895

W_ext f4 [11, 2]
00000000: 844b 05bf a344 723e 8146 b1bf 45bf 80bf
00000010: 4e8c 2b3e 7661 da3d eb2c 0abe fad5 443b
00000020: c3c3 6a3e df51 bcbb ea47 473d ea19 2abf
00000030: 11e4 6f3e 4aab aebf 6b1d b83e b32e 23bd
00000040: e873 0bbe 1633 8e3e a2e6 5a3e bce6 a33e
00000050: d259 4abf 882d 92bf
-0.5206835 0.23658995 -1.3849641 -1.0058371 0.1675274 0.106631204 -0.13493697 0.0030034767
0.2292624 -0.0057470645 0.048652567 -0.6644579 0.23426844 -1.3646023 0.35959944 -0.039839458
-0.13618433 0.2777335 0.21377042 0.32011974 -0.79043305 -1.1420145
