DrosophilaLabRot/data_store/mbon_sensitivity/second_order_nets/trained_nets/08_mbons/second_order_5000ep_1hop_N18.pt (torch_old, 24247 bytes, 4 tensors)

W_recur f4 [76, 76]
000000 ab ad 8f be 26 96 c7 bd 44 23 f1 3e 4b 61 01 bf
       -0.28062186 -0.097454354 0.47097218 -0.5053908
000010 07 a3 63 3e f5 12 c1 3e f5 13 66 bd dc 30 08 3e
       0.22230159 0.37709776 -0.056171376 0.13299888
000020 ea 79 68 bc 64 ec 22 3e 85 ec f7 3c 36 09 db bd
       -0.014189223 0.15910488 0.030264148 -0.10695116
000030 b1 4c d8 39 5c cc 53 3e cf eb f6 bc 23 93 5b bd
       0.0004125587 0.20683426 -0.03014174 -0.053607117
000040 6c da bf 3d 85 19 40 be c2 ad 27 3d da d6 e4 bb
       0.093678325 -0.18759735 0.040937193 -0.00698362
000050 79 42 25 be 1a 94 5a 3d 1b 58 19 3e 6c 0d 49 3d
       -0.16138639 0.053363897 0.14975016 0.049085066
000060 36 bd 2d be a7 61 8e bd 35 03 b0 3d b9 22 23 3e
       -0.1696671 -0.069522195 0.08594362 0.15931214
000070 68 57 84 bd 94 ed 81 3d 4b 68 99 3c db 70 20 bd
       -0.06461984 0.063441426 0.018726489 -0.039170127
000080 07 9f 57 3d e5 57 95 3c 23 66 24 be 60 67 9d 3d
       0.052641895 0.018230388 -0.16054587 0.07685733
000090 f4 98 2b bc 2c a8 0d 3e 68 08 8c 3d f9 1b 9b bd
       -0.010473479 0.13833684 0.06837541 -0.07573695
0000a0 80 79 bb 3d 36 bf 11 3e 55 7c 8a 3d 75 97 0d be
       0.09154034 0.14233097 0.06761996 -0.13827308
0000b0 29 7b cc bd af 1b a8 3d 33 a9 8d bd 3c de 4a 3e
       -0.099844284 0.08208405 -0.06917038 0.19811338
0000c0 84 c8 1e be 74 6e 24 3e f2 1a 9e 3d 3c 54 50 3d
       -0.15506178 0.1605776 0.07719983 0.050861582
0000d0 9b 19 2f bd 6f 1e 28 be 3e b3 78 3d a6 2e a4 bd
       -0.04274903 -0.1641786 0.060717814 -0.0801671
0000e0 bc 0c 20 bd 35 7d 54 bd 43 b5 3f 3e 7c 4b 0a 3e
       -0.039074644 -0.05187722 0.1872149 0.13505358
0000f0 1a c3 2b 3e fe 3a c2 bd f2 1f ae bd 79 b4 0b bc
       0.16773644 -0.09483908 -0.08502187 -0.008526915
000100 52 ce 62 3d 95 43 b5 3d f6 79 65 bd 0a e2 81 3d
       0.055372544 0.08850781 -0.056024514 0.06341942
000110 49 e5 55 bf 3a f6 c9 3c 24 95 45 be 25 ff 63 3d
       -0.83552986 0.024653543 -0.19295174 0.055663247
000120 41 eb 40 be 08 9d d8 bc b1 24 96 be 38 fb 5f 3e
       -0.18839742 -0.026442066 -0.29324868 0.21873176
000130 2c a0 85 3e ab 65 8a 3d a1 51 37 bf 25 92 9d bd
       0.26098764 0.06757673 -0.7160893 -0.076938905
000140 02 2c e4 be 62 7c 8e be ea e7 c7 3e 10 93 78 3e
       -0.44564825 -0.27829272 0.39044124 0.2427485
000150 45 fc d3 bd db 62 5d 3c f9 55 06 3d b8 60 2e bc
       -0.10350851 0.0135123385 0.032796834 -0.010643177
000160 2a ee ac bd 16 bd fc bc 2a 79 f3 bd 4b 6c 93 3d
       -0.08443864 -0.030851882 -0.118883446 0.071983896
000170 c2 9d ae bd 6f 89 f3 3d 0a 9d bd bc 95 12 86 3d
       -0.08526184 0.11891448 -0.023146171 0.06546513
000180 fe bb bd bc 1f 02 d8 3d 0b fe ca bd 68 43 e6 3c
       -0.02316093 0.105472796 -0.09911736 0.028108314
000190 82 fc 87 3d d8 b7 d1 bc d8 ad 2d 3e d2 4a cd bd
       0.06639959 -0.025600359 0.16960847 -0.100240365
0001a0 59 ea 15 be aa 9c 3c bd 92 fc 1e 3d 22 81 05 3c
       -0.14640178 -0.046047844 0.03881509 0.008148463
0001b0 52 3b c0 3d a2 25 48 3d 1c 0c 1b bd 82 6c 97 3d
       0.093863145 0.048864014 -0.037853345 0.07393743
0001c0 81 99 a2 bc c7 3f 3a bd 17 1b 21 bd 7e 51 44 3e
       -0.019848587 -0.04547098 -0.039332476 0.19171712
0001d0 94 74 fc 3c a6 90 7b 3e c9 30 b0 bd a1 77 16 bd
       0.030817308 0.24566898 -0.08603055 -0.03673518
0001e0 4f ce 91 3c 47 de 92 bd 64 61 32 3c 2b 4b 1e 3e
       0.01779857 -0.07171302 0.010887478 0.15458362
0001f0 f4 f5 4f 3e 31 42 22 bd 85 03 73 bc 5a b7 91 bc
       0.20308667 -0.039613906 -0.014832382 -0.017787624
000200 2e 6e 1a 3e 09 a7 f5 3d d2 04 81 3d af 72 40 3e
       0.15081093 0.1199475 0.062997475 0.18793748
000210 63 9a b4 bb 89 4d 1d 3d 69 8d b2 bc 04 09 29 3c
       -0.0055115684 0.03840402 -0.021795945 0.010317091
000220 1e 46 7b 3d e1 ea 4a be 83 5f fb bd c1 e0 40 3d
       0.061346166 -0.19816162 -0.12274077 0.047089342
000230 ce 76 4f 3c 45 68 12 3e ea 68 de 3d 14 c9 1c 3e
       0.012662603 0.14297588 0.108598545 0.1531108
000240 00 f7 e7 be f1 6e ea bd f8 89 12 3e 2e 97 be be
       -0.45305634 -0.11446942 0.14310443 -0.37224716
000250 d1 af 40 be b6 c3 85 be 5c 16 de be 85 69 56 bd
       -0.18817069 -0.26125878 -0.43376434 -0.052346725
000260 93 66 6a 3e e5 f1 b3 be 76 d0 a0 3e 16 02 c8 3d
       0.22890691 -0.35145488 0.31409043 0.09766023
000270 b7 1d 8a bc d8 ce 8b 3e 59 96 63 be c0 06 8f bd
       -0.016859872 0.27306247 -0.22225322 -0.06983709
000280 5d 4c 3d bd 14 5d e1 bb 80 4f 65 bd 9b 1c 62 bd
       -0.046215404 -0.006877551 -0.05598402 -0.05520306
000290 4a ec f5 bd 39 18 86 3c 40 34 85 bd ae 26 0a bd
       -0.12007959 0.016368972 -0.065041065 -0.033728294
0002a0 b2 e1 67 bd b3 99 d1 bb 86 97 a0 bd 42 38 e6 3d
       -0.056611724 -0.006396496 -0.07841401 0.11241199
0002b0 b4 c1 53 3d 68 7d 54 bd 3a 72 f7 bd 40 4e fa 3d
       0.0516984 -0.05187741 -0.12082334 0.12221956
0002c0 c8 68 99 bd 3d 27 7f bd 55 65 be bd 84 ee ef bc
       -0.074906886 -0.06229328 -0.09296671 -0.029288538
0002d0 92 b7 61 3e 9b c9 01 bd b6 e6 c6 3d fa d7 6f 3d
       0.22042683 -0.031686407 0.09711973 0.05855558
0002e0 08 0e 79 3c 45 95 5a bd 4f a5 0b bd da 11 82 3b
       0.015201099 -0.05336501 -0.034093197 0.003969413
0002f0 44 75 05 be d4 01 b4 bd f4 fc 5f 3c 42 ab 87 bd
       -0.13033015 -0.08789411 0.013671149 -0.06624462
000300 92 7a 4a 3e b0 1e 08 bc 84 71 12 bd 2c b0 78 bc
       0.1977332 -0.008308098 -0.03575279 -0.015178721
000310 3c 10 de 3d c0 5d c1 bd 0b 4b 29 3d 9f 36 2a be
       0.1084294 -0.094417095 0.041331332 -0.16622399
000320 a2 2e c3 3d 69 4a 44 3d c0 c4 fa 3d e5 19 fc bd
       0.09530379 0.047922526 0.12244558 -0.123096265
000330 a3 78 f4 3c 19 5d 36 bd c4 87 e2 bd da ac 86 bd
       0.02984268 -0.04452238 -0.110610515 -0.065759376
000340 dd f3 19 be a6 6e 19 3e 04 50 34 be 29 c4 34 be
       -0.15034433 0.14983615 -0.17608649 -0.17652954
000350 19 c3 73 3e 08 15 87 bd fd 9b 70 bd 14 8e f0 3d
       0.23804893 -0.06595808 -0.058742512 0.11745849
000360 42 4a b8 3b e3 02 85 bd 55 2e 33 be b1 91 5c bc
       0.0056240866 -0.06494691 -0.17498143 -0.01346247
000370 95 8e 70 3e 42 36 81 be fc 1c 92 3e 59 fe 3f bf
       0.2349189 -0.25236708 0.28537738 -0.7499748
000380 98 f2 df 3d 5d 15 63 bd b5 01 6b 3e 8c 1f be be
       0.10934943 -0.055440295 0.2294987 -0.37133443
000390 46 03 d2 3e 61 59 5b 3f ae 34 14 3d 70 a4 1d bf
       0.41018122 0.85683256 0.03618305 -0.61579037
0003a0 2a c9 9c 3e df a0 4b 3e d9 8a 5e bf 8a 67 b6 be
       0.30622226 0.19885586 -0.86930615 -0.3562587
0003b0 35 69 2d bd e8 02 6a 3c 8f 0b 82 bd 93 80 82 be
       -0.04233666 0.0142829195 -0.06349861 -0.2548872
0003c0 56 e4 4c 3d 42 28 82 3e 3c 4d 0c be 71 85 f7 3d
       0.050022446 0.2542134 -0.13701338 0.12085999
0003d0 58 d5 02 3e eb 03 8c bd 51 0f ee bd 28 35 c5 3c
       0.12776697 -0.06836685 -0.11624015 0.024073198
0003e0 cb 10 d4 bc 02 85 d3 3d 56 c0 32 3d 54 ab 8f bd
       -0.025886914 0.103281036 0.043640457 -0.070151
0003f0 2a af cd 3d 1c 85 06 3d 0f 52 d7 3c 2b 2d c4 3c
       0.100431755 0.032841787 0.026284246 0.023947319

W_readout f4 [1, 8]
000000 71 07 da bf 8a 86 02 be ac ef 5c 3f 26 04 d7 be
       -1.7033521 -0.12746635 0.8630321 -0.41995353
000010 1e e6 59 3f 9d 07 05 3f 1c 90 90 3d ad 86 23 be
       0.85116756 0.5196474 0.07058737 -0.15969343

bias f4 [76]
000000 ec 31 32 3e 98 19 01 bd 09 7c 74 3e e8 6d 3d 3e
       0.17401856 -0.03151855 0.2387544 0.18498957
000010 58 f7 a5 3d 9d 7b 5c 3e 81 11 28 bd 6f 8b ca bd
       0.08103818 0.2153153 -0.041032318 -0.09889876
000020 cd cc cc 3d cd cc cc 3d cd cc cc 3d cd cc cc 3d
       0.1 0.1 0.1 0.1
000030 cd cc cc 3d cd cc cc 3d cd cc cc 3d cd cc cc 3d
       0.1 0.1 0.1 0.1
000040 cd cc cc 3d cd cc cc 3d cd cc cc 3d cd cc cc 3d
       0.1 0.1 0.1 0.1
000050 cd cc cc 3d cd cc cc 3d cd cc cc 3d cd cc cc 3d
       0.1 0.1 0.1 0.1
000060 cd cc cc 3d cd cc cc 3d cd cc cc 3d cd cc cc 3d
       0.1 0.1 0.1 0.1
000070 cd cc cc 3d cd cc cc 3d cd cc cc 3d cd cc cc 3d
       0.1 0.1 0.1 0.1
000080 cd cc cc 3d cd cc cc 3d cd cc cc 3d cd cc cc 3d
       0.1 0.1 0.1 0.1
000090 cd cc cc 3d cd cc cc 3d cd cc cc 3d cd cc cc 3d
       0.1 0.1 0.1 0.1
0000a0 cd cc cc 3d cd cc cc 3d cd cc cc 3d cd cc cc 3d
       0.1 0.1 0.1 0.1
0000b0 cd cc cc 3d cd cc cc 3d cd cc cc 3d cd cc cc 3d
       0.1 0.1 0.1 0.1
0000c0 cd cc cc 3d cd cc cc 3d cd cc cc 3d cd cc cc 3d
       0.1 0.1 0.1 0.1
0000d0 cd cc cc 3d cd cc cc 3d cd cc cc 3d cd cc cc 3d
       0.1 0.1 0.1 0.1
0000e0 cd cc cc 3d cd cc cc 3d cd cc cc 3d cd cc cc 3d
       0.1 0.1 0.1 0.1
0000f0 cd cc cc 3d cd cc cc 3d cd cc cc 3d cd cc cc 3d
       0.1 0.1 0.1 0.1
000100 cd cc cc 3d cd cc cc 3d cd cc cc 3d cd cc cc 3d
       0.1 0.1 0.1 0.1
000110 9b 38 87 bc 4e f9 21 3e 1b b0 ba bb a8 6b cb be
       -0.016506484 0.15817758 -0.005697263 -0.39730573
000120 49 f0 c3 bc 15 6f 77 bc 3d bc 9d be 61 0e 8e 3d
       -0.023918288 -0.015102168 -0.30807677 0.06936336

W_ext f4 [8, 2]
000000 70 84 ff be 4d cb b0 bf a3 46 f7 bf 14 00 83 be
       -0.4990573 -1.3812042 -1.9318432 -0.25585997
000010 8f 3f 1c bf 70 80 67 3e df 05 56 3f 3d 60 a6 3e
       -0.6103448 0.22607589 0.8360271 0.324953
000020 82 9b 80 be e3 a8 b3 bf c4 37 12 bf 52 10 60 bf
       -0.25118643 -1.4035915 -0.5711634 -0.875249
000030 65 7c 09 be 72 23 b6 3f f1 a8 5b bc ae fe bd bf
       -0.13426359 1.4229567 -0.013406978 -1.4843347
