DrosophilaLabRot/data_store/mbon_sensitivity/second_order_nets/trained_nets/08_mbons/second_order_5000ep_1hop_N01.pt (torch_old, 24247 bytes, 4 tensors)

W_recur f4 [76, 76]
0	0xbda08b6d	-0.07839093
1	0x3e26953e	0.16267869
2	0xbe45351e	-0.19258544
3	0x3eebd888	0.46063638
4	0xbe5ae0bf	-0.21374796
5	0xbe850ad9	-0.2598484
6	0x3e68b242	0.2272425
7	0xbcb79c09	-0.02241327
8	0x3d7e0290	0.062014163
9	0x3e0e2508	0.13881314
10	0x3dfca27f	0.12335681
11	0xbdc05512	-0.09391226
12	0xbd5985c2	-0.053106077
13	0x3d8b03ea	0.06787856
14	0xbd943278	-0.07236189
15	0x3cae29de	0.021260198
16	0x3e17ed80	0.14836693
17	0x3d89a344	0.067205936
18	0xbccccf12	-0.025001083
19	0x3d398f4a	0.045302667
20	0xbcbd7eb1	-0.0231317
21	0x3df3f7cc	0.11912498
22	0xbd99d5f4	-0.075115114
23	0xbe2089b6	-0.15677533
24	0xbd806fd0	-0.062713265
25	0x3e7e8a83	0.24857526
26	0x3dbc61b7	0.09198325
27	0xbb167f4e	-0.0022964063
28	0xbd8712f7	-0.06595414
29	0x3d04ecb9	0.03245232
30	0x3b9bdc34	0.004756475
31	0xbdb92867	-0.09040909
32	0xbcaa4ee1	-0.020789566
33	0x3d37c9e2	0.044870265
34	0x3d340eeb	0.04395954
35	0xbce1c790	-0.02756098
36	0xbc03bdd1	-0.008040861
37	0xbe1b710a	-0.1517984
38	0x3e1a50fe	0.15069959
39	0xbd05ed9a	-0.032697298
40	0xbc366e0b	-0.011134635
41	0xbad60b6b	-0.0016330307
42	0xbd950b1a	-0.07277508
43	0xbcb0db76	-0.021589022
44	0xbe13b77f	-0.14425467
45	0xbd2aea0d	-0.041727114
46	0x3c00dbd1	0.007864908
47	0xbdffdc22	-0.12493159
48	0x3e570cd5	0.21000989
49	0x3c618b16	0.013766071
50	0x3c6f31f8	0.014599316
51	0xbe4587fb	-0.19290154
52	0x3d9e336b	0.07724651
53	0x3cb27a9f	0.021786986
54	0xbd481221	-0.048845414
55	0x3dcdf46f	0.10056388
56	0xbd3f2ea4	-0.04667534
57	0xbe9ab889	-0.30218914
58	0x3ddbb4af	0.10727822
59	0xbcdb09b0	-0.026738018
60	0x3dbb2767	0.09138375
61	0xbdd90a34	-0.10597649
62	0xbd242595	-0.040074904
63	0x3df23080	0.11825657
64	0x3d0ef395	0.034900267
65	0xbda7f76b	-0.08201488
66	0xbe241e03	-0.16027074
67	0xbd4b93cf	-0.049701508
68	0x3d60dd3e	0.054898493
69	0x3e432fb3	0.19061165
70	0xbe6653b8	-0.22492874
71	0x3ed49e1a	0.41526872
72	0xbdda8019	-0.10668964
73	0xbd7a406d	-0.061096597
74	0x3e9bffd8	0.3046863
75	0xbbab49bc	-0.0052272957
76	0x3f06cd7a	0.5265728
77	0x3e9d0ac1	0.30672267
78	0xbd7db9ba	-0.0619447
79	0x3de92f84	0.11386016
80	0x3ed91c9f	0.4240465
81	0xbef2a979	-0.47394922
82	0xbd0b18c9	-0.033959184
83	0x3dc1c72c	0.09461817
84	0x3e515ccb	0.20445554
85	0x3c9aefd4	0.018913187
86	0xbdd80fc4	-0.10549882
87	0xbdf45dd1	-0.119319566
88	0x3dba0260	0.09082484
89	0xbc21b55a	-0.009869898
90	0xbd5932bb	-0.053026896
91	0xbd487ae6	-0.04894533
92	0x3c925fa0	0.017867863
93	0x3e5b0eaf	0.2139232
94	0xbc3db523	-0.011578831
95	0x3d2d116e	0.04225295
96	0xbe7d7b45	-0.24754055
97	0x3d33a1d6	0.04385551
98	0xbb9af447	-0.004728827
99	0xbd2f19e3	-0.042749297
100	0x3cb2d361	0.021829309
101	0xbdc7c3e5	-0.09754161
102	0xbc436769	-0.01192651
103	0x3bf50a67	0.0074780467
104	0x3db2a18a	0.087222174
105	0x3d072f3a	0.033004023
106	0xbac59afd	-0.0015076097
107	0x3d872fdd	0.06600926
108	0x3df77062	0.12081982
109	0x3c772fb7	0.01508706
110	0x3de4056d	0.111338474
111	0xbde9698e	-0.11397086
112	0x3daebc63	0.08532026
113	0x3d356ddb	0.04429422
114	0xbbe6e206	-0.007045987
115	0xbd83fdc5	-0.06444887
116	0x3dd80047	0.10546928
117	0xbe2e5f87	-0.17028628
118	0xbe74ac58	-0.23893869
119	0x3cbe3898	0.023220345
120	0xbdab327f	-0.08359241
121	0xbe24038d	-0.1601698
122	0xbdfb06d7	-0.12257164
123	0x3e1e4360	0.15455389
124	0xbd36184c	-0.044456765
125	0xbd81f249	-0.0634504
126	0x3cee145f	0.029062448
127	0xbe07b755	-0.1325353
128	0xbd39a6a6	-0.045324944
129	0x3ccb2a08	0.024800315
130	0xbd9e7d1f	-0.07738709
131	0x3d9da39c	0.07697222
132	0xbe960973	-0.29304084
133	0xbe07db34	-0.13267213
134	0x3ce046ec	0.027377568
135	0x3d53cb3c	0.05170749
136	0xbb795d75	-0.003805009
137	0x3d01a5d9	0.031652305
138	0x3d568115	0.052369196
139	0x3d10ccc5	0.035351533
140	0x3db5577a	0.088545755
141	0xbdbea3aa	-0.0930856
142	0xbda9d228	-0.08292037
143	0x3d768561	0.060185794
144	0xbf3b7fb6	-0.73241746
145	0x3ead9590	0.3390317
146	0x3dfea2b6	0.124333784
147	0xbe91fa35	-0.28511205
148	0xbf006133	-0.50148314
149	0xbed5e25b	-0.41774258
150	0xbe33011d	-0.17480893
151	0x3c571845	0.013128345
152	0x3da52b73	0.08064928
153	0xbe7c4ea0	-0.24639368
154	0xbd0c3231	-0.034227554
155	0xbe3a8537	-0.1821488
156	0x3f152369	0.58257157
157	0x3e03f56a	0.12886587
158	0x3ee581f2	0.44825703
159	0xbf0fcd46	-0.561726
160	0xbe7733bb	-0.24140827
161	0x3d4c83ed	0.0499305
162	0x3b2618ce	0.0025344375
163	0xbca1b5f2	-0.019740079
164	0x3d1c3971	0.038140718
165	0x3cbde7a0	0.023181736
166	0x3dd2cf71	0.102934726
167	0xbdee9db8	-0.11651176
168	0x3c39c0fb	0.011337514
169	0x3cb23bc5	0.021757016
170	0x3e8649a4	0.26228058
171	0xbd589bde	-0.05288302
172	0xbe9521c4	-0.29127324
173	0xbd082039	-0.033233855
174	0xbe0a0564	-0.13478619
175	0x3d50f81c	0.051017866
176	0x3d0b625f	0.03402936
177	0xbc8e0e9f	-0.017340956
178	0x3de643d0	0.11243403
179	0xbe076fe1	-0.13226272
180	0xbd78bd26	-0.06072726
181	0x3e17439a	0.14771882
182	0xbda2513a	-0.07925649
183	0x3d889a23	0.06670024
184	0x3e353ed7	0.17699753
185	0x3d59c1a8	0.0531632
186	0x3c877c27	0.016538693
187	0xbdd10f5f	-0.1020801
188	0xbdda5c64	-0.10662153
189	0x3d42b2f7	0.047533955
190	0x3e4724e7	0.19447671
191	0x3d878f5b	0.0661914
192	0xbc04d010	-0.008106247
193	0x3c853bcd	0.016263867
194	0xbd8cd853	-0.06877198
195	0x3d59cd48	0.053174287
196	0xbd8852e3	-0.066564344
197	0x3cbe503a	0.023231614
198	0x3da189f1	0.07887638
199	0x3dd62b36	0.104574606
200	0xbda7c347	-0.08191543
201	0xbe1605ac	-0.14650601
202	0x3d4da22a	0.05020348
203	0xbd1d646f	-0.03842586
204	0xbd43919d	-0.04774629
205	0xbd124beb	-0.035716932
206	0x3cb69ee1	0.022292556
207	0x3d55c1d8	0.052186817
208	0xbd81e130	-0.06341779
209	0x3d1ff21f	0.039049264
210	0xbc4c59b8	-0.0124725625
211	0x3dae7bee	0.085197315
212	0xbd8a0abb	-0.06740328
213	0xbd9f3837	-0.07774394
214	0x3d87904a	0.06619318
215	0xbbb87f77	-0.0056304294
216	0xbe294a61	-0.1653228
217	0x3d81fc40	0.06346941
218	0x3dce3061	0.10067821
219	0xbe00b152	-0.12567642
220	0xbe90e0b7	-0.28296444
221	0xbf2487fb	-0.6426999
222	0x3ed5ab83	0.41732416
223	0xbe9fc292	-0.31203133
224	0x3da1e6f5	0.0790538
225	0x3dcdf793	0.10056987
226	0x3eb74bdf	0.35800073
227	0x3e0a7351	0.13520552
228	0xbe9cf829	-0.3065808
229	0xbe7d729e	-0.24750754
230	0x3ea99216	0.33119267
231	0xbefccfef	-0.4937739
232	0xbd999a10	-0.07500088
233	0x3e895bd6	0.26827878
234	0xbe0c2889	-0.13687338
235	0x3e51b360	0.20478582
236	0xbe33b47d	-0.1754932
237	0xbcede3f6	-0.029039364
238	0x3e566b4a	0.20939365
239	0xbd8e36ed	-0.0694407
240	0xbdd2e65f	-0.10297846
241	0x3d227598	0.039662927
242	0xbce9dc71	-0.028547497
243	0xbd8b37aa	-0.067977265
244	0xbd5fd6bf	-0.054648157
245	0xbd050d8a	-0.032483615
246	0xbcdccea8	-0.02695401
247	0x3d989625	0.07450513
248	0xbd4d48b9	-0.05011818
249	0x3d4caddd	0.049970496
250	0x3dd02943	0.1016412
251	0xbddac900	-0.10682869
252	0xbac79bb8	-0.0015228903
253	0xbc9df967	-0.019283963
254	0xbc92ac99	-0.017904567
255	0x3d10a969	0.035317812

W_readout f4 [1, 8]
0	0x3f2c77d0	0.6737032
1	0xbeb5894b	-0.3545631
2	0x3f20843b	0.6270177
3	0xbfb57822	-1.4177287
4	0x3f8254f7	1.0182179
5	0x3f8147f1	1.010008
6	0xbee96bed	-0.45590153
7	0xbef90b15	-0.48641267

bias f4 [76]
0	0x3e1f8ed4	0.15581828
1	0x3e4fc548	0.202901
2	0xbe77e600	-0.24208832
3	0x3d14302b	0.03617875
4	0x3d860101	0.0654316
5	0x3d66d871	0.05635876
6	0x3ab8cb89	0.0014098744
7	0x3e5ca3a6	0.21546802
8	0x3dcccccd	0.1
9	0x3dcccccd	0.1
10	0x3dcccccd	0.1
11	0x3dcccccd	0.1
12	0x3dcccccd	0.1
13	0x3dcccccd	0.1
14	0x3dcccccd	0.1
15	0x3dcccccd	0.1
16	0x3dcccccd	0.1
17	0x3dcccccd	0.1
18	0x3dcccccd	0.1
19	0x3dcccccd	0.1
20	0x3dcccccd	0.1
21	0x3dcccccd	0.1
22	0x3dcccccd	0.1
23	0x3dcccccd	0.1
24	0x3dcccccd	0.1
25	0x3dcccccd	0.1
26	0x3dcccccd	0.1
27	0x3dcccccd	0.1
28	0x3dcccccd	0.1
29	0x3dcccccd	0.1
30	0x3dcccccd	0.1
31	0x3dcccccd	0.1
32	0x3dcccccd	0.1
33	0x3dcccccd	0.1
34	0x3dcccccd	0.1
35	0x3dcccccd	0.1
36	0x3dcccccd	0.1
37	0x3dcccccd	0.1
38	0x3dcccccd	0.1
39	0x3dcccccd	0.1
40	0x3dcccccd	0.1
41	0x3dcccccd	0.1
42	0x3dcccccd	0.1
43	0x3dcccccd	0.1
44	0x3dcccccd	0.1
45	0x3dcccccd	0.1
46	0x3dcccccd	0.1
47	0x3dcccccd	0.1
48	0x3dcccccd	0.1
49	0x3dcccccd	0.1
50	0x3dcccccd	0.1
51	0x3dcccccd	0.1
52	0x3dcccccd	0.1
53	0x3dcccccd	0.1
54	0x3dcccccd	0.1
55	0x3dcccccd	0.1
56	0x3dcccccd	0.1
57	0x3dcccccd	0.1
58	0x3dcccccd	0.1
59	0x3dcccccd	0.1
60	0x3dcccccd	0.1
61	0x3dcccccd	0.1
62	0x3dcccccd	0.1
63	0x3dcccccd	0.1
64	0x3dcccccd	0.1
65	0x3dcccccd	0.1
66	0x3dcccccd	0.1
67	0x3dcccccd	0.1
68	0xbe130eb1	-0.14361073
69	0x3cef25ef	0.029192893
70	0xbdb33d82	-0.08751966
71	0xbd910dd6	-0.07082717
72	0x3ddd360c	0.10801324
73	0xbda67612	-0.08127989
74	0xbedf7227	-0.4364178
75	0x3c2cfae8	0.010557868

W_ext f4 [8, 2]
0	0xbe921369	-0.28530434
1	0x3edc79cb	0.4306167
2	0xbe959d3c	-0.29221523
3	0xbd89b5f5	-0.06724159
4	0xbdba3af3	-0.09093275
5	0x3ea0b720	0.31389713
6	0x3ea56913	0.32306728
7	0xbf079412	-0.5296031
8	0x3e1ee446	0.15516767
9	0xbeef84d6	-0.46781033
10	0xbf307050	-0.68921375
11	0x3ed3752b	0.4130033
12	0x3f61ff73	0.8828041
13	0xbf5ddb33	-0.86662596
14	0xbbf2ddd9	-0.0074117
15	0x3e06d70b	0.1316797
