DrosophilaLabRot/data_store/mbon_sensitivity/first_order_nets/trained_nets/07_mbons/first_order_2000ep_1hop_N04.pt (torch_old, 23027 bytes, 4 tensors)

W_recur f4 [74, 74]
000000 0f f5 e5 be fa a1 be 3e 8a ad 0a 3f 65 6f 01 bc
       -0.44913527 0.37232953 0.5417105 -0.007900094
000010 04 1f 14 3e 8e 5f fa 3d 8b 50 22 bf ee 5c 2c 3d
       0.14464957 0.12225257 -0.6340415 0.042080812
000020 48 6e 73 bd c5 a2 f8 3c e1 87 3d bd 6e 42 fc bd
       -0.059431344 0.030351052 -0.046272162 -0.12317358
000030 d4 86 82 bd ee c3 63 be cf 10 ca 3a bc 4c c9 bd
       -0.06373373 -0.2224271 0.0015416386 -0.09829089
000040 5a 1b 8c 3d 75 6c bb bd 31 6c ca bd f0 8f 0b 3c
       0.068411544 -0.09151546 -0.09883917 0.008518204
000050 2c da 09 3d 87 1a c0 3d 1e 71 e9 bd aa 2b 01 be
       0.03365533 0.0938006 -0.113985285 -0.12614313
000060 2d 75 15 3e 4b b9 7c 3d 98 36 2c bd fa 0b 37 be
       0.1459548 0.061700147 -0.042044252 -0.17875662
000070 32 1c dd b9 28 1c 83 be a9 16 96 3d 5c 5e a4 bd
       -0.00042173412 -0.2560742 0.07328541 -0.0802581
000080 47 3f dc 3c c4 b9 62 bc e9 73 52 bd 25 fd 44 bc
       0.026885642 -0.013838235 -0.05138007 -0.012023245
000090 79 72 98 3d 48 d3 40 3e f5 37 a0 3c 92 2f 70 3d
       0.07443709 0.18830597 0.019557932 0.058639117
0000a0 6c 8a 45 3e f0 45 53 3e 26 8b 98 3d 2c ba 17 3e
       0.19291085 0.20632148 0.074484155 0.14817113
0000b0 86 3c 65 bd 5b 75 59 bd f5 53 e7 bd f1 e6 d1 bd
       -0.055965923 -0.053090435 -0.112953104 -0.10249127
0000c0 2e ba 41 3d 18 8b fe 3d 77 9b 27 be f1 73 69 be
       0.047296695 0.12428874 -0.16367899 -0.22798134
0000d0 45 86 f3 bc 4e 31 68 be b1 39 bb bd 33 c1 a3 3c
       -0.02972711 -0.22675058 -0.09141863 0.019989586
0000e0 9d 3b 74 bd c5 b9 31 be 7a 88 aa bd 55 f6 45 bd
       -0.059627164 -0.17356022 -0.08326812 -0.048330624
0000f0 3e 0d 81 3b e2 97 ee bd d9 da 11 be c1 c9 48 bd
       0.003938346 -0.11650063 -0.1424364 -0.049020533
000100 87 5d f1 3d 36 47 49 be 22 72 b9 bd 91 7d 8f 3e
       0.11785417 -0.19656071 -0.09054972 0.28025487
000110 ff 23 ad bd 3c fb 89 bd 13 11 1d 3f 40 15 29 3e
       -0.08454131 -0.06737372 0.6135418 0.16512012
000120 d9 34 90 be 0f 71 0e be 51 a5 d2 3d 87 6c 53 be
       -0.2816532 -0.13910316 0.10285438 -0.20646869
000130 f0 94 fe 3d 92 ce 76 3e 40 6d c3 3d 62 00 ca bd
       0.12430751 0.24102238 0.09542322 -0.09863354
000140 c7 94 a8 bd 18 ab 0b bd 3e d2 62 3d 9c 43 08 be
       -0.08231502 -0.034098715 0.055376284 -0.13307041
000150 dc 21 02 3e 1a a2 bd 3c 34 b1 c3 3c c4 b9 08 3d
       0.12708229 0.023148585 0.023888208 0.033380285
000160 74 d8 81 3d 43 4c cd 3d 16 e5 f8 3d f9 a0 0d be
       0.06340113 0.100243114 0.1215307 -0.13830937
000170 8b 59 47 be 13 cd 8e bc 0f cd 0c bc f0 8d 30 bd
       -0.19467752 -0.017431771 -0.008593812 -0.043104112
000180 f2 f6 a7 3d f6 f9 8b bc bb 73 01 3d b9 5f 4b 3d
       0.08201398 -0.017086964 0.03160451 0.049651835
000190 c3 67 d4 bd 30 93 ac bd 9c e7 d0 3d 42 a5 2b 3e
       -0.103713535 -0.08426511 0.10200426 0.1676226
0001a0 6e 5b 87 3d fc 4d 41 3d 98 aa 64 3c ef 0f 1f be
       0.06609236 0.047193512 0.013956688 -0.15533422
0001b0 5b 8a c8 3d e0 a4 18 bc ae c1 d7 bd 7f cb 21 bd
       0.09792014 -0.009316653 -0.10534988 -0.03950071
0001c0 5e 96 4e 3d d5 dd c8 bc 7e 57 cd 3d 09 ba e6 bd
       0.05043637 -0.02451984 0.100264534 -0.11265952
0001d0 9f 06 c1 3d 34 0d 72 3d 8a e9 24 3e 4f c2 12 3d
       0.09425091 0.059094623 0.16104713 0.03582984
0001e0 9d 87 39 3c 8c e0 9d bd b5 d5 3e 3e 14 61 b7 bd
       0.011323837 -0.077088445 0.1863621 -0.08954063
0001f0 a9 28 85 bc ba 6e ce bd 9f 04 81 bc ca c5 15 be
       -0.01625474 -0.10079713 -0.015749274 -0.14626232
000200 a0 a8 ae 3d 60 c6 3d be c4 42 04 3d f5 7f 04 3e
       0.085282564 -0.18532705 0.032290235 0.12939437
000210 d1 4f 01 3e 27 7d cb 3b 10 d7 ba bd 69 89 50 3e
       0.12628104 0.0062099877 -0.09123051 0.20364918
000220 fc 47 07 be 4b a0 ff 3d c9 e6 65 3e 35 8b fd bc
       -0.13211054 0.12481745 0.22451319 -0.030950168
000230 cd a1 cc bc 8a a5 c8 3e 89 1f 88 3e 47 17 21 be
       -0.024979496 0.39188796 0.2658656 -0.15731536
000240 9e 9f b3 be b9 b7 cb 3e d5 46 82 be 28 43 24 3e
       -0.35082716 0.39788607 -0.25444666 0.16041243
000250 47 33 cc 3e 10 45 8d 3e 4c 1c ba bb 5a d5 aa 3e
       0.39882872 0.27591753 -0.005679643 0.333659
000260 5e d7 33 bf a4 c8 89 be 98 0f a3 3e e9 a2 3f bc
       -0.702505 -0.2691089 0.31847835 -0.011696556
000270 ab e2 89 3d a2 a1 ec bc 8f 33 0c be f7 e0 8c 3d
       0.067326866 -0.028885666 -0.13691543 0.06878846
000280 a8 d4 1a be 8b 7e 6f be 07 13 66 3c 62 3d 48 3d
       -0.15120184 -0.23388116 0.014042622 0.048886664
000290 54 ea c3 bd 9f 45 03 be 3b 52 a5 3d ed 5c ff 3b
       -0.09566179 -0.12819527 0.08072325 0.00779306
0002a0 15 36 bb 3d fc 58 f0 bc 4d 41 b3 bd da c1 85 bd
       0.09141175 -0.029339306 -0.087526895 -0.06531115
0002b0 49 ea bf bd 48 b3 47 3e 01 f4 f3 3c 46 b9 88 3d
       -0.09370858 0.19501984 0.029779436 0.06675963
0002c0 e0 37 5c 3e cc 56 15 3e f7 ee 8f 3d c8 a9 7d 3e
       0.2150569 0.14583892 0.07028001 0.24771798
0002d0 64 95 ef 3c 70 18 10 bd 66 b7 9c bb f2 ed 6a bc
       0.02924604 -0.035179555 -0.004782605 -0.014338957
0002e0 7f ab 2c 3e f6 92 31 be a3 35 67 bd 90 3c 95 3d
       0.16862296 -0.17341217 -0.056447636 0.07286942
0002f0 5c de 5f 3d 66 95 28 bd 38 d9 8d 3d 50 13 e1 bd
       0.054655418 -0.041158102 0.06926197 -0.10990012
000300 07 93 83 bd 4e b6 e0 3d ef 00 8f 3d 44 20 47 be
       -0.064245276 0.10972272 0.069826 -0.19445902
000310 c1 64 83 3d ad eb ec 3d f4 1b ef 3d ab a9 d5 bd
       0.06415702 0.11568389 0.116752535 -0.10432752
000320 3f 1e fc 3c a7 0b 8b bd 83 3c c3 bd 94 ec ff 3d
       0.030776141 -0.06789332 -0.09533026 0.124962956
000330 f4 3b 26 bd af 45 91 bc b8 b8 2b 3c 05 04 ee bd
       -0.04058452 -0.017733423 0.010481052 -0.116218604
000340 d3 05 0f 3d 07 4b f0 3c 36 66 8d bb cb 24 85 bd
       0.034917664 0.02933265 -0.004315163 -0.06501158
000350 fd 54 b9 bd 19 a6 fe 39 0c 9c 3c bd c2 9e 97 be
       -0.09049413 0.00048570408 -0.046047255 -0.2961331
000360 13 42 58 3f 29 2a 26 be 35 6a 2c 3f 74 b7 01 be
       0.8447582 -0.1622702 0.6734956 -0.12667638
000370 ca ce cb be 77 68 ee 3e 26 cd 29 3c 5a 5e e3 be
       -0.39806205 0.46564075 0.010363853 -0.44407922
000380 fe 6c 29 be d3 49 43 3f 9e 96 33 3e 4b 10 3f 3e
       -0.16545483 0.7628452 0.17537925 0.18658559
000390 d4 3a 81 be 2e d6 e0 bd d0 15 27 be 84 2b 2a 3e
       -0.25240195 -0.109783515 -0.16316915 0.16618162
0003a0 21 4b 1a 3e 06 66 d2 3c 82 56 a6 3d 66 e9 32 3e
       0.15067722 0.025683414 0.08121969 0.17471847
0003b0 2a 06 05 bd 2a 3a b4 bd 0b 19 67 3d d9 8c 2b bc
       -0.03247658 -0.088001564 0.056420367 -0.010470592
0003c0 fa 76 11 bd 31 47 40 bd db 8f 07 3d c2 7b a5 3c
       -0.035513856 -0.046942893 0.033096176 0.020200614
0003d0 86 97 fb 3c ae 0f 00 3e e9 56 d2 3d 9f f8 16 be
       0.0307119 0.12505981 0.10270483 -0.14743279
0003e0 80 24 64 3e fd ae 6d 3d 7f 26 31 3d 72 5a 07 3e
       0.22279549 0.05802821 0.043249603 0.13218096
0003f0 a1 98 b3 bd b4 1d a4 bc 35 78 62 3e 12 47 c8 bd
       -0.08769346 -0.020033695 0.22116168 -0.097791806

W_readout f4 [1, 7]
000000 28 d2 05 bf c1 6c 3e 3e 6d 6e 75 3f 90 f2 30 bf
       -0.522738 0.18596174 0.9587162 -0.6912012
000010 f7 37 f5 be 0f 7e 66 3f 65 39 06 bf
       -0.4789426 0.900361 -0.5243133

bias f4 [74]
000000 47 59 53 3e 03 a0 38 3e a2 3a 2b 3e 03 24 1d be
       0.20639525 0.1802979 0.16721585 -0.15345769
000010 17 18 6d 3e 24 33 88 3d 7b db 90 3d cd cc cc 3d
       0.23153721 0.06650379 0.070731126 0.1
000020 cd cc cc 3d cd cc cc 3d cd cc cc 3d cd cc cc 3d
       0.1 0.1 0.1 0.1
000030 cd cc cc 3d cd cc cc 3d cd cc cc 3d cd cc cc 3d
       0.1 0.1 0.1 0.1
000040 cd cc cc 3d cd cc cc 3d cd cc cc 3d cd cc cc 3d
       0.1 0.1 0.1 0.1
000050 cd cc cc 3d cd cc cc 3d cd cc cc 3d cd cc cc 3d
       0.1 0.1 0.1 0.1
000060 cd cc cc 3d cd cc cc 3d cd cc cc 3d cd cc cc 3d
       0.1 0.1 0.1 0.1
000070 cd cc cc 3d cd cc cc 3d cd cc cc 3d cd cc cc 3d
       0.1 0.1 0.1 0.1
000080 cd cc cc 3d cd cc cc 3d cd cc cc 3d cd cc cc 3d
       0.1 0.1 0.1 0.1
000090 cd cc cc 3d cd cc cc 3d cd cc cc 3d cd cc cc 3d
       0.1 0.1 0.1 0.1
0000a0 cd cc cc 3d cd cc cc 3d cd cc cc 3d cd cc cc 3d
       0.1 0.1 0.1 0.1
0000b0 cd cc cc 3d cd cc cc 3d cd cc cc 3d cd cc cc 3d
       0.1 0.1 0.1 0.1
0000c0 cd cc cc 3d cd cc cc 3d cd cc cc 3d cd cc cc 3d
       0.1 0.1 0.1 0.1
0000d0 cd cc cc 3d cd cc cc 3d cd cc cc 3d cd cc cc 3d
       0.1 0.1 0.1 0.1
0000e0 cd cc cc 3d cd cc cc 3d cd cc cc 3d cd cc cc 3d
       0.1 0.1 0.1 0.1
0000f0 cd cc cc 3d cd cc cc 3d cd cc cc 3d cd cc cc 3d
       0.1 0.1 0.1 0.1
000100 cd cc cc 3d cd cc cc 3d cd cc cc 3d 30 bd 88 3d
       0.1 0.1 0.1 0.0667671
000110 7d 66 ee be 82 1b 88 be 94 2b bc bc 45 49 1c bd
       -0.46562567 -0.26583487 -0.022969998 -0.038155813
000120 d3 87 05 bd 15 ed 54 bc
       -0.032600235 -0.012995978

W_ext f4 [7, 2]
000000 af 2b 84 3e 70 e9 d0 be ec e4 84 3f b5 53 61 3f
       0.25814578 -0.408031 1.0382361 0.8801835
000010 36 7d 33 bf 1d 72 28 3f 53 17 c4 3e 24 67 00 3e
       -0.7011293 0.65799123 0.38299045 0.12539345
000020 af c1 89 bf 34 e7 b0 bf 53 f1 af bf 7d bf 8a 3e
       -1.0762233 -1.3820558 -1.3745521 0.2709922
000030 2e c4 31 bf 54 3f 47 bf
       -0.6943997 -0.77831006
