DrosophilaLabRot/data_store/network_compare/2nd_order_paper/trained_nets/second_order_5000ep_0hop_N06.pt (torch_old, 41703 bytes, 4 tensors)

W_recur f4 [100, 100]
000000 8b 7b bb 3d b4 34 57 bd 74 48 af 3d 36 55 83 be
       0.09154423 -0.052540496 0.08558741 -0.25650948
000010 f0 db 42 3e c5 53 81 bc 52 ed 59 3d c6 2b ab be
       0.19029212 -0.015787015 0.053204842 -0.33431834
000020 0c 85 20 be 36 40 72 3e 23 5d 72 be 15 f8 d7 3e
       -0.15675753 0.23657307 -0.23668341 0.4218146
000030 14 60 7a 3d 16 3a b6 bd c8 eb db 3c 37 20 c8 be
       0.061126783 -0.08897798 0.026845828 -0.39087078
000040 32 26 e7 bd 95 c7 40 3d 16 4e 9a be f9 38 8a 3d
       -0.11286582 0.047065336 -0.301377 0.06749148
000050 a7 c2 6e 3d 08 77 ab 3d 78 32 2d 3c 39 5f 8e bc
       0.058291104 0.08372313 0.010571115 -0.01737939
000060 78 32 c2 bd 18 22 46 be 72 b6 12 be d4 83 07 3e
       -0.094822824 -0.19348943 -0.1432741 0.13233882
000070 7b 78 27 3d 71 af 4a bd c9 fc 29 3e cc f1 be bd
       0.040886384 -0.04948372 0.16600336 -0.09323463
000080 70 29 d7 bc 63 89 a9 bd 8e cf 6b 3d 87 09 b3 bd
       -0.026264876 -0.082781576 0.057570986 -0.087420516
000090 f0 31 26 be 7a 24 81 3c 43 9b c4 bd e1 e8 54 3e
       -0.16229987 0.015764464 -0.09599926 0.20791961
0000a0 ae 4b 6c 3e d5 99 0f 3e d0 c9 11 be 8a b9 30 be
       0.23075745 0.14023526 -0.14237142 -0.17258278
0000b0 8f 87 66 be 15 a6 b7 3c 10 c9 32 3d 93 ac 2d 3d
       -0.22512649 0.022418061 0.04364878 0.042400908
0000c0 64 fd 26 3b 39 9d 92 3d 88 61 c2 bd c0 6b 04 3a
       0.0025480622 0.07158894 -0.09491259 0.00050514564
0000d0 78 98 29 be b2 05 85 3d 88 a1 38 be eb 58 ee bd
       -0.16562068 0.06495227 -0.1803037 -0.116380535
0000e0 20 30 8e 3d ab 24 03 3d a1 3c a8 bd 71 84 1f 3e
       0.06942773 0.03201739 -0.08214689 0.15577866
0000f0 61 f4 80 bd 93 29 03 3e de ca 54 be 01 97 2a 3e
       -0.062966116 0.12808828 -0.20780513 0.16659166
000100 8c 3a d0 3d 74 57 90 3d 70 03 91 be 59 bd cb bd
       0.10167417 0.0704793 -0.28322935 -0.099482246
000110 dd 7d 40 bd 99 17 bc bc 5f ef ba bd 36 e9 ff bd
       -0.046995033 -0.022960471 -0.09127688 -0.12495653
000120 20 86 a7 3d 3b 76 f1 3d 47 fc e4 bd 5d 0a a0 bd
       0.08179879 0.11790129 -0.111809306 -0.07814477
000130 fe ba 85 3c d8 b7 f4 bd 17 d3 eb bd e3 3c 84 bd
       0.016324516 -0.11949128 -0.115148716 -0.06456926
000140 a9 fe 60 be f9 67 ee 3d 3c db 0b bd 15 b2 a9 3e
       -0.21972145 0.11640925 -0.034144625 0.33143678
000150 2d 0f 6c be c7 1e 63 3e 29 6a 42 be 8f bf 79 3e
       -0.23052664 0.2217971 -0.1898581 0.2438948
000160 1f 43 97 bc f6 87 7d 3e d9 23 c9 3d dc 8e 49 bd
       -0.018464623 0.24758896 0.098212905 -0.049208507
000170 05 e9 32 3e e0 52 d4 bd de a4 40 be 2b 33 2a 3e
       0.17471702 -0.1036737 -0.18812892 0.16621082
000180 62 03 23 3e 4c d5 0e 3e cb 3b 57 be 5a fe b7 3d
       0.15919259 0.13948554 -0.21018903 0.089840606
000190 17 a6 0e bc f0 03 b3 bd 1d f1 73 be 05 d8 83 be
       -0.008706591 -0.087409854 -0.23822446 -0.25750747
0001a0 d3 17 fc 3d 68 54 e4 bd 5c f0 29 be 65 fc d3 3d
       0.123092316 -0.11148912 -0.16595596 0.10350875
0001b0 7f e1 72 bd 67 9a 06 be 9c 81 47 bd af f8 02 be
       -0.05929708 -0.13144837 -0.04870759 -0.12790178
0001c0 8c 96 52 3e 48 ac 08 3e a0 da 42 3e 2f cf 21 be
       0.20565242 0.1334697 0.19028711 -0.1580169
0001d0 8a 3a 12 3d 1e 3d a3 3d 65 1a 22 3e 07 05 c5 3e
       0.03570036 0.079706416 0.15830381 0.38480398
0001e0 78 e7 7d be 03 25 20 be c0 30 40 bc 5c db 89 be
       -0.2479533 -0.15639119 -0.011730373 -0.2692517
0001f0 96 4f a0 3e e8 59 cf 3b 30 38 fb bd 11 54 3c bd
       0.3131072 0.0063278563 -0.12266576 -0.04597861
000200 f2 a3 2e be 86 81 df bc 9f 59 0d 3e 3a 4b 61 bd
       -0.17054728 -0.027283441 0.13803719 -0.055003382
000210 e0 f0 29 bc 2b c8 26 3e 86 6b b5 bd e4 50 e3 3c
       -0.0103723705 0.16287296 -0.08858399 0.027748533
000220 13 6d 89 3d a2 d7 97 bd c3 bf 3b be 8e ae 0a be
       0.067102574 -0.074141756 -0.1833487 -0.1354315
000230 8b 57 90 3c 77 d5 fe bd 58 52 0e 3e e7 49 01 be
       0.017619869 -0.12443059 0.13898599 -0.12625848
000240 0d 5b 03 be 31 78 d6 bd 8a cc 9c bd a3 ff 01 be
       -0.12827702 -0.104721434 -0.076562 -0.12695174
000250 90 3d ee bd 85 e1 20 3b a2 01 61 3c 7a c5 86 3b
       -0.11632836 0.0024548483 0.013733299 0.0041128965
000260 0a 36 35 3d aa d4 cf 3d c2 1d b9 bd ac 12 1c bd
       0.04424099 0.10147984 -0.09038879 -0.038103744
000270 c8 78 5b bb f5 b2 40 be 29 6d d4 bd 8c f7 d5 3b
       -0.003348874 -0.18818267 -0.10372383 0.006529754
000280 e2 31 e8 bd e0 f7 36 bb 3c d4 4f 3b fa be 15 be
       -0.113376394 -0.002791874 0.0031712195 -0.14623633
000290 2d 25 2c 3e c8 40 bc bd a5 c4 83 bd ee 32 4c 3b
       0.16811056 -0.091920435 -0.06433991 0.0031158286
0002a0 26 49 9e 3c b6 48 96 bd 54 06 8c 3c 96 24 ac 3d
       0.01932199 -0.07338087 0.017092861 0.08405416
0002b0 6a 1e 45 3e 0f 35 c1 3d 2a 61 0b be 86 6c 0d 3c
       0.19249883 0.09433948 -0.13611284 0.008631831
0002c0 17 8e 73 be 3e 4f 94 3d 37 15 c2 3d 72 d0 07 be
       -0.23784672 0.07241677 0.09476703 -0.1326311
0002d0 9f 77 96 3e 2a 70 8c bd 91 6e 44 be 6c 60 55 be
       0.2938814 -0.06857331 -0.19182803 -0.20837563
0002e0 78 d9 e7 bd c3 7e 0d bf 78 2f b2 3e c7 2c 8e bd
       -0.11320776 -0.5527155 0.3480184 -0.06942134
0002f0 64 13 19 3c c4 e7 6b be 46 f0 f0 3d b9 63 37 3e
       0.009343002 -0.2303763 0.117645785 0.17909135
000300 c1 cc fb bc ea 15 c7 bd 42 08 7d bd 07 37 06 bd
       -0.030737283 -0.09720977 -0.061775453 -0.032767322
000310 ad 8e 7e 3d 28 6d 09 3d da 85 8d bd a9 d7 49 be
       0.062147785 0.033551365 -0.06910296 -0.19711174
000320 fc 16 8c 3e ee 6e b6 be 70 a8 e1 bb 4f 3c e5 3d
       0.27361286 -0.35631508 -0.0068865344 0.111931436
000330 b3 fe cf 3e 92 05 b8 3e ce 9a 0b 3e 5c 2f 17 be
       0.40624008 0.3594175 0.13633272 -0.1476416
000340 13 9b 67 3b 82 58 88 be 6c 9c f3 bd a8 37 c8 3e
       0.0035340234 -0.26630026 -0.118950695 0.39104962
000350 35 08 85 3e 2c 0a 0e be 16 2c 23 bd 96 3f bb bc
       0.25982824 -0.13871068 -0.039836966 -0.022857469
000360 2b 02 62 be 0e 10 8d 3d f2 5f 03 3d 18 2d 28 be
       -0.2207114 0.06887828 0.032073922 -0.16423452
000370 cd 8c 14 3e 25 99 45 bd 4c f7 21 be 4c 5a 91 bc
       0.14506836 -0.048241753 -0.15816993 -0.017743252
000380 43 49 a6 3e da 1d 1c 3d ff 2d 61 be 9a fc 2a 3c
       0.3247777 0.038114406 -0.21990202 0.0104362015
000390 a6 95 ad bd 44 f6 62 3e 59 c4 6a bd 64 a9 a3 3c
       -0.08475809 0.22164255 -0.057316158 0.019978233
0003a0 47 4c 51 3d b1 44 ae bd 1b b3 84 bd ff 9c bc bc
       0.051098134 -0.085091956 -0.06479474 -0.02302408
0003b0 f9 14 2c be 63 4f bc 3d 07 1c 14 3d 0b da 66 be
       -0.16804875 0.09194829 0.03615954 -0.22544114
0003c0 68 14 e0 3c 26 f2 36 3c 84 1d bc bd 30 ec 0e 3e
       0.02735348 0.011166131 -0.09185317 0.13957286
0003d0 de 64 a4 bd ba 1d 0f 3e 89 27 1e be 8f 11 5f 3c
       -0.080270514 0.13976184 -0.15444769 0.013615026
0003e0 44 56 b8 3d b5 75 0a be bd f3 91 bc b7 07 9a 3d
       0.09000829 -0.13521464 -0.017816419 0.07521003
0003f0 60 66 a6 bd 97 f3 4a be b2 bf 8a 39 55 40 2a bd
       -0.08124995 -0.19819485 0.00026464235 -0.041565258

W_readout f4 [1, 20]
000000 cd 0e b8 bd 53 3b f9 be 8a 65 d5 be b4 83 0d be
       -0.08987198 -0.48678073 -0.4167903 -0.13819772
000010 29 ae 1c 3f fd cc 94 bd b2 79 d4 3c 8e ca 91 be
       0.6120325 -0.07265661 0.025936935 -0.2847485
000020 32 2e bd be 74 ef 07 3e a6 47 96 3e a5 b3 2f 3f
       -0.36949307 0.13274938 0.29351538 0.6863349
000030 dc e2 2e 3d 3b 66 ea 3d aa b5 e2 3d 69 7c e0 bc
       0.04269682 0.1144528 0.11069806 -0.027403073
000040 1f c3 01 bf 35 f2 c9 3c 9a 4b 9f be 91 69 29 3f
       -0.50688356 0.024651626 -0.31112367 0.66176707

bias f4 [100]
000000 b7 bf 1c 3d ff 6c ae 3d 77 31 56 3d 18 d8 91 3d
       0.03826877 0.08516883 0.052293267 0.07121295
000010 b6 2c f9 3c 29 83 13 3d 60 20 ae bd 7e 39 8c 3d
       0.030416828 0.036013756 -0.08502269 0.06846903
000020 e6 1d 03 3d 3a f2 c9 3d fa 31 b3 3d 0d 5c 94 3d
       0.032010935 0.09860654 0.08749767 0.0724412
000030 11 b0 8e 3d 24 8b 88 bc 46 2a bb 3c 7d 69 9d bd
       0.06967176 -0.01666791 0.022847306 -0.07686136
000040 1b bd a1 3d 87 4f 6c 3d 0e ca 74 3d 0d 46 2e 3d
       0.07897397 0.05769303 0.059763007 0.042547274
000050 50 95 48 3d d9 d3 2e 3d 53 a2 99 3d 02 4f 80 3d
       0.04897052 0.042682502 0.07501664 0.062650695
000060 f0 57 21 3d d8 46 01 3e 86 b1 f3 3c 65 9c a8 3d
       0.039390504 0.12624681 0.029747736 0.08232955
000070 fc 81 c7 3d a2 5c 16 3d 40 0b 83 3d 9d 05 4d ba
       0.097415894 0.036709435 0.0639863 -0.0007820966
000080 4b 61 6e 3d db f8 5d 3d 0b 70 f1 3d a6 4a ad 3d
       0.058198255 0.054192405 0.117889486 0.08461504
000090 e3 ea 40 3d 59 a0 a3 3d c2 7e c1 3d 9c 5b d4 3d
       0.047099005 0.07989568 0.09448005 0.103690356
0000a0 f3 2b 82 3d e9 ea 9a 3d 81 f9 74 3d fe c6 c7 3d
       0.06356039 0.07564337 0.059808258 0.097547516
0000b0 96 1c 7a 3d c4 43 8e 3d 56 07 99 3d ad 85 ce 3d
       0.061062418 0.06946519 0.07472102 0.100840904
0000c0 78 8b a2 3d 59 b9 16 3d 3f 6b c5 3d d1 54 09 3d
       0.07936758 0.036797855 0.09639596 0.033528153
0000d0 3c 80 5f 3d c9 6c 92 3d 6e b5 88 3d 66 ab 2f 3d
       0.054565653 0.07149655 0.0667523 0.042888068
0000e0 fe 35 8e 3d 71 a3 b6 3d d3 05 c7 3d 23 af bd 3c
       0.06943892 0.08917893 0.09717908 0.0231548
0000f0 70 1f b3 3d ea a1 85 3d 77 7d 81 3d 32 9b 4f 3d
       0.087462306 0.06525023 0.06322759 0.050685115
000100 5e a8 64 3d 61 eb ca 3d f1 7c 6c 3d 47 de 5c 3d
       0.05582463 0.09908176 0.05773634 0.053922918
000110 0a eb 05 3e 2f 59 7c 3d d9 70 89 3d 83 6b a6 3d
       0.13077942 0.06160849 0.06710977 0.08125975
000120 5f 90 29 3d 85 6d 04 3d 42 d8 76 3d 0a d0 44 3d
       0.04139745 0.03233101 0.060264833 0.048049964
000130 ae 05 3b 3d 6f d9 bf 3c 8d 38 5d 3d 97 eb 7f 3d
       0.045659713 0.02341911 0.05400901 0.062480535
000140 31 5d 1d 3d 77 44 d0 3d 25 73 a6 3d 48 2b b8 3d
       0.038418952 0.10169309 0.08127431 0.0899263
000150 11 23 c2 3d ea 41 97 3c c2 fa 39 3d ce 1b c3 3d
       0.09479345 0.018464047 0.045405157 0.09526788
000160 8b 9a 0b 3d c9 d5 96 3c f1 1e d3 3d bd fe 12 3d
       0.03408293 0.018412488 0.10308636 0.03588747
000170 a6 56 64 3d d5 73 3f 3d 96 a0 b1 3c 9e 4f 08 3d
       0.055746697 0.046741325 0.021683019 0.033279054
000180 17 09 6d 3d 6f e5 23 3d 75 2f 75 3d fd 3d 2f 3d
       0.057869997 0.040013727 0.05985971 0.042783726

W_ext f4 [60, 2]
000000 71 33 b3 bf 64 03 6c be e2 20 6f 3c 75 53 00 c0
       -1.4000074 -0.23048168 0.014595242 -2.0050938
000010 a1 b0 1f 3e 89 a7 a5 3e 54 f8 74 3d f0 29 2b 3f
       0.15594722 0.32354382 0.059807137 0.66860867
000020 ed 20 13 bd 9e 49 46 be 80 72 53 be 65 f8 ab be
       -0.035920072 -0.1936402 -0.20649147 -0.33587947
000030 b7 c7 e7 3e 92 8e 9e be 8b 01 2b 3f 02 c0 0c 3e
       0.45269558 -0.30968148 0.6679923 0.1374512
000040 f1 f7 50 bf e0 97 2c 3f d7 06 0b 3f 41 39 44 3f
       -0.8162833 0.6741924 0.5430731 0.7664986
000050 0a f0 cf bf 66 f5 c0 3f cb 3f d1 3f 6a 48 dd 3f
       -1.6245129 1.507489 1.6347593 1.7287724
000060 40 23 bc 3f 1d 85 df bf c2 19 1e bf 6e ab 14 3f
       1.4698257 -1.7462498 -0.61758053 0.5807408
000070 57 17 8e bf 47 43 2a 3e 56 cd cd bd 77 17 b5 be
       -1.1100873 0.16627227 -0.1004893 -0.35369465
000080 20 92 0f c0 d1 17 9c be f3 49 91 be 40 c1 4a bf
       -2.2432938 -0.3048692 -0.2837673 -0.79201126
000090 cb 0f 8a 3f 64 bc 25 bf 5f 9c 46 3f f4 13 19 bf
       1.078607 -0.64740586 0.77582353 -0.5979607
0000a0 03 44 63 3f b7 27 a2 bf 64 0e 02 40 e8 55 73 3f
       0.8877565 -1.266837 2.0321283 0.9505296
0000b0 2a 0a 4f 3e 02 d6 3c c0 d1 de 2c 3f a6 ba 42 c0
       0.20218721 -2.950562 0.6752749 -3.042642
0000c0 a8 85 41 3f 68 c2 07 40 93 4f 2e bd 5d 4e 25 bc
       0.7559457 2.1212406 -0.042556357 -0.010089484
0000d0 4e 13 16 3f 3b 97 eb be b3 93 e3 bf b9 c4 c9 3f
       0.58623207 -0.46013817 -1.7779449 1.576316
0000e0 6a b2 1a bf 31 4e 8d bd 1d 91 c9 3c 51 d4 76 3f
       -0.6042849 -0.068996795 0.024605328 0.9641772
0000f0 4c ab 64 3e 3a f0 0e 40 99 c7 36 3f 6c cb 20 bf
       0.2233097 2.2334123 0.7139831 -0.628104
000100 3e 16 c6 be da 89 78 bf 72 01 3f bf 7b 74 e9 3f
       -0.38688844 -0.97085345 -0.7461158 1.8238672
000110 dd f6 90 bf da f0 b7 3d c3 07 d6 3f 38 be be bf
       -1.1325337 0.08981486 1.6721119 -1.49018
000120 33 9c ac bf 69 46 af 3f 81 93 51 3f 5e 7d bf 3e
       -1.3485168 1.3693362 0.818657 0.37400335
000130 33 0c 9d bf 9c df 98 bd 41 8b 21 3e bc d3 34 bf
       -1.2269348 -0.07464525 0.15775777 -0.7063558
000140 22 54 a3 bf 49 51 97 3f 25 02 45 3e 44 ba f8 3f
       -1.276005 1.1821681 0.192391 1.9431844
000150 cf 8b 83 bf 1a 72 a6 be 3a 81 52 bf 20 6b 8c 3f
       -1.0277041 -0.32508928 -0.82228434 1.0970192
000160 3c c7 2f 3f af 7a 8a 3f c0 4f a5 3e 41 26 5d bf
       0.6866338 1.081869 0.32287407 -0.86386496
000170 8f 2f ad 3e b9 4e d5 3c 32 fc 6a 3f 82 c4 b8 bf
       0.33825347 0.026038514 0.9179107 -1.443497
000180 44 7f c8 3f c0 8d 11 3f 1f cf 84 3f 3a be 0c 3f
       1.5663838 0.5685692 1.0375708 0.5497776
000190 62 f6 ed bf 56 5b 85 3a ae 11 8f bf c7 ba f7 bf
       -1.8590815 0.0010174315 -1.117727 -1.9353875
0001a0 bc 95 3b bf 34 6f 7c bf 88 ec f5 bd bb 1a 85 bf
       -0.7327535 -0.9860718 -0.120080054 -1.0398782
0001b0 06 71 9f bc 7e e5 5b 3f 3f 29 a9 be d5 e4 d9 3f
       -0.019463073 0.8589705 -0.3303928 1.7022959
0001c0 9f 5c 21 3f 6e 52 a0 bf d3 77 6a bf 9d 95 16 bf
       0.63031954 -1.2525156 -0.9158909 -0.5882204
0001d0 b9 7b e7 be 66 9b 8d be fc 57 cc bc 06 75 1a c0
       -0.4521158 -0.27657622 -0.024944298 -2.4133925
