network_compare_backup/2nd_order_no_train/20_mbons/trained_nets/control_net_0ep_1hop_N13.pt (torch_old, 41383 bytes, 4 tensors)

W_recur f4 [100, 100]
00000000: d094 c43d dcb1 5a3e b0ee 433b 406e 2ebe
00000010: 15e4 863d 7456 b03d 5255 1b3e f952 613e
00000020: c8cd 25be 8f45 7f3d 6361 163e 2790 acbb
00000030: 7541 3c3c b988 4abe 45a4 69be a81c ccbd
00000040: 2b23 8dbe 63f9 56be 559b 9b3b f496 d639
00000050: c590 d3bd 2cbd 9e3d 9962 febd 995d 713d
00000060: aad2 753d 37b0 973d 7c20 bd3b 49c2 8b3d
00000070: a0bc 0e3d 513b 21be c3af c9bd 80a0 3abd
00000080: b220 30be 11a1 f33d 8ed3 2fbd 18a4 d13c
00000090: e49a 213e 047a 143c ece4 fa3c cf27 20be
000000a0: f045 4abe 55ab a6bd 92f4 883c d5d6 90bc
000000b0: 2079 423d 01e6 4b3d 3b26 85bb 60aa 3ebe
000000c0: 1929 fbbd 4dfe b4bd b94e a0bd e719 abbd
000000d0: 3835 5fbe a90e b93d 5724 3dbd 9f0d 9e3a
000000e0: 1e9e d23d bc34 9ebb ceb7 053d 8e1e 67bd
000000f0: 47c5 9dbd bbe9 7c3d 1842 003d ee8f 5ebe
00000100: 6247 0dbe 3aed 28bc 959d ff3d 10d8 aebd
00000110: 2c67 153e 0fbf d63c 0ec6 6abd eeff 65be
00000120: afb9 ef3c d748 3c3e 6a6c 083d d9d7 833d
00000130: abd7 41bc 0c43 ce3d 15be d3bc 69ed 75be
00000140: f181 f5bd c2cd 3a3e 8c79 b2bd f4f5 85bd
00000150: adb8 473e 544b e83e b401 cd3c ddd3 d4be
00000160: 5f4e d1bd b705 8d3d c494 763e 954a dbbd
00000170: 5f6b 763e 1e1b 2ebd d6c3 a4be 8201 293e
00000180: 0547 adbe 2ee4 193e 256c 733e 04bb 883c
00000190: fb0c 1c3e d636 563e d669 31be ee1b a43c
000001a0: 240b bbbc 84db 1a3e 4e04 f23c a61f c0bc
000001b0: 77e7 b33e 9acc 153e 68e3 6bbd f99c 89be
000001c0: b922 b33e 754d efbd c3be 84be e365 8e3e
000001d0: db2a debe 498e e1bc abe5 b43e 3577 36be
000001e0: b53b d73d aed8 1a3e 220b c3bd 4bb2 ce3d
000001f0: 8243 3ebe 5927 853d 3a02 dabc 7b93 aebd
00000200: dde4 a6bd 3c46 35bd 4e4d 2abe 53f7 c13d
00000210: 8bbb 0ebe bc84 b5bd 184c 05be 66f5 703d
00000220: c401 4abd 596d be3d c9c3 67bd 198d a83b
00000230: cc65 01be 96c6 07bd a6b8 00bd 93d0 7c3c
00000240: 42a7 a73c 0c85 be3d b7d8 873d fffb 1dbe
00000250: d79b a83d 4551 503d 3b5a 893d afa3 40bd
00000260: 48db 3b3d ba74 fa3d 9c57 fbbd 945c 2c3e
00000270: 6538 6fbd 3698 af3d 9e1e bd3d 7a98 e4bc
00000280: 694b 5fbe 5bbb 15bb d180 663d 6e1b c6bd
00000290: 3f2d 893d dc31 0abd 7f92 1a3d f57a f23d
000002a0: 1fe4 fcbd a2c7 4bbe 781e c23d 2a35 7aba
000002b0: d732 adbd 97ac 933d 6cbd 693d 2f7e 413d
000002c0: 10dc af3d 4ee0 7bbe 8d37 833d 4f4e 4c3d
000002d0: 499e 463d 09ec ce3d 524c f6bc dd5c da3d
000002e0: d6b7 aebd add3 903e 1f22 f6bd 19eb 803d
000002f0: 9457 cdbc 72c0 efbd a01e dbbc d5ce f0bd
00000300: 298a 273e dafe 11be 7d3d 39bd 01f5 dbbb
00000310: 8902 113f 916e fe3d 832a 57bd 7379 cebd
00000320: a518 013e 2c57 c53d c08d 553c 179f 9b3e
00000330: 4da9 8b3d 4c07 3cbe 769b e93d 59d6 69bd
00000340: 4638 bdbe 0ab4 1e3d 3ded f53e 03d6 093e
00000350: a618 553d 3bb2 633e 98d1 bdbe 93e1 b93e
00000360: f848 753d 140c 0bbd 5c82 45be cb98 f7be
00000370: a9a1 a0bb ee77 e63c c4b9 2c3d 831b 243b
00000380: a9f0 3fbc b2a1 a0b9 09a5 f13c 3194 72bd
00000390: ae62 783e 2a26 04be fb33 ec3c f1e7 833d
000003a0: a0b0 a53c 6eab 2cbe 7ead 793d 2a1e 2c3b
000003b0: aebd 0ebe 5329 143e f930 72be 712f 02bc
000003c0: 90a7 61bd a5b3 2ebc 871c 33be e6e2 e43d
000003d0: e156 a9bc b7d9 dbbd c203 36be eccd c03d
000003e0: 3773 10be f24e 8e3d a822 afbd 8b96 853d
000003f0: 4fa5 d83d b764 2f3e 0049 073e 6528 5a3c
0.09598696 0.2135691 0.0029896908 -0.17034245 0.06586472 0.086102396 0.15169266 0.22004308
-0.1619178 0.062322196 0.14685588 -0.0052662077 0.011490216 -0.19778718 -0.2281657 -0.09966403
-0.27565894 -0.20993571 0.0047487416 0.0004092973 -0.10330347 0.077509254 -0.1242115 0.058927152
0.060015358 0.07406657 0.0057716947 0.06824166 0.034847856 -0.15745284 -0.09847977 -0.04556322
-0.17199972 0.11895955 -0.042926364 0.025590941 0.15781742 0.009062294 0.030626737 -0.15640186
-0.19753242 -0.08138148 0.016718183 -0.017680565 0.047478795 0.049779896 -0.0040633953 -0.1861968
-0.12263698 -0.088375665 -0.07827515 -0.0835455 -0.21797645 0.09035999 -0.046177235 0.0012058503
0.10284065 -0.004828064 0.032645993 -0.056425624 -0.07703643 0.06174634 0.031313032 -0.21734592
-0.13796762 -0.0103104655 0.12481228 -0.085373044 0.14590138 0.02621415 -0.057317786 -0.2246091
0.029263346 0.18387161 0.033306517 0.06437654 -0.011831204 0.10071382 -0.025847474 -0.24016346
-0.11987675 0.18242553 -0.087145895 -0.065410525 0.19504042 0.4536997 0.025025226 -0.4156789
-0.10220026 0.06885856 0.24080187 -0.10707585 0.24064396 -0.04250633 -0.3218066 0.16504481
-0.33843246 0.1502845 0.23771723 0.016690738 0.15239327 0.20919356 -0.1732553 0.02003285
-0.02283246 0.15122801 0.029543068 -0.023452591 0.3513753 0.1462883 -0.05758992 -0.26877573
0.3498743 -0.11684696 -0.2592679 0.27812108 -0.4339207 -0.027533667 0.35331473 -0.17818911
0.10509435 0.15121719 -0.09523608 0.100926004 -0.1858044 0.065016456 -0.02661239 -0.085242234
-0.08149121 -0.044256434 -0.16631052 0.094710015 -0.1393873 -0.08863208 -0.13017309 0.05882778
-0.04931809 0.092982 -0.0565832 0.0051437733 -0.12636489 -0.03314837 -0.031426094 0.015430587
0.020465497 0.093027204 0.06633132 -0.1542816 0.08232849 0.050858755 0.06706663 -0.0470311
0.04586342 0.12229295 -0.122725695 0.16832191 -0.05840339 0.08573954 0.092343554 -0.027904738
-0.2180611 -0.0022847268 0.056275193 -0.096732005 0.06698083 -0.033738956 0.037737366 0.118398584
-0.12348198 -0.19900373 0.09478468 -0.0009544665 -0.084569626 0.07210653 0.057065412 0.04723948
0.085868955 -0.24597284 0.0640708 0.04987937 0.048490796 0.10103614 -0.03006569 0.106622435
-0.08531158 0.28286496 -0.12018227 0.06294841 -0.025066175 -0.11706628 -0.026748002 -0.117582
0.16361298 -0.14257374 -0.045224655 -0.0067125564 0.56644493 0.124234326 -0.052530777 -0.10081758
0.12607057 0.09635767 0.013034284 0.30394813 0.06819401 -0.18362159 0.11406605 -0.057089183
-0.36956996 0.038745917 0.4803256 0.13460545 0.05202546 0.22235958 -0.3707397 0.36304912
0.05988404 -0.033947065 -0.1928801 -0.4835876 -0.004902084 0.028133359 0.042169347 0.0025040812
-0.011715093 -0.0003063805 0.02949764 -0.059223358 0.24256393 -0.12905183 0.02883338 0.06440724
0.020225823 -0.1686227 0.06095647 0.0026263096 -0.13939545 0.14468889 -0.23651494 -0.007945881
-0.05509144 -0.010662948 -0.17491351 0.1117609 -0.02067131 -0.10734885 -0.17774871 0.094142765
-0.14106451 0.069486514 -0.08551532 0.065228544 0.10578405 0.17128263 0.13211441 0.013315295

W_readout f4 [1, 20]
00000000: 87ba 513e 19ca 133e f944 953c 8d74 d23d
00000010: ad79 853e df29 823d 0ced 66bc babf 1e3e
00000020: 007a 7dbe 8b6b 463e 9b2a dc3d dee9 8fbd
00000030: 9878 cdbe c5c1 1ebf c45c c5bd a2f8 c8be
00000040: ff6e bdbd 3139 a2bd d315 80be 8a01 e6bd
0.20481311 0.14432563 0.018221365 0.102761365 0.26069394 0.063556425 -0.014094602 0.15502825
-0.2475357 0.19376962 0.10750314 -0.070270285 -0.40131068 -0.6201442 -0.09636834 -0.39252192
-0.092496864 -0.07921065 -0.2501665 -0.11230762

bias f4 [100]
00000000: cdcc cc3d cdcc cc3d cdcc cc3d cdcc cc3d
00000010: cdcc cc3d cdcc cc3d cdcc cc3d cdcc cc3d
00000020: cdcc cc3d cdcc cc3d cdcc cc3d cdcc cc3d
00000030: cdcc cc3d cdcc cc3d cdcc cc3d cdcc cc3d
00000040: cdcc cc3d cdcc cc3d cdcc cc3d cdcc cc3d
00000050: cdcc cc3d cdcc cc3d cdcc cc3d cdcc cc3d
00000060: cdcc cc3d cdcc cc3d cdcc cc3d cdcc cc3d
00000070: cdcc cc3d cdcc cc3d cdcc cc3d cdcc cc3d
00000080: cdcc cc3d cdcc cc3d cdcc cc3d cdcc cc3d
00000090: cdcc cc3d cdcc cc3d cdcc cc3d cdcc cc3d
000000a0: cdcc cc3d cdcc cc3d cdcc cc3d cdcc cc3d
000000b0: cdcc cc3d cdcc cc3d cdcc cc3d cdcc cc3d
000000c0: cdcc cc3d cdcc cc3d cdcc cc3d cdcc cc3d
000000d0: cdcc cc3d cdcc cc3d cdcc cc3d cdcc cc3d
000000e0: cdcc cc3d cdcc cc3d cdcc cc3d cdcc cc3d
000000f0: cdcc cc3d cdcc cc3d cdcc cc3d cdcc cc3d
00000100: cdcc cc3d cdcc cc3d cdcc cc3d cdcc cc3d
00000110: cdcc cc3d cdcc cc3d cdcc cc3d cdcc cc3d
00000120: cdcc cc3d cdcc cc3d cdcc cc3d cdcc cc3d
00000130: cdcc cc3d cdcc cc3d cdcc cc3d cdcc cc3d
00000140: cdcc cc3d cdcc cc3d cdcc cc3d cdcc cc3d
00000150: cdcc cc3d cdcc cc3d cdcc cc3d cdcc cc3d
00000160: cdcc cc3d cdcc cc3d cdcc cc3d cdcc cc3d
00000170: cdcc cc3d cdcc cc3d cdcc cc3d cdcc cc3d
00000180: cdcc cc3d cdcc cc3d cdcc cc3d cdcc cc3d
0.1 0.1 0.1 0.1 0.1 0.1 0.1 0.1
0.1 0.1 0.1 0.1 0.1 0.1 0.1 0.1
0.1 0.1 0.1 0.1 0.1 0.1 0.1 0.1
0.1 0.1 0.1 0.1 0.1 0.1 0.1 0.1
0.1 0.1 0.1 0.1 0.1 0.1 0.1 0.1
0.1 0.1 0.1 0.1 0.1 0.1 0.1 0.1
0.1 0.1 0.1 0.1 0.1 0.1 0.1 0.1
0.1 0.1 0.1 0.1 0.1 0.1 0.1 0.1
0.1 0.1 0.1 0.1 0.1 0.1 0.1 0.1
0.1 0.1 0.1 0.1 0.1 0.1 0.1 0.1
0.1 0.1 0.1 0.1 0.1 0.1 0.1 0.1
0.1 0.1 0.1 0.1 0.1 0.1 0.1 0.1
0.1 0.1 0.1 0.1

W_ext f4 [20, 2]
00000000: b2cf b43d 4b75 a6bf 1d4b 463e a7bd 8c3f
00000010: 5428 ac3e cb0f ac3f 1bcc d43e aaab febd
00000020: dd5a 873f 6c2c 4d3e 73be 803f 6594 a43f
00000030: 1620 d2be 85e5 cfbe f714 773d f14c 05bf
00000040: 613a 223e 2bec c03f f6e8 2dbf 0408 393f
00000050: 590e 86be 5b27 d33e 4692 1b3f fefb 82bf
00000060: d427 0dc0 069b a43f a4a5 3dbd 3177 9abf
00000070: 46c2 52bf 002a 3dbf 5789 74bf 5292 0ac0
00000080: 73d5 403e 4ac6 8ebe 8fce 9b3e 134f a43f
00000090: 17c2 92bf 563e 40be 6021 503f 4c34 993e
0.08828677 -1.3004545 0.19364591 1.0995377 0.33624518 1.344232 0.4156197 -0.12435086
1.0574604 0.20036477 1.005812 1.2857786 -0.41040105 -0.40604797 0.060322728 -0.5207053
0.15842582 1.5072073 -0.67933595 0.72277856 -0.2618282 0.41240963 0.6077007 -1.0233152
-2.205556 1.2859809 -0.046300545 -1.2067624 -0.8232769 -0.7389221 -0.95522064 -2.1651807
0.18831424 -0.27885658 0.3043103 1.2836632 -1.1465482 -0.1877378 0.81300926 0.29922712
