DrosophilaLabRot/data_store/mbon_sensitivity/trained_nets/knockout_fo_200ep_1hop_8MBONs.pt (torch_old, 24247 bytes, 4 tensors)

W_recur f4 [76, 76]
0	0xbe14ee81	-0.14544107
1	0x3e459a89	0.19297232
2	0x3eb4ea88	0.35335183
3	0xbe74445c	-0.23854202
4	0xbcfa0ff9	-0.030525194
5	0xbe5a0b80	-0.2129345
6	0xbeda35c2	-0.4261914
7	0x3e09344a	0.13398853
8	0x3c852f07	0.016257776
9	0x3e4e00d5	0.20117505
10	0xbe0b400b	-0.13598649
11	0x3d1e33d4	0.038623646
12	0xbce9206f	-0.028457848
13	0x3be45188	0.006967727
14	0xbd5b5e5a	-0.053556778
15	0x3e03c687	0.12868701
16	0xbe0ed74a	-0.13949314
17	0x3d83d21a	0.06436558
18	0xbcf4e245	-0.02989305
19	0xbd4de51e	-0.05026733
20	0xbdc657f9	-0.09684748
21	0x3c5d0750	0.013490513
22	0x3e43469f	0.19069909
23	0x3db2fe9e	0.087399706
24	0xbe67d918	-0.22641408
25	0x3d38d692	0.045126505
26	0xbd902a51	-0.07039321
27	0xbb52a5e8	-0.0032142345
28	0x3d07b447	0.03313091
29	0xbd1fb2d5	-0.038988907
30	0x3e1b7ab5	0.15183528
31	0xbd20d544	-0.039265886
32	0x3c26784d	0.010160518
33	0x3dd1ed01	0.10250283
34	0x3cb160b0	0.02165255
35	0x3db6c321	0.08923937
36	0xbe3b80e7	-0.18310891
37	0xbc150fdc	-0.009098019
38	0xbd51a0f1	-0.051178876
39	0xbe02b535	-0.12764437
40	0x3d0fb5f5	0.035085637
41	0x3d94ba6c	0.0726212
42	0x3d5286bb	0.05139802
43	0x3dc725fb	0.09724041
44	0xbbbda9a9	-0.0057880473
45	0x3cf856ce	0.03031483
46	0xbd2349cc	-0.0398653
47	0xbe05da86	-0.13071641
48	0xbe32a552	-0.17445877
49	0xbd9ab5f0	-0.07554233
50	0xbd046649	-0.03232411
51	0x3d082d94	0.03324659
52	0xbe96c009	-0.29443386
53	0x3d593e44	0.053037897
54	0xbcfb2e3a	-0.030661691
55	0x3db0e6c4	0.08637765
56	0x3df784d8	0.12085885
57	0x3e3cb158	0.18427026
58	0xbd91d1cf	-0.07120096
59	0x3c8ab566	0.0169322
60	0x3d00d985	0.031457443
61	0xbb0a9048	-0.0021143127
62	0xbd0d85e0	-0.0345515
63	0x3e1b22fd	0.15150066
64	0x3dc80180	0.09765911
65	0xbe7e0e23	-0.2481008
66	0xbc673617	-0.014112017
67	0x3dea23f5	0.114326395
68	0x3e6aceac	0.22930402
69	0x3e9556a8	0.29167676
70	0x3d2c4243	0.04205538
71	0xbe693e12	-0.22777584
72	0x3e274f24	0.16338784
73	0x3ea1f5c4	0.31632817
74	0x3ec05cf5	0.3757092
75	0x3ed3d265	0.41371456
76	0xbf1a2d4f	-0.60225385
77	0xbd9e5acd	-0.077321626
78	0xbddad97b	-0.10686012
79	0x3ed90f8f	0.42394683
80	0x3e54a2d0	0.20765233
81	0x3c6bc977	0.014391295
82	0x3ede51c9	0.43421772
83	0x3e984fbe	0.29748338
84	0xbe7bf728	-0.24606001
85	0x3e2a1a19	0.16611518
86	0xbcb9bdfe	-0.022673603
87	0x3cb822a9	0.022477465
88	0x3bd49013	0.0064869015
89	0xbd0ce2c0	-0.034395933
90	0xbe0a6f42	-0.13519004
91	0x3ca79caa	0.020460445
92	0x3c4c8f62	0.012485357
93	0x3d4dcf18	0.050246328
94	0x3e03a5e0	0.12856245
95	0x3dcfb71a	0.10142346
96	0xbc115ba7	-0.008871949
97	0x3e484edd	0.19561334
98	0x3cb31789	0.021861808
99	0xbe2b6b43	-0.16740136
100	0x3c62677f	0.013818621
101	0xbe20dbff	-0.15708922
102	0x3e4d7660	0.20064688
103	0xba23368e	-0.0006226086
104	0x3e0dc96f	0.13846372
105	0x3dcf0a0a	0.10109337
106	0xbd4905a5	-0.04907765
107	0x3d972182	0.07379438
108	0x3b1abb5e	0.0023610215
109	0x3d688529	0.056767616
110	0xbcf02e94	-0.029319085
111	0x3e2e989c	0.17050403
112	0xbe10e777	-0.14150797
113	0xbd13dd35	-0.03609963
114	0xbcb8d397	-0.022561831
115	0xbd91ed3b	-0.07125326
116	0xbbd2237d	-0.006412922
117	0x3d9e87db	0.07740756
118	0xbe09ce81	-0.13457681
119	0xbe09f499	-0.13472213
120	0xbd433018	-0.047653288
121	0x3e0a55e0	0.13509321
122	0x3d5ef686	0.05443432
123	0x3e1bcb4c	0.1521427
124	0xbd0259b2	-0.03182382
125	0xbdcf8ef1	-0.10134686
126	0x3d5cc292	0.053896494
127	0xbdf31bb8	-0.11870521
128	0xbce5db89	-0.028058784
129	0x3de881c6	0.11352877
130	0x3d10b254	0.035326317
131	0x3ce7c296	0.028291028
132	0xbe56ce33	-0.20977096
133	0xbd32f6ac	-0.043692276
134	0x3d33cec9	0.043898378
135	0x3d3643d0	0.044498265
136	0x3d801c56	0.06255405
137	0x3d8518e7	0.0649889
138	0x3e1ccf70	0.15313506
139	0xbcbc6257	-0.02299611
140	0x3d7795b8	0.060445517
141	0xbdbeacd7	-0.0931031
142	0xbce0a0e1	-0.027420463
143	0xbe062afb	-0.13102333
144	0x3eb42c02	0.35189825
145	0xbdc1fdb0	-0.09472215
146	0xbd9b4fd9	-0.07583589
147	0x3e5c23eb	0.21498077
148	0x3f7da99a	0.99086916
149	0x3ea41edf	0.32054803
150	0xbef00505	-0.4687883
151	0x3e200dc0	0.15630245
152	0xbdedaaf7	-0.116048746
153	0x3e893d50	0.2680459
154	0x3e4908b5	0.19632228
155	0xbe2f6e43	-0.17131905
156	0xbc2cc3c0	-0.010544717
157	0xbeb07898	-0.34467006
158	0x3e0d7ca4	0.13817078
159	0xbe009346	-0.1255618
160	0xbdbdafaa	-0.09262021
161	0x3b1c890f	0.0023885404
162	0xbd7987e6	-0.06092062
163	0x3c842346	0.016130101
164	0xbd24ff5d	-0.040282596
165	0x3ca1c3cb	0.019746682
166	0xbdc28259	-0.09497518
167	0x3d5a9d00	0.053372383
168	0x3d84aeb7	0.06478637
169	0xbd324b58	-0.043528885
170	0x3e23fce1	0.16014434
171	0xbd009abb	-0.031397562
172	0xbdd17eeb	-0.10229286
173	0xbd8a6df5	-0.06759254
174	0xbdc0d64e	-0.094158754
175	0xbdacd4cf	-0.084390275
176	0xbd4d41a0	-0.050111413
177	0xbe1775ea	-0.14791074
178	0xbc444ad9	-0.011980736
179	0xbcadde4b	-0.021224162
180	0x3d18d701	0.03731442
181	0x3da9b2f8	0.08286089
182	0x3d1722fe	0.036898606
183	0xbde829b1	-0.11336077
184	0x3ca30a10	0.01990226
185	0xbe25da4b	-0.16196553
186	0xbd74fc71	-0.05981106
187	0xbd505cdc	-0.050869808
188	0x3db98230	0.090580344
189	0xbdc817e5	-0.097701825
190	0x3d85817f	0.0651884
191	0x3d9c98ab	0.076463066
192	0xbd239a88	-0.039942294
193	0x3d81af11	0.063322194
194	0x3cba9848	0.022777691
195	0x3d48d92c	0.049035236
196	0x3df5aac6	0.11995463
197	0x3db8e893	0.09028735
198	0x3d347c9d	0.044064153
199	0xbe4a530c	-0.19758242
200	0xbe1337b5	-0.1437672
201	0x3d8dfa83	0.06932547
202	0x3d8bd36d	0.06827436
203	0x3d99c889	0.07508952
204	0x3d7bf820	0.061515927
205	0x3da8bc75	0.0823907
206	0xbccc4eeb	-0.024939975
207	0xbd4e4175	-0.050355393
208	0x3dc54737	0.09632724
209	0x3e5f0132	0.217778
210	0xbd87e0bb	-0.06634661
211	0xbe4c47f5	-0.19949324
212	0x3cde4470	0.027132243
213	0x3dc7bbf3	0.09752645
214	0x3d405290	0.046953738
215	0xbe5d9648	-0.21639359
216	0x3da1f0d1	0.0790726
217	0xbddaa1f2	-0.1067542
218	0x3d007d3d	0.031369437
219	0xbe04d945	-0.12973507
220	0x3e164a4c	0.1467678
221	0x3d431999	0.047631834
222	0x3e468c43	0.19389443
223	0xbd547fd7	-0.05187973
224	0xbc901519	-0.017588185
225	0xbda41e5a	-0.080136016
226	0xbe76c543	-0.24098687
227	0xbed872b2	-0.42275006
228	0x3eaf9070	0.34289885
229	0x3e52f258	0.2060026
230	0xbedd3723	-0.43206128
231	0x3f0d4694	0.5518582
232	0xbe90d239	-0.28285387
233	0x3e4292ed	0.1900136
234	0xbf2ce95d	-0.67543584
235	0xbed2fd5c	-0.41208923
236	0x3cdca190	0.026932508
237	0xbe53d3bc	-0.20686239
238	0x3e10eb9b	0.14152376
239	0xbdb49b10	-0.08818638
240	0x3e0404ce	0.12892458
241	0x3e2c78e2	0.16842988
242	0x3d9527a6	0.07282953
243	0xbe792967	-0.243322
244	0xbea3a047	-0.3195822
245	0xbbfd19e3	-0.007724033
246	0xbde0606f	-0.10955893
247	0x3d7fe1ce	0.062471204
248	0xbd621731	-0.0551979
249	0x3e096193	0.13416128
250	0x39b08703	0.00033669928
251	0x3dfe80b2	0.124268904
252	0xbda27d1f	-0.07934021
253	0xbe1490d4	-0.14508373
254	0x3dc12fcf	0.09432947
255	0xbdfa0135	-0.122072615

W_readout f4 [1, 8]
0	0xbe1454c9	-0.14485468
1	0x3f052861	0.5201474
2	0x3e4c37bf	0.1994314
3	0xbe259cb8	-0.16173065
4	0xbe74a0f9	-0.23889531
5	0xbf02e7c4	-0.51134896
6	0xbe9fa654	-0.31181586
7	0x3f423a99	0.7587066

bias f4 [76]
0	0x3d628bfc	0.05530928
1	0x3dba24e6	0.09089069
2	0x3e0accf8	0.13554752
3	0x3dc3cf80	0.09561062
4	0x3e0ddcda	0.1385378
5	0x3da9db36	0.08293764
6	0x3d05c9e6	0.03266325
7	0x3cc4994c	0.023998879
8	0x3dcccccd	0.1
9	0x3dcccccd	0.1
10	0x3dcccccd	0.1
11	0x3dcccccd	0.1
12	0x3dcccccd	0.1
13	0x3dcccccd	0.1
14	0x3dcccccd	0.1
15	0x3dcccccd	0.1
16	0x3dcccccd	0.1
17	0x3dcccccd	0.1
18	0x3dcccccd	0.1
19	0x3dcccccd	0.1
20	0x3dcccccd	0.1
21	0x3dcccccd	0.1
22	0x3dcccccd	0.1
23	0x3dcccccd	0.1
24	0x3dcccccd	0.1
25	0x3dcccccd	0.1
26	0x3dcccccd	0.1
27	0x3dcccccd	0.1
28	0x3dcccccd	0.1
29	0x3dcccccd	0.1
30	0x3dcccccd	0.1
31	0x3dcccccd	0.1
32	0x3dcccccd	0.1
33	0x3dcccccd	0.1
34	0x3dcccccd	0.1
35	0x3dcccccd	0.1
36	0x3dcccccd	0.1
37	0x3dcccccd	0.1
38	0x3dcccccd	0.1
39	0x3dcccccd	0.1
40	0x3dcccccd	0.1
41	0x3dcccccd	0.1
42	0x3dcccccd	0.1
43	0x3dcccccd	0.1
44	0x3dcccccd	0.1
45	0x3dcccccd	0.1
46	0x3dcccccd	0.1
47	0x3dcccccd	0.1
48	0x3dcccccd	0.1
49	0x3dcccccd	0.1
50	0x3dcccccd	0.1
51	0x3dcccccd	0.1
52	0x3dcccccd	0.1
53	0x3dcccccd	0.1
54	0x3dcccccd	0.1
55	0x3dcccccd	0.1
56	0x3dcccccd	0.1
57	0x3dcccccd	0.1
58	0x3dcccccd	0.1
59	0x3dcccccd	0.1
60	0x3dcccccd	0.1
61	0x3dcccccd	0.1
62	0x3dcccccd	0.1
63	0x3dcccccd	0.1
64	0x3dcccccd	0.1
65	0x3dcccccd	0.1
66	0x3dcccccd	0.1
67	0x3dcccccd	0.1
68	0x3dcdeb2e	0.100546226
69	0x3c494c8d	0.012286318
70	0x3c217807	0.009855277
71	0xbd32ccbb	-0.043652277
72	0x3c6feb60	0.01464352
73	0x3dcfb05f	0.10141062
74	0xbc54e0a4	-0.012993012
75	0x3d91f08e	0.0712596

W_ext f4 [8, 2]
0	0x3e2e7fe9	0.17040981
1	0x3f48868d	0.7833031
2	0x3d0a5a50	0.033777535
3	0x3d4cf1c2	0.050035246
4	0x3dddc2d5	0.10828177
5	0x3f565ac4	0.8373225
6	0xbf0f4ae8	-0.5597367
7	0x3e87d3a3	0.26528654
8	0x3f053c2e	0.5204495
9	0x3f013754	0.5047505
10	0xbec6e200	-0.388443
11	0xbfb6ef1f	-1.4291724
12	0xbe984961	-0.29743484
13	0x3d6e3ab0	0.058161438
14	0xbf1087a0	-0.5645695
15	0xbfe52e20	-1.7904701
