DrosophilaLabRot/data_store/network_compare/2nd_order_no_extinction/trained_nets/second_order_only_5000ep_0hop_N03.pt (torch_old, 41703 bytes, 4 tensors)

W_recur f4 [100, 100]
00000000: 1cd6 1cbf c640 00bf 79de 213d 672f 68bd
00000010: 972f 5ebd bee6 ef3c 662f 213e 9804 a83e
00000020: 5bf6 eebd eeaf c0bd 3084 793e 30a0 b6be
00000030: e973 5e3e 2d09 d5bd 4ec9 6f3e e164 9cbe
00000040: 37cd 10be e4f8 36ba dca0 833c 3b1c c03d
00000050: 40fa 93bd 179a e1be cab1 c4be 77d5 263e
00000060: 0ca1 ac3b 1c17 af3e 6857 4cbf 135d d8be
00000070: c55d 783d ee50 40bd 3d44 093f 970c d9be
00000080: a057 633e 5203 5dbe 2cd4 fdbe 1b74 9b3e
00000090: b16d 52bd 7bf4 213e e09b 57bf 0257 bfbd
000000a0: 423e 06be a62f 99bd aea1 3c3f 3d2f 8abe
000000b0: 1503 9cbe 1bcb edbe 9982 3fbe 99fc 233f
000000c0: 5da7 85bd f12c 3e3e cbf8 0d3e 75ef 9e3f
000000d0: 366e cabc 256a 9bbe 14be d6bd 2966 273e
000000e0: c459 35bd 5099 a5bd 3475 05be 766e 00bf
000000f0: 1559 613d 5ac9 c4bd 8d51 5b3e 547c 0ebe
00000100: 927a e6bd 5bd1 c6bb ac0c 903e 3d69 dd3e
00000110: 1b29 abbe 2228 a4be 37c9 ee3e 4ede 0bbf
00000120: 22e3 33bf 15a2 2ebe ff7f c6bd b24c f0be
00000130: 5035 77be 1217 f4be eef1 e4be 11ff dcbd
00000140: dcd8 4d3e c68b 273b 1793 c03e 154a c9bd
00000150: 8ff2 51bd 19b5 6f3d bb4d be3e 364a c4bd
00000160: 6dc9 983c 2470 f93d 3604 70be 5209 16be
00000170: bb3b b1bc 4c78 dd3d c34f 66bd 9570 6a3d
00000180: ca0b 233e e9bf 173e a841 a1bb dc9a 023e
00000190: a304 9c3d eb14 b53d c410 fbbd 1112 2ebe
000001a0: 915a 61be 044a 8d3d c38c 8dbe 985b a5be
000001b0: b469 123d 00c4 7dbe 3e2a 69be 2984 78be
000001c0: c7e8 9dbd cc1c 983d fa07 9cbe 068d 243e
000001d0: b873 9c3e 49b5 3d3e 78ec adbe 1a80 fa3d
000001e0: 8aca 4fbe 5eeb 0abe 31c8 71be b470 22be
000001f0: 993b 043d b8a4 32be 599f 063e 69a8 4cbe
00000200: 99c9 733e 1a93 af3d 86d3 ac3c b8f2 34be
00000210: 3f32 0dbd a8cc 363e 76cf 773d 5b84 64bd
00000220: 24a0 d43d 0100 66bd 1375 c4be 0d61 8ebd
00000230: 81ad 843d eddb f93d fdfb a83e 0dc1 86be
00000240: d4c9 c4ba efda 3cbe 6e44 25be 3a4f ccbd
00000250: 4bfa 213e bbd3 1b3d 0906 d33d b2c0 983e
00000260: 83c9 9ebe fc64 02be e9a4 38bc 8c63 c83b
00000270: 74de 1bbe d54f c8bd 47aa 0a3e a224 7cbe
00000280: 7994 d43b a76e 873d ecc5 8bbd e578 98bd
00000290: 9373 fd3c 1295 50be 4a52 bdbd 7c82 90be
000002a0: bdd5 e53e 8656 26be 2e2b 00be 28be 7fbe
000002b0: 64f1 32be 3b33 8abe 9647 a83d 770b 313e
000002c0: a0c4 35be 9601 45bd 7076 11be abe1 90be
000002d0: 219b 7a3c bd98 e73d 6765 c0be 7fdb 28be
000002e0: 6c50 dbbd 84ca 0d3e 5ae5 0bbe ae51 31bb
000002f0: cc71 893d 23a1 5f3d 9ef6 923d 07c7 82bd
00000300: 10fb 8e3e 28fb 35be 2342 e03c 49ef b8bd
00000310: f981 b93d e5fc ef3d 6e62 343e 9e0b 373e
00000320: a763 903e 6149 a7bd 891e f23d 3e31 023e
00000330: 9451 f1be 0a46 04bd 3181 2dbe 96bd 39be
00000340: c86d 0a3e 031d 1abe 3f0b 16be f93d dabd
00000350: 5738 dd3e 9321 20be 9041 723e 3f2b c83c
00000360: b120 af3d 7b61 6ebd ad74 11be e8eb ccbd
00000370: d605 42be 3cd9 ddbd 2248 82bd a970 b9be
00000380: 3a54 393d 5606 cc3e 877b dcbe 4e69 83be
00000390: 1013 053d 9cc2 853d 2677 dfbc 363c c6bd
000003a0: bb87 553c 625e 643c 0537 61bd 20ac 293e
000003b0: 1ac8 a5bc 2c01 c43d fd6a 2abf 82ff 0c3e
000003c0: 9eb7 9cbe 7503 75bd dd31 e83d f56d a03d
000003d0: ebc0 2abe 7c25 ffbb 73df e9bc 1e19 0c3e
000003e0: 861d 3abe ae98 5b3d c1f6 16be e40c 803e
000003f0: be4d c5be 6a0b 753b 005f d8bd 1f5a 4fbd
-0.61264205 -0.50098836 0.039518807 -0.05668583 -0.054244604 0.029284831 0.15740737 0.32816005
-0.11668082 -0.09408556 0.24366832 -0.35669088 0.21723904 -0.10402141 0.23416635 -0.30545714
-0.14140783 -0.00069798366 0.016067915 0.093803845 -0.07225466 -0.44062874 -0.38416892 0.16292368
0.0052682217 0.3419732 -0.7982087 -0.4225851 0.0606363 -0.04695218 0.5361975 -0.42392418
0.22201395 -0.21583298 -0.49575937 0.3036202 -0.05137414 0.15815918 -0.8422222 -0.09342767
-0.13109687 -0.07479791 0.73684204 -0.26989165 -0.304711 -0.4644402 -0.18702163 0.6405731
-0.06526063 0.18571831 0.13864438 1.2416826 -0.024710756 -0.3035442 -0.10485473 0.16347565
-0.04427506 -0.08085883 -0.1303299 -0.5016855 0.055016596 -0.09608717 0.21417828 -0.13914615
-0.11253847 -0.0060674376 0.28134668 0.43244353 -0.33429798 -0.3206187 0.4663789 -0.54636085
-0.7026845 -0.17054017 -0.09692382 -0.46933514 -0.24141431 -0.4767385 -0.44715828 -0.107908376
0.20102257 0.002556549 0.3761222 -0.09828583 -0.051256713 0.058522318 0.3716868 -0.09584467
0.018650735 0.12179592 -0.23439106 -0.14651993 -0.021634927 0.108139604 -0.05622841 0.057236273
0.15922466 0.14819302 -0.004921157 0.12754387 0.07618072 0.088418804 -0.12259057 -0.1699908
-0.22007205 0.06898883 -0.27646455 -0.32296443 0.035745338 -0.247818 -0.2277002 -0.24269165
-0.077104144 0.074273676 -0.30474836 0.16069421 0.30557036 0.18526186 -0.33969474 0.12231465
-0.20292106 -0.13566348 -0.23611523 -0.15863305 0.0322834 -0.17445648 0.13146724 -0.19986118
0.23807372 0.08572979 0.021096956 -0.17670715 -0.034471747 0.17851508 0.060500585 -0.055790287
0.10382107 -0.056152347 -0.3837057 -0.06952105 0.06478406 0.12200151 0.33004752 -0.2631916
-0.0015013763 -0.18442892 -0.16139385 -0.09976049 0.15818135 0.03804372 0.103038855 0.29834515
-0.31013116 -0.12733835 -0.011269786 0.0061153825 -0.15221578 -0.09780852 0.13541518 -0.2462335
0.006487426 0.06612902 -0.0682486 -0.07444934 0.0309389 -0.20369366 -0.09244211 -0.28224552
0.44889632 -0.16243944 -0.12516472 -0.24974883 -0.17474896 -0.2699221 0.08216779 0.1728953
-0.17750788 -0.048097216 -0.14205337 -0.2829717 0.015295775 0.113084294 -0.37577364 -0.16489981
-0.10708699 0.13846785 -0.1366171 -0.0027056742 0.06711158 0.05459703 0.07175945 -0.06385618
0.2792592 -0.1777159 0.027375286 -0.09030015 0.090579934 0.11718158 0.17615673 0.17875525
0.2820103 -0.08168293 0.1182223 0.12714097 -0.47132552 -0.032293357 -0.16943814 -0.18138728
0.1351844 -0.1505013 -0.14652728 -0.106563516 0.43207046 -0.15637808 0.23657823 0.024434684
0.08551157 -0.058198433 -0.14204665 -0.10005933 -0.18947539 -0.1083245 -0.063614145 -0.36218765
0.04524634 0.39848584 -0.43062994 -0.2566628 0.032488883 0.065312594 -0.027278494 -0.09679453
0.013032849 0.013938518 -0.05498411 0.16569567 -0.020237017 0.09570536 -0.665695 0.13769343
-0.3060884 -0.05981775 0.11337636 0.07833473 -0.16675155 -0.007786451 -0.028548932 0.13681456
-0.18175325 0.053612404 -0.14742567 0.25009835 -0.38535875 0.0037390837 -0.10564995 -0.050623056

W_readout f4 [1, 20]
00000000: 1b44 3bbe 2071 75bc 1ae6 02bf 13bb fd3e
00000010: aa94 9abe 5ff0 243e 3ce5 fe3d 201e 293e
00000020: fc74 3b3e 7de3 2fbf 6e09 56be 1bde d8be
00000030: cb9a 013f 0368 00bf e58d 3abe 8388 8dbe
00000040: ab45 413f 6de1 813e 1f28 14bf 4941 b13e
-0.18287699 -0.014980584 -0.5113236 0.4955679 -0.30191547 0.1610732 0.12446067 0.16515398
0.18306345 -0.68706495 -0.20902035 -0.42356953 0.5062682 -0.5015871 -0.18218191 -0.27643213
0.7549693 0.253673 -0.5787372 0.3462012

bias f4 [100]
00000000: 5adc 45be 7c07 af3b 2017 253d dd79 913d
00000010: 9744 adbd 0312 cb3c b6f0 b1bd e47f 0ebc
00000020: 4ab2 fa3b 4207 413c eece 993d 4c1e 0f3e
00000030: 94f6 683d 1ad4 3c3d 162a 183c 1145 0cbc
00000040: 08af b33d 49be 543d fffa 09be e7d3 793d
00000050: 5fc5 423d c750 933d 6629 ed3d 1a49 973d
00000060: 97e9 393d ebf5 b93d ef13 a23d e448 de3d
00000070: 7d79 5f3d bb20 c93d 4831 323d aaf2 6d3d
00000080: 52b3 413d 5238 213d aa47 d53d d8c9 21bc
00000090: d9f2 233d 77bf ab3d d833 883d 5bd2 613c
000000a0: d72f 953d fa2f 083d f304 1b3d e52c 943d
000000b0: 529b d93d f125 d43d 6f50 993d c33f cd3c
000000c0: 5a3f ab3c 9400 86ba d3a8 cd3d 6229 793d
000000d0: d262 973b 0bf7 bb3d 80d9 af3d b7ba 243d
000000e0: 6cc0 9d3d 27a2 cf3c c1ba a93d b5f8 c23d
000000f0: 0f56 af3d 20a7 b73d 45e7 bd3d 4c55 f33c
00000100: 68d1 803d 779d 093e 6e83 893c fe8c 5b3d
00000110: ce2f 0c3c b887 c03d d0ba 543d 139e c73d
00000120: 79d8 da3d 3e80 9c3d 9b1d d83c 524f d13d
00000130: 350e 193d fd1d f03c 5793 373d 90fb 3a3d
00000140: c4fd d83c 2d8c 7d3d ec89 7a3d 1e36 b83d
00000150: 41ab a53d a4e8 d03c b2ea 453d 42a0 4b3d
00000160: 718a 0f3d 09d3 bc3d d76b 933d d056 953d
00000170: ec4c 8a3d f134 cc3d 21e7 8b3d 8bf2 753d
00000180: fca9 cd3d 634e a73d 3e5b c03c 81ab 9c3d
-0.19322339 0.0053414684 0.040305257 0.07103322 -0.08460348 0.024788862 -0.0868849 -0.008697484
0.0076506482 0.011781516 0.07510172 0.13976401 0.05687578 0.046100713 0.009287378 -0.008561389
0.08773619 0.051939283 -0.13474654 0.0609931 0.04755151 0.071931414 0.11580162 0.0738699
0.045388784 0.09080108 0.07913958 0.108537465 0.05455922 0.09820696 0.04350403 0.05809275
0.047290154 0.03936035 0.104140595 -0.009874783 0.04002652 0.083861284 0.066505134 0.013783063
0.07284515 0.03324888 0.037846517 0.072351255 0.10625328 0.10358799 0.074860446 0.025054818
0.020904232 -0.0010223561 0.10041966 0.06083048 0.0046199346 0.09177979 0.08586407 0.040217128
0.07702717 0.025345875 0.082875736 0.09520093 0.08561336 0.089674234 0.09272627 0.029703759
0.06289941 0.13438974 0.016786303 0.053601258 0.008556319 0.09400886 0.05193597 0.09746947
0.1068582 0.07641648 0.026381304 0.10220207 0.037367065 0.029311175 0.04481825 0.045650065
0.026488192 0.06190126 0.06116669 0.08994697 0.08089305 0.025501557 0.048319526 0.04971338
0.035044137 0.09219939 0.07198303 0.07291949 0.06752953 0.09971035 0.06831194 0.06004576
0.100421876 0.08169248 0.023481008 0.07649899

W_ext f4 [60, 2]
00000000: d395 1b40 3f49 903d 1337 a6bf 853d d4be
00000010: 3a31 0340 60ff 483f b203 92be c8bd db3e
00000020: 5efb 91bf deee 20bf 35b8 15bf 9040 123f
00000030: 9294 7bbf 7796 963f 3fd4 fb3e 0241 cd3e
00000040: 2532 053e 2be5 ffbf e4ed 4d3d fe57 c23e
00000050: 1174 8ebd 235f 443f d8c0 acbf ec95 26bf
00000060: 9659 e1bf 4ff6 a2be 7d90 3b40 017a 82bf
00000070: 6746 a83f 8629 5ebf d788 10bf a796 8fbf
00000080: 125e 93bf af6f e3bf 7d02 f03f 8cf8 ac3f
00000090: d690 043f 578d 193f 67c7 d4be e470 9e3f
000000a0: 6687 2e3f 022b 3cbf 2eff 97be 0cbb 8cbe
000000b0: 6211 b13e 394b a73f e796 b3bf dc3e 17bf
000000c0: 88a4 0d40 3872 85bd 66d4 2340 a741 71be
000000d0: a506 7ebe 04fb 42bf 74d3 54be aaf0 1d3f
000000e0: b35d 17bf 12b1 d8be c89b cb3e 443f 513f
000000f0: 1f4d 30bf 63f0 07c0 091b aebe f385 6dbf
00000100: 8f84 8e3f 6cd1 0fbe c584 b6be 0b7e 023f
00000110: 5e8c 273e 1fd7 25bf 457d a13e b337 98bf
00000120: c716 e2bd 9c99 8a3f 00c2 eb3e 8a44 0a40
00000130: 2ad4 91bf 5a53 c73e 29e6 a03e f052 29bf
00000140: d163 593f b323 df3e 2402 f03f 6ccb a03e
00000150: 4e50 ed3f 10b7 393f df6f 90bf 5766 1abf
00000160: d605 743e b0a4 39bf 3043 86bf d305 a33f
00000170: ca80 913f 8d1e 71be 3b42 173f ac9b ec3f
00000180: 7dc9 8d3e 1f14 a93d 7c87 d6be 11e8 e4be
00000190: 2256 233e 1877 5d3e 55ae 9fbf 7e65 bcbe
000001a0: f61a 01c0 5cdf 523f ffb1 af3f 1279 03bf
000001b0: 45ce 44bf 00bf 7ebe 9f88 f5be 03d2 113f
000001c0: f272 a5bf 8674 06bf d0a0 b43e fd65 123f
000001d0: fbb2 8bbe 41de 61bd b2f5 5d3c 8fc3 1c3e
2.4310195 0.070452206 -1.2985557 -0.41453186 2.0498796 0.7851467 -0.28518444 0.4291823
-1.1404836 -0.6286448 -0.584842 0.57129765 -0.98273575 1.1764668 0.49185368 0.4008866
0.1300741 -1.9991812 0.0502757 0.37957758 -0.06955732 0.7670767 -1.3496351 -0.6507251
-1.7605464 -0.31828544 2.9306939 -1.0193483 1.3146485 -0.8678211 -0.564588 -1.121785
-1.1513083 -1.7768458 1.8750759 1.351335 0.517835 0.5998129 -0.41558382 1.2378201
0.6817535 -0.73503125 -0.29686874 -0.27486455 0.34583575 1.3069831 -1.4030427 -0.5908029
2.2131672 -0.06515926 2.5598388 -0.235602 -0.24807222 -0.7616427 -0.20783788 0.6169535
-0.5912735 -0.42322594 0.3976729 0.8173716 -0.6886768 -2.124047 -0.34005 -0.92782515
1.1134204 -0.14044732 -0.3564817 0.50973576 0.1636214 -0.64781374 0.31540886 -1.1891998
-0.11039501 1.0828128 0.46046448 2.1604333 -1.1392872 0.3893078 0.31425598 -0.6614218
0.8491793 0.43581924 1.8750653 0.314052 1.8540132 0.72544956 -1.128414 -0.6031241
0.23830351 -0.7251692 -1.0489254 1.2736152 1.1367428 -0.2354681 0.59085435 1.8485007
0.27692786 0.08255791 -0.4190024 -0.44708303 0.15950826 0.21627462 -1.2475077 -0.36796182
-2.0172706 0.8237207 1.3726195 -0.51356614 -0.7687724 -0.24877548 -0.47955796 0.5696108
-1.2925704 -0.5252155 0.3527894 0.5718687 -0.2728499 -0.0551436 0.013547348 0.15308975
