DrosophilaLabRot/data_store/network_compare/2nd_order_no_extinction/trained_nets/second_order_only_5000ep_3hop_N02.pt (torch_old, 41703 bytes, 4 tensors)

W_recur f4 [100, 100]
-0.3729314 -0.4815257 0.25241515 0.17994465 0.21601085 -0.094262086 -0.2304066 -0.16265339
0.027836157 0.22711733 -0.27094433 -0.11650631 -0.36125448 0.12737979 0.03172291 0.29695874
-0.1620206 -0.058914423 0.09525242 0.1111501 0.018371023 -0.009803969 -0.06129032 0.100836866
-0.08852345 -0.012507946 -0.04637631 0.083170936 -0.14977689 0.1139894 0.080008045 -0.09047909
0.01430326 0.019664986 -0.16846843 0.12085124 0.18239322 -0.04699209 -0.12259764 0.23605897
-0.09575497 -0.11501774 0.06633181 0.03898459 -0.10351665 0.014277994 -0.051192906 0.09357485
-0.024143774 -0.23289743 -0.028339183 -0.011906529 0.19435623 0.042371765 -0.14745487 0.08452746
-0.12744221 -0.022796243 0.08809138 0.024106216 -0.11567884 0.019654695 -0.14555208 -0.0035392223
-0.090963155 -0.07720654 -0.061986648 0.012448874 0.18956257 0.18975915 0.076823175 -0.15264282
0.18211125 -0.03305963 -0.057197794 -0.18920241 0.11407662 -0.13596821 0.07094397 0.10224816
-0.03760371 -0.4544598 0.25643572 0.030158855 0.19927174 -0.23974541 -0.052828312 0.07304357
-0.2771129 0.28530395 -0.040490057 0.112208806 0.070400506 0.16887599 -0.058703937 -0.011302756
-0.11770774 -0.18939498 -0.11634868 0.07251494 0.01625741 0.10151603 -0.33697256 0.11674762
-0.12877704 0.16858968 0.13628142 -0.24651189 -0.012742886 -0.2232581 -0.011363901 -0.24571994
-0.28991476 0.18397182 0.17620884 -0.18983667 -0.1921568 0.21599615 -0.26175863 -0.09000221
-0.26592866 -0.16329393 0.18694681 0.21982858 -0.07835546 0.08877112 -0.090104364 -0.08837144
-0.122526124 0.3952439 0.17598179 0.02645052 -0.005528772 0.3160327 0.29662403 -0.09612013
-0.22656809 -0.034942776 0.043099254 -0.15108997 -0.12114566 0.05081667 -0.03685448 0.0042020455
-0.055265833 0.15637323 -0.17390418 0.09149517 -0.032683246 0.14657885 -0.10345416 -0.0193467
-0.17488676 0.10707197 -0.34752712 -0.2051771 0.043563537 0.018922994 0.046546098 -0.1378404
-0.2984884 0.20282917 -0.041137915 0.25089818 0.32835677 -0.015166268 -0.10803908 0.15379038
0.12706468 -0.14218722 -0.22326797 0.25246432 -0.16788591 0.04346034 -0.49823725 -0.054569922
0.04818529 -0.0033603206 0.027195781 -0.030649044 -0.43977174 0.04284824 -0.42061332 -0.35379672
-0.20242007 0.047575247 0.21689771 -0.1648749 0.2654807 -0.14034642 0.059365068 0.13460666
0.16799869 -0.044969417 -0.042949826 0.0096442355 0.0022594724 -0.1252998 0.161962 -0.009108721
-0.043471657 -0.17606129 0.16234516 0.10045129 -0.24366379 0.16168888 -0.30828205 -0.15124771
0.2860716 0.36711076 0.3364222 0.32127422 0.3671804 -0.12075004 -0.292127 0.033969264
-0.17110349 -0.01262912 0.25874713 0.07947051 0.015926074 -0.042307828 0.08140307 0.087891646
-0.14934137 -0.08133445 -0.15953998 0.077780865 -0.34177053 0.053674493 -0.22853643 -0.044217847
0.20302606 -0.19417226 0.1492565 0.025882486 -0.069014385 0.16800927 -0.033471633 -0.14874332
-0.043739628 -0.18928343 0.1439522 0.03462307 -0.31686807 -0.06775372 0.043927006 -0.17750329
-0.12878023 0.28348103 -0.10167167 -0.048256315 -0.084469855 0.3107117 -0.25510618 -0.13383152
00000000: ddf0 bebe 898a f6be 8f3c 813e 6943 383e
00000010: f331 5d3e 7b0c c1bd b5ef 6bbe 9c8e 26be
00000020: a708 e43c 7291 683e 37b9 8abe dc9a eebd
00000030: 59f6 b8be d96f 023e e2ef 013d fa0a 983e
00000040: bae8 25be 4050 71bd b313 c33d aaa2 e33d
00000050: d47e 963c d4a0 20bc 8f0b 7bbd 8f83 ce3d
00000060: c84b b5bd 21ee 4cbc 16f5 3dbd 8655 aa3d
00000070: 1d5f 19be 4673 e93d 42db a33d 1a4d b9bd
00000080: 3858 6a3c 7718 a13c fd82 2cbe db80 f73d
00000090: 4ac5 3a3e c77a 40bd 7914 fbbd 71b9 713e
000000a0: 2f1b c4bd 6c8e ebbd f9d8 873d 4eae 1f3d
000000b0: 8a00 d4bd 3fee 693c a7af 51bd 2ca4 bf3d
000000c0: 2ac9 c5bc aa7c 6ebe 9327 e8bc 9a13 43bc
000000d0: 5205 473e 048e 2d3d 69fe 16be bc1c ad3d
000000e0: 3680 02be 30bf babc 4169 b43d 667a c53c
000000f0: 07e9 ecbd e202 a13c 9b0b 15be 4cf2 67bb
00000100: e44a babd 761e 9ebd b6e5 7dbd 5df6 4b3c
00000110: b11c 423e 3950 423e 7855 9d3d 664e 1cbe
00000120: 5f7b 3a3e 8969 07bd 3c48 6abd 47be 41be
00000130: 01a1 e93d 403b 0bbe 124b 913d 7c67 d13d
00000140: 5906 1abd f4ae e8be 8b4b 833e b40f f73c
00000150: e40d 4c3e d27f 75be 8062 58bd de97 953d
00000160: bee1 8dbe 5c13 923e e7d8 25bd bbcd e53d
00000170: 242e 903d d4ed 2c3e 8a73 70bd 322f 39bc
00000180: c110 f1bd c2f0 41be 3748 eebd b682 943d
00000190: 432e 853c a3e7 cf3d ab87 acbe 6019 ef3d
000001a0: 21de 03be c6a2 2c3e 5b8d 0b3e 9d6d 7cbe
000001b0: 8ac7 50bc c59d 64be a82f 3abc 029e 7bbe
000001c0: b56f 94be 1c63 3c3e 1770 343e 8b64 42be
000001d0: c1c4 44be 182e 5d3e 3a05 86be 1453 b8bd
000001e0: cd27 88be 8636 27be fc6e 3f3e be1a 613e
000001f0: d478 a0bd a2cd b53d a388 b8bd 16fc b4bd
00000200: faee fabd 695d ca3e 9234 343e c3ae d83c
00000210: b32a b5bb 0acf a13e 1bdf 973e a1da c4bd
00000220: 7701 68be 2820 0fbd d888 303d 54b7 1abe
00000230: 371b f8bd 2425 503d b9f4 16bd 50b1 893b
00000240: 6d5e 62bd 4e20 203e f013 32be d261 bb3d
00000250: dede 05bd c418 163e c6df d3bd f87c 9ebc
00000260: 8415 33be 8d48 db3d 13ef b1be f219 52be
00000270: ae6f 323d 6504 9b3c 1fa7 3e3d 0926 0dbe
00000280: 79d3 98be 73b2 4f3e 3b80 28bd ba75 803e
00000290: 611e a83e f07b 78bc 9843 ddbd 3a7b 1d3e
000002a0: 3e1d 023e 8799 11be 5ca0 64be 0143 813e
000002b0: 49ea 2bbe 7803 323d f418 ffbe b684 5fbd
000002c0: f05d 453d d338 5cbb b0c9 de3c b413 fbbc
000002d0: c329 e1be a381 2f3d a15a d7be d824 b5be
000002e0: 3547 4fbe 43de 423d 6f1a 5e3e f7d4 28be
000002f0: 16ed 873e f9b6 0fbe c928 733d 54d6 093e
00000300: d907 2c3e da31 38bd 28ec 2fbd db02 1e3c
00000310: a813 143b 974e 00be 5ed9 253e bf3c 15bc
00000320: 560f 32bd 6949 34be cf3d 263e 68b9 cd3d
00000330: 0083 79be c591 253e 25d7 9dbe aee0 1abe
00000340: fa77 923e f1f5 bb3e 883f ac3e 0e7e a43e
00000350: 12ff bb3e cc4b f7bd ac91 95be 5b23 0b3d
00000360: c135 2fbe 5eea 4ebc 817a 843e 6fc1 a23d
00000370: 6677 823c f94a 2dbd a7b6 a63d 8900 b43d
00000380: f2ec 18be ad92 a6bd 735e 23be 934b 9f3d
00000390: 8cfc aebe c9d9 5b3d 7405 6abe c61d 35bd
000003a0: 10e6 4f3e 18d5 46be b2d6 183e 8207 d43c
000003b0: 6a57 8dbd 9f0a 2c3e 8d19 09bd 2b50 18be
000003c0: 5328 33bd 84d3 41be 3568 133e ecd0 0d3d
000003d0: 883c a2be 76c2 8abd ceec 333d 6cc3 35be
000003e0: f7de 03be 6d24 913e 3d39 d0bd 6aa8 45bd
000003f0: 88fe acbd 9b15 9f3e 479d 82be 210b 09be

W_readout f4 [1, 20]
-0.06534397 0.031509228 -0.4496094 0.561785 -0.69562185 0.25110218 -0.15974355 -0.38681957
0.7144638 0.8053275 -0.3074654 0.09443394 -0.5318681 0.024639696 -0.015982812 0.5461962
-0.54459405 -0.21324536 0.3963136 -0.14874081
00000000: 0fd3 85bd d20f 013d 3433 e6be 24d1 0f3f
00000010: 4614 32bf 7790 803e d093 23be 370d c6be
00000020: 19e7 363f f129 4e3f 1b6c 9dbe 9566 c13d
00000030: 8228 08bf 30d9 c93c 63ee 82bc 84d3 0b3f
00000040: 846a 0bbf fe5c 5abe 9ee9 ca3e 834f 18be

bias f4 [100]
0.09739789 0.08484727 0.0144459875 0.09284711 0.05835623 0.031025883 0.02431234 0.0209902
0.043434903 0.03521613 -0.011499881 0.02699409 0.09339399 0.06398051 -0.088065475 0.059247043
0.09074088 -0.07715335 -0.025862368 -0.030923149 0.06507251 0.06433603 0.09085275 0.061478168
0.077078946 0.038744256 0.13018136 0.05438886 0.0724851 0.05792582 0.05948976 0.05551141
0.051932752 0.08490357 0.080011606 0.05037567 0.084013835 0.04137052 0.06676399 0.02338257
0.074863054 0.09623278 -0.01172899 0.029646857 0.058427386 0.07957382 0.048665956 0.06333818
0.07800666 0.063740045 0.0631669 0.0010490688 0.09443289 0.030207932 0.07976152 0.051824357
0.09981167 0.059778653 0.04270612 0.055783737 0.09938591 -0.0070299827 0.05305314 0.06651649
0.052103464 0.0890971 0.046155885 -0.0031345757 0.05122535 0.09572623 0.022589544 0.06854342
0.0946727 0.08504931 0.023321766 0.02589838 0.08066298 0.059497207 0.09080824 0.07066569
0.03298394 -0.0037957332 0.06823836 0.0666619 0.058750413 0.039784886 0.08705561 0.020475034
0.070520364 0.081640564 0.044949554 0.04859499 0.020613618 0.06819145 0.035520706 0.05898095
0.06109317 0.052271355 0.05335408 0.045328777
00000000: 8c78 c73d 68c4 ad3d ddae 6c3c a026 be3d
00000010: f106 6f3d fe29 fe3c ac2a c73c a4f3 ab3c
00000020: cce8 313d ca3e 103d ff69 3cbc b622 dd3c
00000030: 5945 bf3d 3708 833d ac5b b4bd 07ad 723d
00000040: 5bd6 b93d 9302 9ebd 51dd d3bc 8b52 fdbc
00000050: bc44 853d 9cc2 833d 0211 ba3d 88d0 7b3d
00000060: 91db 9d3d 4cb2 1e3d 434e 053e dac6 5e3d
00000070: 1173 943d a043 6d3d 89ab 733d ef5f 633d
00000080: 70b7 543d ece1 ad3d 20dd a33d b856 4e3d
00000090: 720f ac3d 2274 293d 8fbb 883d ce8c bf3c
000000a0: cd51 993d b115 c53d f32a 40bc f7dd f23c
000000b0: 8e51 6f3d 99f7 a23d f455 473d 73b7 813d
000000c0: f5c1 9f3d 248a 823d a65d 813d e880 893a
000000d0: 0866 c13d a076 f73c 025a a33d c745 543d
000000e0: 106a cc3d 76da 743d 9dec 2e3d 7d7d 643d
000000f0: d78a cb3d c55b e6bb 404e 593d cc39 883d
00000100: 716a 553d 8a78 b63d f40d 3d3d 746d 4dbb
00000110: acd1 513d 1d0c c43d b50d b93c 7e60 8c3d
00000120: c3e3 c13d 552e ae3d 4a0d bf3c d728 d43c
00000130: a232 a53d 58b3 733d acf9 b93d 2cb9 903d
00000140: 2b1a 073d d6c1 78bb 8ec0 8b3d 0986 883d
00000150: 46a4 703d 7af5 223d 364a b23d 42bb a73c
00000160: fb6c 903d 2b33 a73d 061d 383d 8a0b 473d
00000170: e4dd a83c f5a7 8b3d 297e 113d 0296 713d
00000180: d53c 7a3d 7d1a 563d cf89 5a3d abaa 393d

W_ext f4 [60, 2]
-0.87552714 -1.2503326 -0.6529913 0.03583774 1.7578354 0.028226037 1.5034078 -0.8427988
-0.10503152 -0.34198302 -1.7221746 -0.23170999 0.95597994 -0.5062528 1.1635461 -0.19433406
-0.5205469 -0.7443312 -2.2932825 1.7955009 -0.15337904 -1.0184618 -0.06866865 0.27798533
-0.67156535 0.65934473 -0.18533967 -0.016979652 1.5180101 -0.39345178 1.323154 -0.31035477
-0.62158275 0.31764027 1.6732826 -0.58362114 -0.8875194 0.19513 -0.0038881092 -2.1599636
1.5653038 -0.6917329 -0.43674988 1.2717062 -0.48858303 1.3818427 -0.5345855 0.08780214
0.40902612 -0.09223259 0.31089568 -0.88844335 -0.23125799 1.1757944 0.2400647 1.1793574
-0.40593743 -0.94787884 0.21509068 -0.12804991 -0.8142699 0.19974826 1.8129805 0.16618885
1.3179265 -1.0358557 0.3127716 -0.9104026 -0.42839742 0.10396215 -0.2829934 0.6055512
-2.8032298 -0.12720029 -0.87150514 0.69564664 -0.908938 0.8742444 -0.018438129 0.7101447
0.9186273 3.1609907 -0.94018114 -0.27830312 0.5169017 -0.29083505 0.8802707 0.5571134
0.7708567 -0.5152683 -0.46929184 -0.45253754 1.0941378 -0.18048596 -0.60458636 2.4824917
-0.14699924 -1.0881153 -1.5214219 -0.35389772 -0.18774916 0.8117732 -0.09858156 -0.012755257
0.27466545 -0.005216424 -0.3831366 -0.69108135 0.38728786 0.7032796 -1.0860518 0.93301886
0.24298097 0.5135579 0.4520837 -0.747533 0.17295678 0.94732296 0.19672942 -1.2596436
00000000: 8c22 60bf e60a a0bf 702a 27bf 98ca 123d
00000010: c000 e13f 4a3a e73c ab6f c03f aac1 57bf
00000020: c41a d7bd 6618 afbe 3870 dcbf 6245 6dbe
00000030: 1abb 743f c999 01bf 14ef 943f 82ff 46be
00000040: 9042 05bf 7d8c 3ebf 24c5 12c0 f9d2 e53f
00000050: 650f 1dbe f55c 82bf 26a2 8cbd 1854 8e3e
00000060: b5eb 2bbf d1ca 283f afc9 3dbe e918 8bbc
00000070: 284e c23f 8372 c9be 1c5d a93f d2e6 9ebe
00000080: 0c20 1fbf bfa1 a23e 202e d63f 3268 15bf
00000090: 7934 63bf 29d0 473e a6cf 7ebb d83c 0ac0
000000a0: e05b c83f 6815 31bf ae9d dfbe 45c7 a23f
000000b0: 8e27 fabe 39e0 b03f 98da 08bf 9cd1 b33d
000000c0: df6b d13e 71e4 bcbd b82d 9f3e 0671 63bf
000000d0: e5ce 6cbe 6e80 963f 85d3 753e 2ff5 963f
000000e0: 08d7 cfbe 30a8 72bf bb40 5c3e 841f 03be
000000f0: fe73 50bf cf8a 4c3e bf0f e83f 692d 2a3e
00000100: d1b1 a83f eb96 84bf 9923 a03e 2510 69bf
00000110: e856 dbbe 1cea d43d 83e4 90be 6705 1b3f
00000120: 1e68 33c0 cb40 02be f61a 5fbf e615 323f
00000130: 29b0 68bf 7bce 5f3f 8f0b 97bc 0bcc 353f
00000140: 292b 6b3f ac4d 4a40 b6af 70bf bf7d 8ebe
00000150: ab53 043f 55e8 94be 6c59 613f fc9e 0e3f
00000160: dd56 453f a0e8 03bf 0547 f0be 00b3 e7be
00000170: b50c 8c3f 50d1 38be 2cc6 1abf 25e1 1e40
00000180: f886 16be 5d47 8bbf f4bd c2bf 1532 b5be
00000190: 5141 40be 5ed0 4f3f 21e5 c9bd 6dfb 50bc
000001a0: f3a0 8c3e 89ee aabb 7b2a c4be b5ea 30bf
000001b0: 984a c63e 220a 343f bf03 8bbf 53da 6e3f
000001c0: 01d0 783e 8878 033f 8477 e73e 535e 3fbf
000001d0: 951b 313e c283 723f 7073 493e 003c a1bf
