DrosophilaLabRot/data_store/mbon_sensitivity/second_order_only_nets/trained_nets/06_mbons/second_order_no_extinct_5000ep_1hop_N19.pt (torch_old, 21839 bytes, 4 tensors)

W_recur f4 [72, 72]
0.15109266 0.19300556 0.37005803 0.38672903 -1.4050739 -0.92935395 -0.040945318 -0.107152075
-0.10375602 0.07280286 -0.054802798 0.055053193 0.008583437 0.017819861 -0.19588223 0.13808809
0.018910028 -0.02150989 0.048246752 -0.06594922 0.04366061 -0.19027573 -0.14263135 0.003809853
0.021865986 -0.092523634 -0.19153202 -0.047502063 0.049231168 0.10170171 0.07388918 0.014584536
0.1339347 -0.13250197 0.036283877 -0.119921334 -0.0054424126 -0.027924463 -0.014220491 0.1715188
0.026978865 -0.061265808 0.0006108742 0.09640121 -0.27454126 0.02497518 0.09683826 -0.139382
0.08479122 0.0024344642 0.15606087 -0.010695685 0.107287735 0.07314231 0.14608248 -0.13651939
0.017149262 0.0956618 -0.11974805 -0.0840643 -0.041536573 0.023005052 -0.12187662 0.04369849
0.015976809 0.055559818 -0.4456728 0.3795317 -0.45959824 -0.17074144 -0.08953351 0.5799229
-0.48064715 0.21042202 0.7164315 0.44176057 0.49133742 -0.7209442 0.027064746 0.036455404
0.1053645 0.077210955 0.051960167 0.06082992 0.030510327 0.06711937 0.08328337 0.025876734
-0.0752817 0.21915762 0.13837872 0.062028468 -0.03418417 0.062714934 -0.24489227 0.021854037
-0.18284911 0.0143266255 0.06792993 -0.1497695 -0.040995087 0.12053199 0.073199965 -0.11058426
-0.11940549 -0.04150089 0.18151197 0.05165793 -0.1343497 0.1962469 0.05620753 0.05311415
-0.09016011 -0.028216623 0.11865068 0.012810441 -0.13784291 -0.11459723 0.06719729 -0.012724152
-0.0043868353 0.1510935 -0.09155098 -0.25113603 0.10003966 -0.13346155 0.0075397394 -0.12233092
-0.0057692444 0.041270304 -0.22006515 0.01771622 0.0034166398 -0.0048616743 -0.019903995 -0.037407458
0.42452344 -0.19835575 -0.31803447 -0.114561394 -0.51792 0.22944726 -0.4727589 0.11293385
0.10207065 0.36942524 -0.25709757 0.2893705 -0.5681626 -0.13812418 -0.0013467224 -0.13040857
0.18883504 -0.036654495 0.08217238 0.09958168 -0.03195533 -0.122871414 -0.00027366047 0.095882446
-0.1312235 0.009819612 0.03283514 -0.115432106 -0.11261108 0.15357772 0.013829763 -0.04770269
0.010538511 0.15473573 -0.033336893 -0.03842126 0.025378667 0.066699035 0.061194804 0.17673826
-0.0011643027 -0.15829314 -0.050793592 -0.03977749 0.1942026 -0.07414391 0.036824286 -0.030063791
-0.074842885 0.1686474 -0.03239677 0.16008788 -0.11605907 -0.057306223 0.21890214 -0.091125965
0.11594282 0.012337019 0.20926185 -0.14310108 0.00079482136 -0.31718177 0.03973953 -0.07964592
0.04038502 0.044808153 -0.0684166 0.0026406758 0.14315774 0.14954698 -0.121807665 0.08890761
0.061727848 -0.17395407 0.11022291 -0.17955329 -0.33697376 -0.33416584 0.02963772 0.23494886
0.035612408 0.15627341 0.27651247 0.108314894 -0.371009 -0.43737388 0.03815188 0.081537694
-0.013925411 -0.11103127 0.119045585 0.0038850778 -0.017985985 0.08703934 0.06813567 -0.13416216
-0.09925328 -0.013166156 -0.026706029 -0.011468286 0.011575785 -0.10564311 -0.1246486 0.029120969
-0.11108583 -0.00058703264 -0.10137232 0.010829405 -0.23548089 0.15330586 -0.14610642 -0.023128169
0.071252435 0.060668394 -0.06511834 -0.010617895 0.15641908 -0.1735926 0.016638191 -0.06277679
00000000: 09b8 1a3e 40a3 453e 3f78 bd3e 5901 c63e
00000010: 76d9 b3bf 24ea 6dbf 47b6 27bd 8c72 dbbd
00000020: 097e d4bd aa19 953d e678 60bd 757f 613d
00000030: 8ba1 0c3c f5fa 913c 5a95 48be f766 0d3e
00000040: 34e9 9a3c 8235 b0bc 639e 453d 6210 87bd
00000050: 78d5 323d a4d7 42be f40d 12be baae 793b
00000060: 4c20 b33c 087d bdbd f820 44be 8691 42bd
00000070: 9fa6 493d fc48 d03d 3653 973d faf3 6e3c
00000080: 2e26 093e 99ae 07be 679e 143d 5199 f5bd
00000090: 4456 b2bb d8c1 e4bc 10fd 68bc a0a2 2f3e
000000a0: c802 dd3c dbf1 7abd 1323 203a ff6d c53d
000000b0: ac90 8cbe c098 cc3c 2353 c63d 28ba 0ebe
000000c0: 05a7 ad3d 888b 1f3b 6cce 1f3e f43c 2fbc
000000d0: acb9 db3d a3cb 953d a596 153e bdcb 0bbe
000000e0: 9c7c 8c3c 55ea c33d 773e f5bd e729 acbd
000000f0: 4122 2abd 1775 bc3c 739a f9bd 30fd 323d
00000100: cce1 823c b192 633d 3a2f e4be fb51 c23e
00000110: 7650 ebbe d8d6 2ebe 585d b7bd d475 143f
00000120: 6217 f6be df78 573e 0e68 373f 712e e23e
00000130: 9490 fb3e cd8f 38bf e3b6 dd3c 4352 153d
00000140: 58c9 d73d c720 9e3d 2fd4 543d cb28 793d
00000150: cbf0 f93c e175 893d 7990 aa3d 72fb d33c
00000160: 4b2d 9abd db6a 603e 27b3 0d3e 9011 7e3d
00000170: b304 0cbd b070 803d 0ac5 7abe 3d07 b33c
00000180: cc3c 3bbe 39ba 6a3c d91e 8b3d 2d5d 19be
00000190: 77ea 27bd 7ad9 f63d dde9 953d 007a e2bd
000001a0: de8a f4bd d6fc 29bd 46de 393e 4497 533d
000001b0: f892 09be f3f4 483e de39 663d 398e 593d
000001c0: dda5 b8bd 8c26 e7bc 21ff f23d e2e2 513c
000001d0: b126 0dbe f4b1 eabd bc9e 893d f678 50bc
000001e0: 71bf 8fbb 41b8 1a3e 157f bbbd e794 80be
000001f0: 98e1 cc3d 25aa 08be eb0f f73b a288 fabd
00000200: ee0b bdbb 0d0b 293d c258 61be 9b21 913c
00000210: b4e9 5f3b ae4e 9fbb b40d a3bc 9038 19bd
00000220: 235b d93e c51d 4bbe 6ad5 a2be 2a9f eabd
00000230: 6896 04bf 39f4 6a3e 740d f2be dd49 e73d
00000240: 6b0a d13d 4e25 bd3e 4ba2 83be 5f28 943e
00000250: 1b73 11bf 6d70 0dbe 8184 b0ba d389 05be
00000260: f95d 413e 0623 16bd fe49 a83d 7bf1 cb3d
00000270: 98e3 02bd 02a4 fbbd 167a 8fb9 045e c43d
00000280: 745f 06be 70e2 203c 247e 063d ab67 ecbd
00000290: a3a0 e6bd 7a43 1d3e 3b96 623c e563 43bd
000002a0: b8a9 2c3c 0b73 1e3e 448c 08bd 9c5f 1dbd
000002b0: ece6 cf3c 8199 883d 67a7 7a3d e0fa 343e
000002c0: 849b 98ba 9917 22be f10c 50bd b9ed 22bd
000002d0: 0cdd 463e c3d8 97bd 10d5 163d 5748 f6bc
000002e0: 3a47 99bd e7b1 2c3e 7ab2 04bd 14ee 233e
000002f0: 61b0 edbd eeb9 6abd e227 603e 40a0 babd
00000300: 6e73 ed3d 3521 4a3c bd48 563e 1789 12be
00000310: 8f5b 503a a665 a2be ebc5 223d 661d a3bd
00000320: c36a 253d c188 373d 011e 8cbd 300f 2d3b
00000330: f197 123e d822 193e 4c76 f9bd 3115 b63d
00000340: 57d6 7c3d 0421 32be 8dbc e13d d1dc 37be
00000350: d387 acbe c917 abbe ceca f23c 6f96 703e
00000360: 51de 113d 2306 203e 0b93 8d3e 33d4 dd3d
00000370: e4f4 bdbe 78ef dfbe 2545 1c3d 3cfd a63d
00000380: 6827 64bc 5d64 e3bd 2cce f33d ca9c 7e3b
00000390: 5857 93bc ae41 b23d b78a 8b3d ce61 09be
000003a0: 4e45 cbbd dcb6 57bc 9ac6 dabc 7ae5 3bbc
000003b0: 5da8 3d3c 6a5b d8bd c447 ffbd 198f ee3c
000003c0: f880 e3bd 18e3 19ba 4a9c cfbd d16d 313c
000003d0: e721 71be 36fc 1c3e ec9c 15be 4977 bdbc
000003e0: ccec 913d 6c7f 783d c45c 85bd aef6 2dbc
000003f0: 532c 203e 42c2 31be d14c 883c 1e91 80bd

W_readout f4 [1, 6]
-1.089172 -0.8282395 1.5903106 1.2715563 -0.27953166 -0.9587869
00000000: fd69 8bbf 8107 54bf 4c8f cb3f 5bc2 a23f
00000010: c61e 8fbe 0f73 75bf

bias f4 [72]
0.12564236 0.013249309 0.017505104 0.08465715 -0.0018186315 -0.2702939 0.1 0.1
0.1 0.1 0.1 0.1 0.1 0.1 0.1 0.1
0.1 0.1 0.1 0.1 0.1 0.1 0.1 0.1
0.1 0.1 0.1 0.1 0.1 0.1 0.1 0.1
0.1 0.1 0.1 0.1 0.1 0.1 0.1 0.1
0.1 0.1 0.1 0.1 0.1 0.1 0.1 0.1
0.1 0.1 0.1 0.1 0.1 0.1 0.1 0.1
0.1 0.1 0.1 0.1 0.1 0.1 0.1 0.1
0.1 0.1 0.03321958 -0.06679851 -0.04320117 0.027418112 0.02093544 0.052386638
00000000: 64a8 003e a113 593c dd66 8f3c ba60 ad3d
00000010: 265f eeba f663 8abe cdcc cc3d cdcc cc3d
00000020: cdcc cc3d cdcc cc3d cdcc cc3d cdcc cc3d
00000030: cdcc cc3d cdcc cc3d cdcc cc3d cdcc cc3d
00000040: cdcc cc3d cdcc cc3d cdcc cc3d cdcc cc3d
00000050: cdcc cc3d cdcc cc3d cdcc cc3d cdcc cc3d
00000060: cdcc cc3d cdcc cc3d cdcc cc3d cdcc cc3d
00000070: cdcc cc3d cdcc cc3d cdcc cc3d cdcc cc3d
00000080: cdcc cc3d cdcc cc3d cdcc cc3d cdcc cc3d
00000090: cdcc cc3d cdcc cc3d cdcc cc3d cdcc cc3d
000000a0: cdcc cc3d cdcc cc3d cdcc cc3d cdcc cc3d
000000b0: cdcc cc3d cdcc cc3d cdcc cc3d cdcc cc3d
000000c0: cdcc cc3d cdcc cc3d cdcc cc3d cdcc cc3d
000000d0: cdcc cc3d cdcc cc3d cdcc cc3d cdcc cc3d
000000e0: cdcc cc3d cdcc cc3d cdcc cc3d cdcc cc3d
000000f0: cdcc cc3d cdcc cc3d cdcc cc3d cdcc cc3d
00000100: cdcc cc3d cdcc cc3d 4111 083d a8cd 88bd
00000110: b6f3 30bd f39b e03c cd80 ab3c 5f93 563d

W_ext f4 [6, 2]
0.11581475 0.2865902 0.28383142 0.32947788 -0.20848975 -1.0258391 -0.021409417 0.24578498
-0.82272285 -0.8788788 0.086525336 0.13117819
00000000: 4930 ed3d f3bb 923e 5a52 913e 53b1 a83e
00000010: 567e 55be b24e 83bf cd62 afbc 0faf 7b3e
00000020: f79d 52bf 33fe 60bf 3234 b13d 9353 063e
