DrosophilaLabRot/data_store/mbon_sensitivity/second_order_nets/trained_nets/32_mbons/second_order_5000ep_1hop_N20.pt (torch_old, 63127 bytes, 4 tensors)

W_recur f4 [124, 124]
0	0xbd54ddf0	-0.05196947
1	0xbe184a74	-0.14872152
2	0xbe1171e7	-0.14203607
3	0x3dacdc65	0.084404744
4	0x3e071862	0.13192895
5	0x3bb72867	0.005589533
6	0xbe6d926f	-0.23200391
7	0x3ea4b5b6	0.32169884
8	0x3dfc4f90	0.12319863
9	0x3e520678	0.2051028
10	0xbe26760c	-0.16255969
11	0xbe05710d	-0.13031407
12	0xbd836c7e	-0.064171776
13	0x3d971713	0.07377448
14	0xbe1808a3	-0.14847045
15	0x3d1000cf	0.03515702
16	0x3e328bc0	0.17436123
17	0x3e71c432	0.23609999
18	0xbc519998	-0.012792967
19	0xbdc9fe8f	-0.09863006
20	0x3d821536	0.06351702
21	0xbe5a1f60	-0.21301031
22	0xbc392c67	-0.01130209
23	0x3d3541a2	0.044252045
24	0xbd95cfb7	-0.07315009
25	0xbe8585aa	-0.2607854
26	0xbdc99405	-0.098426856
27	0xbe62b56b	-0.22139518
28	0xbdee326f	-0.11630713
29	0x3dc2def7	0.095151834
30	0x3ca45c25	0.02006347
31	0x3e48186f	0.1954057
32	0x3cb6c65f	0.022311388
33	0xbda7e0ae	-0.08197151
34	0x3d73ee55	0.059553463
35	0xbc24b9d9	-0.010054075
36	0xba601885	-0.00085485756
37	0x3e1a28b2	0.15054587
38	0x3c721ccc	0.0147773735
39	0xbc3a7b47	-0.011381931
40	0x3ca0f080	0.01964593
41	0xbdd7937e	-0.10526179
42	0x3ddfe5c6	0.10932498
43	0xbdf465c4	-0.11933473
44	0x3dcd73b3	0.100318335
45	0xbc80bb79	-0.015714394
46	0x3d37d980	0.04488516
47	0x3e097b4d	0.13425942
48	0xbd5d7241	-0.05406404
49	0xbd17ad44	-0.037030473
50	0xbe170869	-0.14749302
51	0x3e334b71	0.17509247
52	0xbce6fb0e	-0.028195884
53	0x3e6e0956	0.23245749
54	0x3c1d76f4	0.00961088
55	0x3d312f88	0.04325822
56	0xbcb2b18c	-0.021813177
57	0xbd2cefcc	-0.042220876
58	0x3deba817	0.1150667
59	0xbe6cd838	-0.23129356
60	0x3dab2a3d	0.08357666
61	0x3c1f7ecf	0.009734823
62	0x3ba704d2	0.00509701
63	0x3e4f4f99	0.20245208
64	0x3d8902ac	0.06689963
65	0xbd366fff	-0.0445404
66	0x3e05708b	0.13031213
67	0x3e14d380	0.14533806
68	0x3dd83017	0.105560474
69	0x3db1bee1	0.086789854
70	0xbd2478e5	-0.040154357
71	0x3da6ab9a	0.08138199
72	0x3e8c1630	0.27360678
73	0xbdc4a705	-0.09602169
74	0xbc124997	-0.008928678
75	0x3df72e12	0.12069334
76	0x3c102fa0	0.008800417
77	0x3d304c06	0.04304125
78	0xbe50dd63	-0.20396952
79	0x3c5bbcb2	0.013411688
80	0x3dc791f1	0.09744633
81	0x3e6ceaa5	0.23136385
82	0x3e0a264f	0.13491176
83	0x3ddadb01	0.10686303
84	0x3d09b8a5	0.033623356
85	0x3d5b2ffc	0.05351256
86	0xbd11bffc	-0.03558348
87	0x3e15468d	0.14577694
88	0x3dbd371d	0.09239028
89	0xbcb3f828	-0.021968916
90	0xbca82224	-0.020524092
91	0xbe474b24	-0.19462258
92	0x3e29a9ed	0.16568728
93	0x3c76e16f	0.015068396
94	0xbcec6091	-0.02885464
95	0xbdeb87b9	-0.115004964
96	0x3e23a717	0.15981708
97	0xbe7db8ae	-0.24777481
98	0xbe6588e9	-0.22415508
99	0xbe740bf8	-0.2383269
100	0x3d15d6be	0.036581747
101	0x3d5ad43e	0.053425066
102	0x3e88b8e1	0.2670355
103	0xbd793722	-0.060843594
104	0xbd2eaced	-0.042645384
105	0xbdc40f71	-0.09573258
106	0x3cd506b1	0.026004167
107	0xbe6e219a	-0.23255005
108	0xbe3ecfee	-0.18634006
109	0x3d2dcc31	0.04243106
110	0x3c12a321	0.008950026
111	0xbd93b798	-0.07212752
112	0x3d4ac772	0.049506612
113	0xbda13bd9	-0.07872743
114	0xbc9a24e9	-0.018816428
115	0xbe568ad4	-0.20951396
116	0xbdb14b59	-0.086569495
117	0x3d1804fb	0.037114125
118	0x3e32f3a9	0.17475761
119	0x3b8494c1	0.004046053
120	0x3d9f127f	0.077672
121	0xbe4927da	-0.19644108
122	0xbe9d2cc8	-0.30698228
123	0x3de99a26	0.114063546
124	0xbd01726d	-0.031603266
125	0xbe08d0fe	-0.13360974
126	0x3e47f93e	0.19528672
127	0x3e0dc065	0.13842924
128	0x3d4a5c75	0.04940458
129	0x3dbf0466	0.09327011
130	0xbe19c053	-0.15014772
131	0xbe248e42	-0.16069892
132	0xbe0d2e2e	-0.13787147
133	0xbbdc31d0	-0.0067198053
134	0xbe01c812	-0.12673977
135	0xbd6a3ba6	-0.05718579
136	0xbe54ca05	-0.2078019
137	0x3c386562	0.01125464
138	0xbd984816	-0.07435624
139	0xbe2e7906	-0.17038354
140	0xbdc318ca	-0.095262125
141	0xbd5a3c81	-0.053280357
142	0x3d5708cc	0.052498624
143	0x3b05022a	0.002029548
144	0xbe638255	-0.22217686
145	0xbe1d5c9b	-0.15367357
146	0xbe231c8b	-0.15928857
147	0xbb870ba5	-0.004121261
148	0x3cff6351	0.031175287
149	0xbcb2c2cf	-0.021821408
150	0x3e16b600	0.14717865
151	0xbe45af6c	-0.193052
152	0xbdf3187f	-0.11869907
153	0xbe7c581f	-0.2464299
154	0x3d58f301	0.05296612
155	0xbdd61dd3	-0.10454907
156	0xbdca709d	-0.098847605
157	0x3d8f4366	0.06995277
158	0xbe4c2b80	-0.19938469
159	0x3d351b38	0.04421541
160	0xbc388d3d	-0.011264143
161	0xbc9bed92	-0.01903418
162	0xbd5675bc	-0.052358374
163	0x3e790be0	0.24320936
164	0x3e76e7d7	0.24111877
165	0xbe009312	-0.12556103
166	0x3dbeba6c	0.09312901
167	0xbd884689	-0.066540785
168	0xbda6fd12	-0.08153738
169	0x3d975c8f	0.07390701
170	0x3d2f8fe7	0.042861845
171	0xbc7b44bf	-0.015336215
172	0xbe497b7b	-0.1967601
173	0xbe13ad05	-0.1442147
174	0xbe0285b8	-0.12746322
175	0xbe312b4b	-0.17301671
176	0x3b951ba6	0.004550415
177	0x3da84e3a	0.082180455
178	0x3cdeee93	0.02721337
179	0xbd70ffe0	-0.05883777
180	0xbd83f0d1	-0.064424165
181	0xbcc13f21	-0.023589673
182	0xbd3245bf	-0.043523546
183	0xbe1aaaa4	-0.15104157
184	0x3e198357	0.14991508
185	0xbdb4fe8f	-0.08837616
186	0xbd1e68a6	-0.03867402
187	0x3db02ec7	0.08602672
188	0xbd08b8e5	-0.033379454
189	0xbdc0e21b	-0.09418126
190	0xbdbf87f6	-0.09352104
191	0xbd8f6c18	-0.07003039
192	0xbd857e93	-0.06518283
193	0x3dc30924	0.09523228
194	0xbdc732d0	-0.097264886
195	0xbc212647	-0.009835786
196	0xbde967f5	-0.11396781
197	0xbd8ed588	-0.069743216
198	0x3e74c966	0.23904952
199	0xbdc83975	-0.09776584
200	0xbcc8e36e	-0.02452251
201	0xbdebb4d0	-0.115090966
202	0x3c3e5b9a	0.011618519
203	0xbd129b4e	-0.03579264
204	0xbd716048	-0.05892971
205	0x3d5e05bf	0.0542047
206	0x3dfd86d3	0.12379231
207	0xbe1a2735	-0.15054019
208	0x3d387bf7	0.045040097
209	0xbc3fb1f4	-0.011700142
210	0x3d55c714	0.05219181
211	0xbd711a91	-0.058863226
212	0x3df35cf5	0.118829645
213	0xbd63ea7d	-0.055643547
214	0xbba739a7	-0.0051033082
215	0x3ddf7bf5	0.10912315
216	0xbe6b3dc7	-0.22972785
217	0xbe1bc268	-0.15210879
218	0x3d0f3949	0.03496674
219	0x3e04795e	0.12936923
220	0xbdc8e7a8	-0.0980981
221	0x3cf504a2	0.029909436
222	0x3dfcbeb1	0.12341059
223	0xbe872222	-0.2639323
224	0xbe5a0507	-0.2129098
225	0xbe0da6f2	-0.13833216
226	0x3d5ee9e7	0.054422285
227	0xbe0e8421	-0.1391759
228	0xbdcb2c84	-0.099206
229	0xbe8ccc67	-0.27499697
230	0xbcaf64a3	-0.021410292
231	0x3ee5596e	0.44794792
232	0xbe14134d	-0.14460488
233	0xbd87bc19	-0.06627674
234	0x3df2e268	0.1185959
235	0x3d3eae43	0.046552908
236	0xbe36ec35	-0.17863543
237	0xbd86ede4	-0.06588343
238	0xbdcd13d1	-0.10013545
239	0x3dafdc26	0.08586912
240	0xbcf126a8	-0.029437378
241	0xbe47fd7d	-0.19530292
242	0xbe38f8c8	-0.18063653
243	0xbe130fbb	-0.1436147
244	0xbe4fe8be	-0.20303628
245	0xbe8ed079	-0.27893427
246	0xbe58be12	-0.21166256
247	0x3e37f01e	0.17962691
248	0xbeaa44b1	-0.33255532
249	0x3c1654dd	0.009175506
250	0xbd3486bd	-0.04407381
251	0xbdc554ce	-0.09635316
252	0xbec578ef	-0.38568828
253	0xbe7b8b8a	-0.24564949
254	0xbeab271e	-0.33428282
255	0xbdbb508d	-0.09146223

W_readout f4 [1, 32]
0	0xbe7ff96f	-0.24997495
1	0xbe350a38	-0.1767968
2	0xbebffe0c	-0.3749851
3	0x3eb98315	0.3623282
4	0x3ec07c60	0.3759489
5	0xbd9bc2d7	-0.07605522
6	0xbe56294e	-0.20914194
7	0x3ececbca	0.40389854
8	0x3ebece66	0.37266845
9	0x3e360e6f	0.17778943
10	0xbe5be748	-0.21474946
11	0xbe31cd50	-0.17363477
12	0x3e3a36ce	0.18184969
13	0xbdc350bf	-0.095368855
14	0xbe4dab61	-0.20084907
15	0x3ddbed3b	0.107386075
16	0xbd4da402	-0.05020524
17	0x3d67d25c	0.0565971
18	0xbdf43cea	-0.11925681
19	0xbc31e8fa	-0.010858769
20	0xbeafbc79	-0.3432348
21	0x3ea33dea	0.31883174
22	0xbe337b8e	-0.17527601
23	0xbe635b2f	-0.22202753
24	0x3e784896	0.2424644
25	0xbb5f55a8	-0.0034078155
26	0xbec795e3	-0.38981542
27	0xbf0a9ffd	-0.5415037
28	0x3dc089d2	0.09401287
29	0x3ef0a64d	0.47001877
30	0x3e529dd4	0.20568019
31	0x3e74bc75	0.23900016

bias f4 [124]
0	0x3de6c5f4	0.11268225
1	0x3d956811	0.0729524
2	0x3d65a026	0.056060933
3	0x3dc5690a	0.09639175
4	0x3dccc52b	0.09998544
5	0x3da2d593	0.07950892
6	0x3e2a0f32	0.16607359
7	0x3c62a5fc	0.013833519
8	0x3da9ae3f	0.08285188
9	0x3d3ca8f1	0.046059553
10	0xbc760c9c	-0.015017655
11	0x3d3ee881	0.04660845
12	0xbca703d7	-0.020387573
13	0x3d9c74eb	0.07639488
14	0x3d8555bb	0.065104924
15	0x3d9d0c89	0.076684065
16	0x3d9b271c	0.07575819
17	0x3e1f72e8	0.15571177
18	0x3db28d65	0.08718375
19	0x3dafaaf7	0.08577531
20	0x3dca8c33	0.09890022
21	0x3d702aa3	0.05863441
22	0x3d9eab71	0.077475436
23	0x3d7a093a	0.061043955
24	0x3db00a21	0.08595682
25	0x3ced663a	0.02897941
26	0x3d8ede17	0.06975954
27	0xbbadbfc4	-0.0053024013
28	0x3d5bd584	0.05367042
29	0x3d594196	0.053041063
30	0x3d255951	0.040368382
31	0x3dcfdd80	0.1014967
32	0x3dcccccd	0.1
33	0x3dcccccd	0.1
34	0x3dcccccd	0.1
35	0x3dcccccd	0.1
36	0x3dcccccd	0.1
37	0x3dcccccd	0.1
38	0x3dcccccd	0.1
39	0x3dcccccd	0.1
40	0x3dcccccd	0.1
41	0x3dcccccd	0.1
42	0x3dcccccd	0.1
43	0x3dcccccd	0.1
44	0x3dcccccd	0.1
45	0x3dcccccd	0.1
46	0x3dcccccd	0.1
47	0x3dcccccd	0.1
48	0x3dcccccd	0.1
49	0x3dcccccd	0.1
50	0x3dcccccd	0.1
51	0x3dcccccd	0.1
52	0x3dcccccd	0.1
53	0x3dcccccd	0.1
54	0x3dcccccd	0.1
55	0x3dcccccd	0.1
56	0x3dcccccd	0.1
57	0x3dcccccd	0.1
58	0x3dcccccd	0.1
59	0x3dcccccd	0.1
60	0x3dcccccd	0.1
61	0x3dcccccd	0.1
62	0x3dcccccd	0.1
63	0x3dcccccd	0.1
64	0x3dcccccd	0.1
65	0x3dcccccd	0.1
66	0x3dcccccd	0.1
67	0x3dcccccd	0.1
68	0x3dcccccd	0.1
69	0x3dcccccd	0.1
70	0x3dcccccd	0.1
71	0x3dcccccd	0.1
72	0x3dcccccd	0.1
73	0x3dcccccd	0.1
74	0x3dcccccd	0.1
75	0x3dcccccd	0.1
76	0x3dcccccd	0.1
77	0x3dcccccd	0.1
78	0x3dcccccd	0.1
79	0x3dcccccd	0.1
80	0x3dcccccd	0.1
81	0x3dcccccd	0.1
82	0x3dcccccd	0.1
83	0x3dcccccd	0.1
84	0x3dcccccd	0.1
85	0x3dcccccd	0.1
86	0x3dcccccd	0.1
87	0x3dcccccd	0.1
88	0x3dcccccd	0.1
89	0x3dcccccd	0.1
90	0x3dcccccd	0.1
91	0x3dcccccd	0.1
92	0x3d611c99	0.054958913
93	0x3daeeb18	0.08540934
94	0x3c9ca2c1	0.019120576
95	0x3de714b0	0.11283243
96	0xbdd25ee8	-0.10272008
97	0xbddafdd3	-0.106929444
98	0x3d76c903	0.060250293
99	0xbe483944	-0.19553095
100	0x3da368a1	0.07978941
101	0xbe8547e5	-0.26031414
102	0x3dcd0870	0.10011375
103	0x3db2ea30	0.08736074
104	0x3d8e2a5a	0.06941672
105	0x3d33e4e9	0.043919478
106	0xbddeb2fc	-0.10873982
107	0x3df3774d	0.11887989
108	0xbcb44bf7	-0.02200888
109	0xbe172e09	-0.14763655
110	0x3db12eae	0.086514816
111	0x3e1ec1d7	0.15503632
112	0x3d4d2ad3	0.05008967
113	0x3e11e2dd	0.14246698
114	0x3deedaa4	0.11662796
115	0x3cd6910c	0.02619221
116	0xbe0efe02	-0.13964084
117	0xbe99714d	-0.29969254
118	0x3ca411f5	0.020028094
119	0x3d5bf632	0.053701587
120	0xbdc33d32	-0.095331565
121	0x3d84036b	0.064459644
122	0x3d7851b3	0.06062479
123	0xbe6dacfc	-0.2321052

W_ext f4 [32, 2]
0	0x3e6b4023	0.22973685
1	0x3e945bc7	0.2897627
2	0xbebca2f0	-0.3684306
3	0x3d9b7651	0.075909264
4	0xbe865d84	-0.26243222
5	0xbf0ad4f9	-0.5423122
6	0x3e309796	0.17245325
7	0xbf71b4b1	-0.9441634
8	0xbf298cf6	-0.66230714
9	0x3fb23111	1.3921224
10	0x3f15d8c5	0.5853389
11	0x3f1184a4	0.5684302
12	0xbff11c6d	-1.88368
13	0xbef37006	-0.47546405
14	0xbeea5726	-0.45769614
15	0x3fa2e0c2	1.2724841
16	0x3d94710a	0.07248123
17	0xbecc4c7c	-0.39902103
18	0x3ef99b8c	0.48751485
19	0x3f5f3b55	0.8719991
20	0xbfafd386	-1.3736427
21	0xbf56dc21	-0.8392964
22	0xbe5dca20	-0.21659136
23	0x3e5c9721	0.21542026
24	0xbe3c10f0	-0.18365836
25	0xbf310736	-0.6915163
26	0xbed60a66	-0.41804808
27	0xc00018df	-2.001518
28	0x3f2e543d	0.6809729
29	0xbfb90b3b	-1.4456552
30	0xbe55eaa9	-0.20890297
31	0xbf16a237	-0.5884127
32	0x3eb47810	0.3524785
33	0x3f438dd3	0.7638828
34	0xbf6749db	-0.9034707
35	0x3f5e9515	0.8694623
36	0xbe6b3253	-0.22968416
37	0xbf0ad175	-0.54225856
38	0xbf12e212	-0.57376206
39	0x3df08c53	0.11745515
40	0x3dde96b5	0.10868589
41	0x3e20a6af	0.15688585
42	0x3f36c30e	0.7139138
43	0xbeeee9f8	-0.4666288
44	0xbf87aec8	-1.0600214
45	0xbe005bbb	-0.12534992
46	0x3e930d28	0.28720975
47	0x3ebbfe9b	0.36717686
48	0x3f2bfa4c	0.671788
49	0x3f23b564	0.63948655
50	0xbf3eadbe	-0.7448386
51	0x3fcb4f3f	1.5883559
52	0x3ec21138	0.37903762
53	0xbf9a4547	-1.2052392
54	0xbed2bf73	-0.4116169
55	0x3e814c90	0.25253725
56	0x3ebcb230	0.36854696
57	0x3f80cc5d	1.0062367
58	0xbefae306	-0.4900133
59	0x3e809793	0.25115642
60	0xc023fbcd	-2.5622437
61	0xbef79885	-0.4835855
62	0x3db45c0e	0.088066205
63	0x3f992cf7	1.1966847
