DrosophilaLabRot/data_store/mbon_sensitivity/second_order_only_nets/trained_nets/32_mbons/second_order_no_extinct_5000ep_1hop_N20.pt (torch_old, 63127 bytes, 4 tensors)

W_recur f4 [124, 124]
-0.1308136 0.16427411 -0.103189476 0.1343359 -0.042651035 0.07036367 0.15247501 0.14216691
-0.22873971 0.021369481 0.29781562 -0.14417918 -0.14299896 -0.30805904 -0.23938577 -0.24380486
-0.21117814 0.3107701 0.090953186 0.23415768 -0.12381769 -0.47549936 0.32397488 -0.22940287
-0.4110383 -0.02229566 -0.28713536 -0.3779089 -0.23132917 0.08372733 0.17067456 0.015093962
-0.18171178 0.008398235 -0.15220551 0.008769036 -0.14646578 0.028037123 -0.08133165 -0.21283369
0.035422456 -0.10783768 0.1341838 -0.10984197 0.07577827 -0.04255018 -0.012986973 0.10637115
-0.102953814 -0.006672101 -0.0069981813 0.20302069 -0.002950232 -0.055614546 -0.089323424 -0.12262929
-0.11028951 -0.05670887 0.017032383 -0.060920287 -0.059977327 0.03939983 -0.014816846 0.17042287
0.023039967 0.12503886 0.115548775 -0.01747212 -0.005031825 0.0040531307 -0.15532933 0.026694756
-0.053456057 -0.03307203 -0.055435907 0.12888806 0.035448268 -0.006401779 0.06737018 -0.068206415
0.056962892 0.016828708 0.18928692 -0.052384894 0.11538455 0.05001099 0.16624746 0.17990534
-0.0072974046 0.09022049 0.051867116 0.12820712 -0.14886881 -0.036906928 0.066793606 -0.062624745
0.09797838 0.13670062 0.233132 0.14290267 -0.061698247 0.21310154 -0.15071043 -0.06198541
0.15910237 -0.010566008 0.14709839 0.08274567 -0.118911 -0.046104 0.03350025 -0.04610859
-0.06402578 0.18381555 -0.042945553 0.05805449 0.05684098 -0.0068955235 -0.13460492 -0.03830897
0.03073938 -0.09994752 -0.12149005 0.008621947 -0.0559901 0.06494043 -0.029360773 0.04968594
0.015917396 -0.09651718 0.034347698 0.09228435 -0.096316025 -0.027785989 -0.096174836 -0.106182106
-0.122835845 -0.22474939 0.003813287 -0.12409381 0.002408781 -0.111967236 0.05037708 -0.08041387
0.10916973 -0.16242807 -0.16443054 0.1551468 -0.05776519 -0.09921498 -0.030700438 -0.09128814
-0.09037376 -0.13472076 -0.008995638 0.10416119 0.02650571 0.124425896 -0.14954424 -0.025436804
-0.08054095 -0.079782955 -0.059944116 0.10144265 0.07942728 -0.12713985 -0.1210388 -0.13086773
0.00082036946 -0.12288742 0.11443809 0.07176563 0.06416923 0.100519285 0.18413833 -0.035748776
-0.18122908 0.051784355 -0.015959367 -0.11143532 0.12752885 -0.15541553 0.103205465 -0.07368308
0.04288837 -0.14564055 -0.12821902 0.047521222 -0.1382652 0.030967308 -0.01978043 -0.08667963
0.018739652 0.02855229 -0.10854927 0.051394768 -0.13053015 -0.018675555 0.044888843 -0.16644186
0.016174534 0.17007795 -0.008680586 0.09727856 -0.008775106 0.025648562 0.04732015 -0.035210174
-0.016993724 0.04736719 0.020516958 -0.07242603 -0.16124713 -0.08809016 -0.04334712 0.23451337
0.26246655 0.090146735 0.19225211 -0.03983888 0.017614236 -0.15434498 -0.26288268 0.18340868
0.0771684 0.008469902 0.08665922 0.29023767 -0.17865902 0.048810847 0.13573009 0.0035739369
-0.052984096 -0.10993058 -0.049023725 0.49784878 -0.12891845 -0.17888954 -0.08811859 0.017451506
-0.020860944 -0.2645804 -0.010878958 0.15668356 -0.07003417 0.10488466 -0.10271231 0.18810548
0.08744502 -0.105555385 -0.0737976 0.08914815 -0.16722932 -0.14135793 0.00951431 0.16994394
00000000: 00f4 05be 7937 283e 0155 d3bd 5a8f 093e
00000010: dab2 2ebd d41a 903d 6922 1c3e 3494 113e
00000020: be3a 6abe 0d0f af3c 4a7b 983e b5a3 13be
00000030: 526e 12be eab9 9dbe 8b21 75be fba7 79be
00000040: 153f 58be 421d 9f3e aa45 ba3d 08c7 6f3e
00000050: 2194 fdbd a774 f3be 09e0 a53e 96e8 6abe
00000060: 9d73 d2be 63a5 b6bc 6803 93be 467d c1be
00000070: 8ee1 6cbe 3c79 ab3d 50c5 2e3e aa4c 773c
00000080: a712 3abe c098 093c c3db 1bbe 01ac 0f3c
00000090: 20fb 15be 1cae e53c 3591 a6bd 13f1 59be
000000a0: 2317 113d 00da dcbd 7a67 093e d4f4 e0bd
000000b0: a331 9b3d 1949 2ebd 50c7 54bc 1ed9 d93d
000000c0: 73d9 d2bd a4a1 dabb 0051 e5bb a8e4 4f3e
000000d0: ae58 41bb 14cc 63bd 33ef b6bd 1125 fbbd
000000e0: 77df e1bd 8f47 68bd 7f87 8b3c 8d87 79bd
000000f0: c9aa 75bd b761 213d 5bc2 72bc 5583 2e3e
00000100: 50be bc3c 300a 003e d6a4 ec3d b121 8fbc
00000110: 02e2 a4bb 20d0 843b a70e 1fbe f6ae da3c
00000120: bdf4 5abd 8976 07bd c310 63bd 3bfb 033e
00000130: 3432 113d 04c6 d1bb 60f9 893d ceaf 8bbd
00000140: ec51 693d 5cdc 893c 6ed4 413e 8b91 56bd
00000150: bc4e ec3d 53d8 4c3d c63c 2a3e 1b39 383e
00000160: 111f efbb 85c5 b83d 9d72 543d ba48 033e
00000170: 1171 18be b82b 17bd 16cb 883d 6741 80bd
00000180: e4a8 c83d 3ffb 0b3e 28ba 6e3e 1455 123e
00000190: 4db7 7cbd 4a37 5a3e d653 1abe 6ae4 7dbd
000001a0: bbeb 223e 0d1d 2dbc f6a0 163e 9076 a93d
000001b0: 9c87 f3bd 8cd7 3cbd 8f37 093d 5cdc 3cbd
000001c0: f31f 83bd 253a 3c3e ade7 2fbd 8bca 6d3d
000001d0: 16d2 683d d8f3 e1bb dfd5 09be dee9 1cbd
000001e0: 27d1 fb3c 49b1 ccbd c6cf f8bd 1143 0d3c
000001f0: e055 65bd 7dff 843d 0186 f0bc 7c83 4b3d
00000200: 3365 823c cdaa c5bd 2cb0 0c3d 94ff bc3d
00000210: 5641 c5bd 719f e3bc 50f7 c4bd 0176 d9bd
00000220: 5c91 fbbd b424 66be 57e8 793b e524 febd
00000230: a4dc 1d3b 144f e5bd 3258 4e3d 07b0 a4bd
00000240: 6194 df3d 8b53 26be 7b60 28be cede 1e3e
00000250: 319b 6cbd 3931 cbbd 7c7f fbbc 47f5 babd
00000260: e115 b9bd 3df4 09be 7162 13bc 7652 d53d
00000270: 8122 d93c 01d3 fe3d 2022 19be d860 d0bc
00000280: a7f2 a4bd 3f65 a3bd f687 75bd 2ac1 cf3d
00000290: c5aa a23d f330 02be 31e3 f7bd 3102 06be
000002a0: 100e 573a 66ac fbbd 845e ea3d dcf9 923d
000002b0: 286b 833d 0edd cd3d c28e 3c3e 4f6d 12bd
000002c0: 1e94 39be d51b 543d 38bd 82bc 3338 e4bd
000002d0: ec96 023e 4025 1fbe 635d d33d 28e7 96bd
000002e0: b7ab 2f3d cc22 15be d94b 03be 9da5 423d
000002f0: 6595 0dbe 27af fd3c 910a a2bc 1785 b1bd
00000300: e683 993c 7ee6 e93c 144f debd 5283 523d
00000310: b2a9 05be 7afd 98bc 5ddd 373d bc6f 2abe
00000320: 7580 843c ea28 2e3e 0439 0ebc fb39 c73d
00000330: 76c5 0fbc ef1c d23c c6d2 413d 8b38 10bd
00000340: 6c36 8bbc 1904 423d 2e13 a83c 1954 94bd
00000350: f81d 25be 9d68 b4bd c08c 31bd 4624 703e
00000360: 0462 863e da9e b83d bddd 443e 182e 23bd
00000370: bb4b 903c 9c0c 1ebe 8f98 86be 7ccf 3b3e
00000380: 770a 9e3d 58c5 0a3c 647a b13d 089a 943e
00000390: 64f2 36be e2ed 473d d4fc 0a3e b638 6a3b
000003a0: da05 59bd 4923 e1bd 1acd 48bd 09e6 fe3e
000003b0: 3303 04be d22e 37be 8577 b4bd 76f6 8e3c
000003c0: 92e4 aabc 1577 87be a83d 32bc a871 203e
000003d0: 136e 8fbd c5cd d63d d55a d2bd b99e 403e
000003e0: 6016 b33d 6c2d d8bd 3223 97bd 4e93 b63d
000003f0: 2a3e 2bbe 22c0 10be e9e1 1b3c c905 2e3e

W_readout f4 [1, 32]
0.19015801 0.020707313 0.27819946 -0.1443744 0.2199857 0.166 0.27444255 -0.39760163
0.22815076 -0.56017214 -0.32376835 0.22908951 -0.09753883 -0.07814075 0.10937789 0.040677585
0.016294558 -0.13045664 -0.23325546 0.3566617 0.025491234 0.23810917 0.46623966 -0.22959295
-0.15360323 -0.3013913 0.32158247 0.304503 0.21807635 0.13402714 -0.6510217 -0.4885683
00000000: c8b8 423e 62a2 a93c 2970 8e3e e2d6 13be
00000010: ee43 613e e7fb 293e bc83 8c3e 7192 cbbe
00000020: 5aa0 693e 7167 0fbf f7c4 a5be 7196 6a3e
00000030: 70c2 c7bd 4208 a0bd 8401 e03d 8a9d 263d
00000040: 2a7c 853c 6d96 05be 85da 6ebe 5d9c b63e
00000050: fed2 d03c e4d2 733e f7b6 ee3e 6a1a 6bbe
00000060: 2a4a 1dbe f64f 9abe 75a6 a43e d1e7 9b3e
00000070: 684f 5f3e 693e 093e 5ca9 26bf a025 fabe

bias f4 [124]
0.083804734 0.018403439 0.09217449 0.0311617 0.12178325 0.059508413 0.07100598 0.092412956
0.038031746 0.0673201 0.05081783 0.04190889 0.08255172 0.09329121 0.10712659 0.040392846
0.20218335 0.16277571 -0.07939488 -0.028088966 0.07741627 0.12258381 0.03868051 0.06808266
0.051435087 0.030626914 0.115971535 0.095741354 0.031050052 0.054448165 0.08816351 0.068015516
0.1 0.1 0.1 0.1 0.1 0.1 0.1 0.1
0.1 0.1 0.1 0.1 0.1 0.1 0.1 0.1
0.1 0.1 0.1 0.1 0.1 0.1 0.1 0.1
0.1 0.1 0.1 0.1 0.1 0.1 0.1 0.1
0.1 0.1 0.1 0.1 0.1 0.1 0.1 0.1
0.1 0.1 0.1 0.1 0.1 0.1 0.1 0.1
0.1 0.1 0.1 0.1 0.1 0.1 0.1 0.1
0.1 0.1 0.1 0.1 -0.20005773 0.07157188 0.07060293 0.11131677
0.04988236 -0.079333216 -0.3750719 0.08854087 -0.08300291 0.04207099 0.08124224 0.113219455
-0.21949229 0.104906544 0.036571942 0.08874238 0.08409758 0.051227674 -0.49849635 0.01985985
0.036133118 0.046968017 -0.06837229 -0.71570164 -0.6432868 -0.035732154 0.06555482 0.07180228
0.08661783 0.05949995 0.06815533 0.06875812
00000000: d1a1 ab3d cfc2 963c fbc5 bc3d d246 ff3c
00000010: 7f69 f93d 18bf 733d 956b 913d 0143 bd3d
00000020: 2dc7 1b3d 1fdf 893d 5b26 503d a8a8 2b3d
00000030: e010 a93d 760f bf3d 3065 db3d f872 253d
00000040: 2709 4f3e adae 263e c899 a2bd d51a e6bc
00000050: 6c8c 9e3d 380d fb3d 746f 1e3d ec6e 8b3d
00000060: 99ad 523d 4be5 fa3c 7c82 ed3d 0b14 c43d
00000070: ae5c fe3c 0a05 5f3d 128f b43d b84b 8b3d
00000080: cdcc cc3d cdcc cc3d cdcc cc3d cdcc cc3d
00000090: cdcc cc3d cdcc cc3d cdcc cc3d cdcc cc3d
000000a0: cdcc cc3d cdcc cc3d cdcc cc3d cdcc cc3d
000000b0: cdcc cc3d cdcc cc3d cdcc cc3d cdcc cc3d
000000c0: cdcc cc3d cdcc cc3d cdcc cc3d cdcc cc3d
000000d0: cdcc cc3d cdcc cc3d cdcc cc3d cdcc cc3d
000000e0: cdcc cc3d cdcc cc3d cdcc cc3d cdcc cc3d
000000f0: cdcc cc3d cdcc cc3d cdcc cc3d cdcc cc3d
00000100: cdcc cc3d cdcc cc3d cdcc cc3d cdcc cc3d
00000110: cdcc cc3d cdcc cc3d cdcc cc3d cdcc cc3d
00000120: cdcc cc3d cdcc cc3d cdcc cc3d cdcc cc3d
00000130: cdcc cc3d cdcc cc3d cdcc cc3d cdcc cc3d
00000140: cdcc cc3d cdcc cc3d cdcc cc3d cdcc cc3d
00000150: cdcc cc3d cdcc cc3d cdcc cc3d cdcc cc3d
00000160: cdcc cc3d cdcc cc3d cdcc cc3d cdcc cc3d
00000170: efdb 4cbe 4794 923d 4598 903d 0cfa e33d
00000180: 7251 4c3d 7479 a2bd 6d09 c0be ea54 b53d
00000190: 6efd a9bd a152 2c3d 5562 a63d 9adf e73d
000001a0: 96c2 60be 3ed9 d63d 76cc 153d 91be b53d
000001b0: 5a3b ac3d 1cd4 513d ea3a ffbe 20b1 a23c
000001c0: 5200 143d 8961 403d c506 8cbd 3938 37bf
000001d0: 72ae 24bf e15b 12bd 9b41 863d 130d 933d
000001e0: b064 b13d 38b6 733d 0695 8b3d 0fd1 8c3d

W_ext f4 [32, 2]
-0.25959226 1.0907387 -0.9377198 -0.13326156 0.113752685 0.20212105 -0.012445456 -0.2472837
-0.13193725 0.08159954 0.3701338 0.6864674 0.39818844 1.4914352 0.24849984 -0.6701696
0.23585618 0.44680074 0.31702757 -0.104874834 -0.923386 -0.36735135 0.053549837 0.019160908
0.7756903 0.7757246 0.13833882 0.44105828 -0.44713247 0.18048811 -0.015316436 -0.60342854
-0.8055533 0.037612222 -0.31802592 -0.047106773 1.4377753 -1.2661887 -0.4580954 -1.2527312
-1.223979 0.29110357 -1.9494679 -0.19969687 0.31424764 0.112982996 -0.121499434 1.7889134
0.03519001 1.5723568 0.39360842 -1.2037976 -0.26334283 -1.3041768 0.11954725 -1.4136829
-0.19989726 0.07500179 -1.1306595 -1.2383205 0.15671621 0.6133415 -0.34406042 -1.1719375
00000000: 47e9 84be 539d 8b3f 680e 70bf b875 08be
00000010: 2bf7 e83d d2f8 4e3e 07e8 4bbc f037 7dbe
00000020: 8f1a 07be a91d a73d 2d82 bd3e 54bc 2f3f
00000030: 5bdf cb3e 59e7 be3f be76 7e3e 3c90 2bbf
00000040: 4884 713e 11c3 e43e 7051 a23e 9ec8 d6bd
00000050: 0663 6cbf 7a15 bcbe 1357 5b3d 56f7 9c3c
00000060: a493 463f e395 463f b1a8 0d3e 64d2 e13e
00000070: 8cee e4be e0d1 383e caf1 7abc 4b7a 1abf
00000080: be38 4ebf 460f 1a3d 4bd4 a2be 08f3 40bd
00000090: 0509 b83f 7912 a2bf 7b8b eabe 7f59 a0bf
000000a0: 58ab 9cbf 870b 953e 2a88 f9bf 567d 4cbe
000000b0: 11e5 a03e a163 e73d b2d4 f8bd 1dfb e43f
000000c0: 6623 103d fd42 c93f 0b87 c93e 0a16 9abf
000000d0: dfd4 86be 44ef a6bf 30d5 f43d 90f3 b4bf
000000e0: deb1 4cbe 8a9a 993d 73b9 90bf 4981 9ebf
000000f0: 377a 203e f303 1d3f b028 b0be 0c02 96bf
