DrosophilaLabRot/data_store/extension_nets/trained_nets/trained_knockout_cl_4stim_2avg_5000ep_two_hop.pt (torch_old, 42606 bytes, 5 tensors)

W_recur f4 [100, 100]
0	0x3da402e9	0.080083676
1	0x3e67140d	0.22566243
2	0x3da114b3	0.07865276
3	0x3d28465e	0.041082732
4	0x3e0c078e	0.13674757
5	0xbe65c5cc	-0.22438735
6	0x3e7887d1	0.2427056
7	0xbe0bcb18	-0.13651693
8	0xbce934bc	-0.028467529
9	0xbe0d0e94	-0.13775092
10	0xbe07d858	-0.13266122
11	0x3e22f07f	0.15912054
12	0x3e07ddbe	0.13268182
13	0xbe697546	-0.22798643
14	0x3e169af6	0.1470755
15	0xbd132bbb	-0.035930376
16	0xbe8b5ba4	-0.27218354
17	0x3d4e9669	0.05043641
18	0x3d3644a8	0.04449907
19	0xbd9fa015	-0.07794205
20	0x3d73a4fe	0.05948352
21	0xbda57907	-0.08079725
22	0xbb4bb94d	-0.003108579
23	0x3dd82ff9	0.10556025
24	0xbc8c64df	-0.017137943
25	0x3bcc0d85	0.0062271976
26	0xbd65ca94	-0.056101397
27	0xbe27cf46	-0.16387662
28	0xbe17b1d9	-0.14813937
29	0x3e14efff	0.14544676
30	0x3cc9c265	0.024628827
31	0x3cbf6d37	0.023367507
32	0x3d2b397b	0.041802865
33	0x3dbc4ff2	0.09194936
34	0xbd94f647	-0.07273536
35	0x3d1a737d	0.037707794
36	0x3e0f9a5d	0.14023729
37	0x3dc19e59	0.094540305
38	0xbbe2eed9	-0.0069254455
39	0x3e913f70	0.2836871
40	0xbe001659	-0.12508525
41	0xbd978280	-0.07397938
42	0xbd38b924	-0.04509844
43	0x3da39fee	0.079894885
44	0xbbdd904d	-0.0067615868
45	0x3def525c	0.11685631
46	0x3cb4cf1d	0.022071416
47	0xbe6523a8	-0.22376883
48	0xbdca2fe8	-0.09872419
49	0x3d97bbea	0.07408889
50	0x3db85d8c	0.09002218
51	0xbe86e855	-0.2634913
52	0x3dbc3d8c	0.09191427
53	0x3d5ec589	0.054387603
54	0x3db4966a	0.08817752
55	0x3ddc90f3	0.10769834
56	0x3d30247d	0.043003548
57	0xbcff445a	-0.031160522
58	0xbe41a98e	-0.18912336
59	0xbcdf3bdc	-0.027250223
60	0xbdd2d131	-0.10293806
61	0x3d0b266f	0.0339722
62	0x3dbac20f	0.09119045
63	0x3dfba4d7	0.122873
64	0xbd152448	-0.036411554
65	0xbcaf0724	-0.02136571
66	0xbd875a28	-0.06608993
67	0xbdf0f64d	-0.11765728
68	0x3e0ea269	0.13929142
69	0xbe11d9ca	-0.14243236
70	0xbe54deef	-0.20788167
71	0x3d371a1d	0.044702638
72	0xbdab8391	-0.08374704
73	0x3c0e48ea	0.008684376
74	0x3da55140	0.08072138
75	0xbe21c27a	-0.15796843
76	0xbd9b6509	-0.0758763
77	0x3e284f10	0.1643641
78	0x3dfc7ffd	0.12329099
79	0x3d1058ff	0.035241123
80	0xbddbc500	-0.10730934
81	0xbe8069ba	-0.25080663
82	0x3c83db85	0.016095886
83	0x3dad468b	0.08460721
84	0xbd48c689	-0.049017463
85	0xbe7afeab	-0.2451121
86	0x3ca7f431	0.020502182
87	0xbcfeddc5	-0.031111607
88	0xbe787b48	-0.24265778
89	0xbe9fbf7b	-0.31200776
90	0x3db93fe2	0.09045388
91	0x3da759cc	0.08171424
92	0xbe09f947	-0.13473998
93	0xbbe34647	-0.006935868
94	0xbe1f206e	-0.15539715
95	0x3e84a129	0.25904205
96	0x3e6a4c3d	0.22880645
97	0xbda4ece9	-0.080529995
98	0xbd40c7f4	-0.04706569
99	0xbd9e0382	-0.07715513
100	0x3de82fe6	0.11337261
101	0xbe337276	-0.17524132
102	0xbd2baa7c	-0.041910633
103	0xbda72fc7	-0.0816341
104	0x3e0db80d	0.13839741
105	0xbebf9190	-0.37415743
106	0xbe36aa9c	-0.1783852
107	0x3da0ce3e	0.078518376
108	0xbda60d84	-0.08108047
109	0xbd551b2a	-0.05202786
110	0xbdb2f37c	-0.08737847
111	0x3e2771d9	0.16352023
112	0xbe37d14a	-0.17950931
113	0x3e5b29a1	0.21402599
114	0x3da759fb	0.08171459
115	0xbd6da0cd	-0.05801468
116	0xbdb447fd	-0.08802793
117	0xbd4778e7	-0.048699286
118	0xbe2d72d4	-0.16938335
119	0x3e0a622f	0.13514017
120	0xbda5bb08	-0.08092314
121	0x3e62cdbb	0.22148792
122	0xbc81b4dd	-0.015833313
123	0xbcb4319a	-0.021996308
124	0x3d280801	0.041023258
125	0xbdfe090b	-0.124040686
126	0xbe5585dd	-0.20851846
127	0xbd2d2731	-0.042273704
128	0xbe1d9b74	-0.15391332
129	0x3d3b439f	0.045718785
130	0xbd166ed9	-0.036726806
131	0xbc730641	-0.014833034
132	0x3de9eef6	0.11422531
133	0xbdbfac69	-0.093590565
134	0x3ca73ffa	0.020416249
135	0x3a8df027	0.0010829017
136	0xbd33c154	-0.043885544
137	0xbd813cd5	-0.06310431
138	0x3dd9d571	0.10636414
139	0xbd14e7a7	-0.036353733
140	0xbc85d6c3	-0.016337758
141	0x3be886cd	0.0070961476
142	0xbcb44c87	-0.022009147
143	0xbc5b1410	-0.0133714825
144	0x3be8267d	0.0070846663
145	0xbd2844e0	-0.04108131
146	0x3ccd2cb9	0.02504574
147	0x3b164845	0.002293126
148	0xbb85d30f	-0.004083998
149	0xbd8e8d11	-0.069605
150	0xbce9490c	-0.028477214
151	0x3e19ffe2	0.15039018
152	0xbe3c618f	-0.1839659
153	0xbe18a70f	-0.14907478
154	0x3d673f4c	0.05645685
155	0x3e6e4e8f	0.23272155
156	0xbe0c6ec7	-0.13714133
157	0xbd58cb93	-0.05292852
158	0x3e00668b	0.12539117
159	0x3e1547c2	0.14578155
160	0xbb8d397c	-0.004309831
161	0xbd8b781d	-0.06810019
162	0xbdde1a09	-0.108448096
163	0xbdc93724	-0.0982497
164	0xbe00e3ee	-0.12586948
165	0xbd901688	-0.070355475
166	0x3da49220	0.08035684
167	0x3de62fd8	0.11239594
168	0x3c63e5fe	0.013909815
169	0xbdc1e933	-0.09468307
170	0xbe3e10b6	-0.18561062
171	0x3d387248	0.045030862
172	0x3d88fc9a	0.06688805
173	0xbdaf31ac	-0.08554396
174	0x3e3d09c0	0.1846075
175	0xbe39236f	-0.18079923
176	0x3c9037e1	0.01760477
177	0xbd6fbcfb	-0.058529835
178	0x3e432f7a	0.1906108
179	0x3d4e2664	0.05032958
180	0x3e8da0ae	0.2766165
181	0xbe51f219	-0.20502509
182	0x3e5b2b5f	0.21403264
183	0xbce8836a	-0.028382976
184	0x3d38de4d	0.045133878
185	0x3ea02c46	0.31283778
186	0xbe71850e	-0.23585913
187	0xbe030d1c	-0.1279797
188	0x3e2e786a	0.17038122
189	0x3d5840db	0.052796226
190	0xbd7ed277	-0.062212434
191	0xbd9791b0	-0.074008346
192	0xbe8c72cd	-0.27431336
193	0x3d82c67c	0.06385514
194	0x3e4a485a	0.19754162
195	0x3dd79e13	0.10528197
196	0x3df71235	0.120640196
197	0x3ce7d7d6	0.02830116
198	0x3e89ea3c	0.2693652
199	0xbf005cb8	-0.5014148
200	0x3e59f14c	0.21283454
201	0xbf506533	-0.8140442
202	0xbd6e0674	-0.058111623
203	0xbefa28d7	-0.48859283
204	0x3ea4b9e8	0.32173085
205	0xbe0431b7	-0.1290959
206	0xbf29d85a	-0.6634575
207	0x3e825fd1	0.25463727
208	0xbeeb0cb5	-0.45908132
209	0x3c9f9fd7	0.019485397
210	0xbd5034f8	-0.050831765
211	0xbd01c6f1	-0.031683866
212	0xbf06db57	-0.52678436
213	0x3d612a28	0.054971844
214	0xbf009b6c	-0.50237155
215	0xbc24628e	-0.010033263
216	0x3edd50b2	0.43225628
217	0xbd37f115	-0.044907648
218	0xbe5be357	-0.21473442
219	0x3d8a9b21	0.0676787
220	0x3cf030c7	0.029320134
221	0xbd67dc6b	-0.05660669
222	0x3e398f7b	0.1812114
223	0xbe069316	-0.13142046
224	0x3df84c4d	0.12123928
225	0x3e259d11	0.16173197
226	0x3ce53ab8	0.0279821
227	0xbddc494b	-0.10756167
228	0x3dd010ea	0.10159476
229	0x3e6cbfc9	0.23120035
230	0xbd86780d	-0.065658666
231	0xbd103c3e	-0.0352137
232	0xbb8e0dca	-0.00433514
233	0x3ded0b5a	0.11574431
234	0x3d319363	0.04335345
235	0xbd758e6d	-0.05995028
236	0xbdfa8de1	-0.122340925
237	0xbd40dbb9	-0.047084544
238	0xbe070f2a	-0.13189378
239	0x3cee7bbf	0.029111741
240	0xbe03217e	-0.12805745
241	0x3d4db574	0.050221875
242	0xbd0a3170	-0.033738554
243	0x3d15d00a	0.036575355
244	0xbe60ea37	-0.21964346
245	0x3e1c6bdf	0.15275525
246	0xbb72461f	-0.0036968065
247	0x3d9fd89d	0.078049876
248	0xbe53fa0b	-0.20700853
249	0xbdda1204	-0.106479675
250	0xbcc7fdc9	-0.024413006
251	0xbc9563df	-0.018236099
252	0xbd81ae79	-0.06332106
253	0x3e1b7902	0.1518288
254	0xbcc681bb	-0.024231782
255	0x3c568677	0.013093582

W_ext f4 [60, 2]
0	0x3fd45a42	1.6590044
1	0x3f13d549	0.5774732
2	0x3ebdf84a	0.37103492
3	0xbec73383	-0.38906488
4	0xbf6d7fe3	-0.92773265
5	0xbf95832d	-1.1680657
6	0xbf70d5d5	-0.9407628
7	0xbf550ecc	-0.83225703
8	0xbd672c6d	-0.056438852
9	0xbda68e65	-0.08132628
10	0x3f4a9449	0.79132515
11	0xc00e3ff9	-2.2226546
12	0xbfd5d71e	-1.6706274
13	0x3f267091	0.6501551
14	0xbe4971dc	-0.1967234
15	0x3ef8a4a0	0.485631
16	0x3edb7a92	0.4286695
17	0x3f823890	1.0173512
18	0xbedd1d5c	-0.43186462
19	0xbee68944	-0.450266
20	0xbe521bbb	-0.20518391
21	0x3ec97a16	0.39350957
22	0x3ebf5f9d	0.37377635
23	0x3f74ead9	0.9567085
24	0xbf7df403	-0.9920046
25	0x3e7e7b12	0.24851635
26	0xbede8370	-0.43459654
27	0x3f157984	0.58388543
28	0xbf5f012e	-0.87111175
29	0x3f5efebd	0.8710745
30	0x3d6dc472	0.058048673
31	0x3f89c770	1.0763988
32	0xbfae4b98	-1.3616819
33	0x40458cd2	3.08672
34	0x3f64bd6a	0.8935152
35	0x3fcad916	1.5847499
36	0xbf653f07	-0.895493
37	0xbe3d51f2	-0.18488291
38	0x3e0c6ab4	0.13712579
39	0x3dd9d13e	0.10635613
40	0x3e1ebd04	0.15501791
41	0x3fb54bd7	1.416377
42	0xbd543f94	-0.051818445
43	0xbf4615a4	-0.7737677
44	0xbd91957f	-0.07108592
45	0xbd8aea1b	-0.06782933
46	0x3f31b751	0.69420344
47	0x400f680b	2.2407253
48	0xbdbdb2d4	-0.092626244
49	0xbfe195e4	-1.7623868
50	0xbeb65932	-0.35614926
51	0x3cd322c5	0.025773415
52	0xbe7ceca4	-0.24699646
53	0xc0063d19	-2.097479
54	0x3d05e414	0.032688215
55	0xbe132590	-0.14369798
56	0x3f0baaf8	0.5455775
57	0x3eabce0f	0.33555648
58	0xbe74c6bc	-0.23903936
59	0xbf391c2f	-0.7230863
60	0x3fd7c281	1.6856233
61	0x3fd12531	1.6339475
62	0xbf02dd7d	-0.51119214
63	0xbe514bed	-0.2043912
64	0xbdfd74f8	-0.12375826
65	0xbef2c2e8	-0.47414327
66	0x3c96e08d	0.018417621
67	0x3e394493	0.18092565
68	0xbf09e438	-0.5386386
69	0x3d9ee809	0.07759101
70	0x3f52de1a	0.8237015
71	0xbf853c24	-1.0408978
72	0xbf8578e9	-1.0427524
73	0x3e2919f1	0.16513802
74	0x3e34558b	0.17610757
75	0x3f7a02af	0.97660345
76	0xbeb52161	-0.3537703
77	0x3e0d31b0	0.13788486
78	0x3f100e20	0.56271553
79	0xbe786af9	-0.24259557
80	0x3fa8872e	1.3166254
81	0x3e6547cd	0.22390671
82	0x3de03530	0.10947645
83	0x3e7ccb2b	0.24686877
84	0xbf24d13c	-0.64381766
85	0xbe2d66c7	-0.16933738
86	0xbf241619	-0.6409622
87	0xc001ee0f	-2.030155
88	0xbeec774a	-0.4618476
89	0x3f829671	1.0202161
90	0x3f1eaa41	0.61978537
91	0x3fceed20	1.6166115
92	0x3dc957ca	0.098311976
93	0x3eb5110f	0.35364577
94	0xbf0b070e	-0.5430764
95	0xbf8c167d	-1.0944363
96	0xbfdad108	-1.7095041
97	0xbfad43ca	-1.3536313
98	0x3f4e721f	0.80642885
99	0xbf42ddec	-0.76119876
100	0xbf7c7855	-0.9862111
101	0xbfb817cf	-1.4382266
102	0xbfa95ac3	-1.3230823
103	0x3ed96df5	0.42466703
104	0xbfca6902	-1.5813296
105	0xc007736d	-2.11642
106	0xbf82ac67	-1.0208863
107	0xbf722b26	-0.9459709
108	0x3f6ec362	0.9326688
109	0xbf105604	-0.5638125
110	0x3e4124aa	0.18861642
111	0xbc4eaaa9	-0.012613931
112	0xbefbe281	-0.49196246
113	0xbf544bcb	-0.8292815
114	0xbf27ea11	-0.6559153
115	0xbf09058d	-0.53524095
116	0xbe6378c7	-0.22214042
117	0xbfd1c4b4	-1.6388154
118	0xbf741ce5	-0.9535659
119	0xbe364b90	-0.17802262

W_readout f4 [1, 20]
0	0x3f6d237e	0.9263228
1	0xbf32c3a3	-0.6982977
2	0x3f14b00d	0.5808113
3	0xbdc2df23	-0.09515216
4	0xbd72e83c	-0.059303507
5	0x3ea6406d	0.32471028
6	0xbef045d4	-0.46928275
7	0x3eb4c84d	0.35309067
8	0xbe721bdd	-0.23643441
9	0x3c969f43	0.018386489
10	0xbb2f1458	-0.0026715007
11	0xbe529513	-0.2056468
12	0xbf1a740f	-0.6033334
13	0x3f3d920e	0.74050987
14	0xbef49784	-0.47771847
15	0xbe811062	-0.25207812
16	0x3ee02d97	0.43784782
17	0xbe6f1dc1	-0.23351194
18	0xbe369298	-0.17829359
19	0x3dc50803	0.09620669

bias f4 [100]
0	0x3daea4ec	0.0852755
1	0x3da544c5	0.08069757
2	0x3d87f46c	0.06638417
3	0x3df639d0	0.120227456
4	0x3d2145f8	0.039373368
5	0x3c9521c0	0.01820457
6	0x3d228416	0.03967675
7	0x3daf8461	0.08570171
8	0x3e019a71	0.12656571
9	0xbd0c3528	-0.03423038
10	0x3e2095ba	0.15682116
11	0xbd040a10	-0.03223616
12	0x3db3923b	0.087681256
13	0x3d9bbe0f	0.0760461
14	0xbd2d8554	-0.04236348
15	0x3e1f0f8b	0.15533273
16	0x3da36634	0.07978478
17	0x3d5c7ba3	0.053828847
18	0x3e417d4f	0.18895458
19	0x3e063e9a	0.13109818
20	0x3e03f814	0.12887603
21	0x3de188f9	0.110124536
22	0x3e1637b1	0.14669682
23	0x3d4002ac	0.046877548
24	0x3db585e6	0.0886343
25	0x3dcbc6dd	0.099500395
26	0x3e1d2af6	0.1534842
27	0x3dbcf479	0.09226317
28	0x3ded98ac	0.116013855
29	0xba50ffb9	-0.0007972676
30	0x3e3e7494	0.18599159
31	0x3da8ec2d	0.08248172
32	0x3ddfc157	0.109255485
33	0x3dfaf791	0.12254251
34	0x3db937c3	0.09043839
35	0x3db7b4ef	0.08970057
36	0x3e2f1731	0.1709869
37	0x3e02f8c7	0.12790214
38	0x3d899587	0.06717973
39	0x3de431bd	0.11142299
40	0x3ddb3412	0.10703291
41	0x3d7e7c74	0.062130406
42	0x3bf044a6	0.0073324023
43	0x3d934307	0.07190519
44	0xbbaa2079	-0.0051918593
45	0x3e02422a	0.12720552
46	0x3ddb7aa4	0.10716751
47	0x3d804845	0.06263784
48	0x3e2e279b	0.17007296
49	0x3bd0e46c	0.0063748863
50	0x3dc95bf3	0.09831991
51	0x3d5abfd2	0.05340559
52	0x3e03ff87	0.12890445
53	0x3d9a2e3f	0.07528352
54	0x3d7c809e	0.061646096
55	0x3ce37aca	0.027768511
56	0x3ddc0a17	0.10744112
57	0x3dae8454	0.08521333
58	0x3df103a4	0.117682725
59	0x3d0e0626	0.034673832
60	0x3e1c8bad	0.15287657
61	0x3d9e6f39	0.07736058
62	0x3c7ceb5d	0.015436974
63	0x3da7a96f	0.08186614
64	0x3d891426	0.06693296
65	0x3e122b49	0.14274324
66	0x3d9efd67	0.077631764
67	0x3dcccaa6	0.099995896
68	0x3e087a53	0.13327913
69	0x3d537433	0.051624488
70	0x3da5eb49	0.08101518
71	0x3c66dbf3	0.014090526
72	0x3d69f7df	0.057121154
73	0x3d6fb762	0.058524497
74	0x3e0bfb4b	0.1367008
75	0x3d9149c3	0.07094147
76	0x3e108462	0.14113
77	0x3e0392ab	0.12848918
78	0x3d9dc34f	0.07703268
79	0x3cd0231f	0.025407372
80	0x3e106724	0.14101845
81	0x3e1c013a	0.15234843
82	0x3d490168	0.049073607
83	0x3d37e082	0.04489184
84	0x3d829416	0.063759014
85	0x3c90c15e	0.01767033
86	0x3d81e4ca	0.06342466
87	0x3d6cdd54	0.057828262
88	0x3dcb0fed	0.09915147
89	0x3d8764f7	0.066110544
90	0x3d397f28	0.04528728
91	0x3d554c4e	0.052074723
92	0x3de693b6	0.112586424
93	0x3d737708	0.05943969
94	0x3da961e5	0.08270625
95	0x3da3209e	0.079652056
96	0x3dedee31	0.11617697
97	0x3da3f6cc	0.08006057
98	0x3d9ed625	0.077556886
99	0x3d876935	0.066118635

beta f4 [200]
0	0xba2c417a	-0.0006571036
1	0xba1de30c	-0.00060229073
2	0xba1b3249	-0.0005920274
3	0xbbe6323d	-0.007025032
4	0xbb0c0027	-0.0021362395
5	0xbaecd180	-0.0018067807
6	0xb9a35513	-0.00031153168
7	0xba134ba0	-0.0005618874
8	0xbc0b75b6	-0.008511951
9	0xbc00dfaa	-0.007865826
10	0xbba4fdb3	-0.005035126
11	0xbbf313d9	-0.0074181375
12	0xbbe2b9ab	-0.006919106
13	0xbb8d5997	-0.0043136585
14	0xbb6fa25e	-0.0036565284
15	0xbbc62859	-0.0060472903
16	0xbab1fb14	-0.0013578855
17	0xbc12d43b	-0.0089617325
18	0xbb86aa26	-0.0041096387
19	0xbaacb88f	-0.0013177561
20	0xbb1c6e9e	-0.0023869644
21	0xb8ae16c0	-8.301204e-05
22	0xbbf4fbc4	-0.007476302
23	0xbbe586a2	-0.007004575
24	0xbb8511db	-0.0040609664
25	0xbbbc2b04	-0.0057424325
26	0xbb10f96c	-0.0022121323
27	0xbaf25398	-0.0018488048
28	0xbae39182	-0.001736209
29	0xbc05bc8b	-0.008162628
30	0xbc062e29	-0.008189716
31	0xbbecc49c	-0.007225586
32	0xbb508e14	-0.0031822966
33	0xba819d72	-0.0009888841
34	0xbb2f2a00	-0.0026727915
35	0xbbaa9e6d	-0.005206874
36	0xbc00cf9b	-0.007861997
37	0xbbbf3e02	-0.0058362493
38	0xba573e9a	-0.00082109275
39	0xbb52c3e9	-0.0032160229
40	0xbc0d6c8f	-0.008631839
41	0xbbc1741b	-0.0059037334
42	0xbb9e078a	-0.004822676
43	0xbba7a612	-0.0051162327
44	0xb91c2a40	-0.00014893059
45	0xbc061b2f	-0.008185192
46	0xbc062572	-0.008187639
47	0xbc03ac4a	-0.008036682
48	0xba38c5f0	-0.0007048538
49	0xba954e38	-0.0011391109
50	0xbbb41b05	-0.005496385
51	0xbb801fd5	-0.0039100447
52	0xbb3a52fd	-0.0028430813
53	0xb8a0f434	-7.674881e-05
54	0xbb4d57cf	-0.0031332856
55	0xbc051076	-0.0081216
56	0xbaba5900	-0.0014217198
57	0xbb5878e2	-0.0033031036
58	0xb966d7b8	-0.00022014871
59	0xbb8e822c	-0.004349014
60	0xbab5ee38	-0.0013880199
61	0xbbcc4b83	-0.0062345876
62	0xb73eb460	-1.1366879e-05
63	0xbb9cc58f	-0.004784293
64	0xbab6659f	-0.0013915783
65	0xba147155	-0.000566264
66	0xb9e111c8	-0.00042928592
67	0xbaa6330e	-0.001268001
68	0xba8f47e2	-0.0010931457
69	0xb90a092c	-0.00013164122
70	0xbbe2e50c	-0.006924277
71	0xbb6f7e76	-0.0036543882
72	0xba11e74c	-0.0005565777
73	0xbb7b22b2	-0.003832024
74	0xbb56666e	-0.0032714861
75	0xbc06c88c	-0.008226525
76	0xbb23bae6	-0.0024983226
77	0xbbca0fd8	-0.0061664395
78	0xb9f5d1e0	-0.0004688641
79	0xb92195dc	-0.00015409983
80	0xbc11f8c8	-0.008909412
81	0xba0aa89e	-0.0005289408
82	0xbbefeefe	-0.0073221913
83	0xb99a9123	-0.00029481304
84	0xbb05f7ff	-0.0020442007
85	0xbb2420ef	-0.0025044044
86	0xbbdf1548	-0.006807957
87	0xba2d8d30	-0.0006620465
88	0xbad14dfa	-0.0015968673
89	0xbc1222a9	-0.008919396
90	0xb9529340	-0.00020082016
91	0xb7fe92c0	-3.0347495e-05
92	0xba0c04ba	-0.00053412805
93	0xba8096c5	-0.0009810558
94	0xba9204b4	-0.0011140318
95	0xbb119fde	-0.0022220532
96	0xba401128	-0.0007326775
97	0xbbfab9cc	-0.0076515432
98	0xbb0024fc	-0.0019553294
99	0xbaf1b23a	-0.0018439956
100	0xbbde02db	-0.0067752427
101	0xbb9b29b2	-0.004735195
102	0xbb04c222	-0.0020257314
103	0xb9d04a54	-0.0003972823
104	0xba7c48d8	-0.00096238917
105	0xb994a36c	-0.0002835052
106	0xbb02a870	-0.0019936822
107	0xbab45aeb	-0.0013760006
108	0xb9ea9168	-0.00044740294
109	0xb8f62970	-0.000117379124
110	0xba46bfcc	-0.00075816805
111	0xbb08ab24	-0.002085396
112	0xb9f0c7ac	-0.00045925134
113	0xbb308388	-0.0026933867
114	0xbabd5160	-0.0014443807
115	0xbc08c8bd	-0.008348641
116	0xbb9baa80	-0.00475055
117	0xbafc17d8	-0.001923318
118	0xbc0ef105	-0.008724456
119	0xbb6a4dc9	-0.003575193
120	0xbbcdec77	-0.0062842923
121	0xbba6b3ee	-0.0050873673
122	0xbb38b83a	-0.002818598
123	0xbb7ed4cd	-0.0038884163
124	0xbbf22eea	-0.0073908465
125	0xbad8a915	-0.0016529883
126	0xbc09f14b	-0.008419345
127	0xbba64796	-0.0050744517
128	0xba105368	-0.00055055926
129	0xbb9a7693	-0.004713842
130	0xbb2afb1e	-0.002608962
131	0xbbdcfd44	-0.006744059
132	0xbc0ffe1c	-0.008788612
133	0xb8a27fbc	-7.748554e-05
134	0xbbe9a5d1	-0.0071303626
135	0xbc105adb	-0.008810724
136	0xb947f922	-0.00019070928
137	0xbbca046c	-0.006165078
138	0xb84b9650	-4.853896e-05
139	0xbad49eda	-0.0016221658
140	0xbaac3406	-0.0013138063
141	0xb8e35690	-0.00010840327
142	0xbb9b4392	-0.0047382796
143	0xbc06e917	-0.008234284
144	0xb9fb3968	-0.00047917222
145	0xb93f8e92	-0.00018268291
146	0xbbd7f8ab	-0.006590923
147	0xb9182bc0	-0.00014512148
148	0xb981f878	-0.0002478992
149	0xba72d0ea	-0.0009262698
150	0xb98c64d8	-0.00026778015
151	0xbbad8089	-0.0052948636
152	0xbb682402	-0.0035421853
153	0xbbc143a0	-0.005897954
154	0xbbb0c9d7	-0.005395155
155	0xbb10b923	-0.0022083006
156	0xbb88f7a3	-0.004179911
157	0xbb09767d	-0.0020975166
158	0xbc0bf2ff	-0.0085418215
159	0xba0651c4	-0.00051238784
160	0xbb816a98	-0.0039494745
161	0xba07a0de	-0.00051738124
162	0xbbea444f	-0.0071492563
163	0xb9928124	-0.00027943507
164	0xbb46aeb0	-0.0030316524
165	0xbb6e99c6	-0.0036407574
166	0xbb0abda6	-0.0021170168
167	0xbb53f95c	-0.0032344675
168	0xbb4525d2	-0.0030082357
169	0xbbee7082	-0.0072765956
170	0xbbefa506	-0.0073133735
171	0xb8a51310	-7.871364e-05
172	0xbac3d384	-0.0014940356
173	0xb91efad0	-0.00015161489
174	0xbbe45495	-0.006968091
175	0xbbf96de4	-0.007611977
176	0xbab2d40e	-0.001364352
177	0xbbcde9f5	-0.0062839934
178	0xbc08fdc9	-0.008361288
179	0xbad1110a	-0.0015950513
180	0xba1b4f54	-0.00059246016
181	0xbae2d0c8	-0.0017304653
182	0xba872744	-0.0010311385
183	0xbb5a75d4	-0.0033334391
184	0xbbd1e868	-0.006405879
185	0xb9b97ca0	-0.00035378803
186	0xbc0dcd34	-0.008654881
187	0xbbeb904e	-0.0071888333
188	0xb9145cc0	-0.00014148932
189	0xbbb48784	-0.005509319
190	0xbbfd9d1e	-0.007739677
191	0xbc10ab11	-0.008829848
192	0xbb094d94	-0.0020950781
193	0xbc133e7c	-0.008987065
194	0xba559004	-0.0008146765
195	0xbae6abd8	-0.0017598821
196	0xb527e000	-6.253831e-07
197	0xb90eeea0	-0.0001363107
198	0xbbca78c2	-0.0061789462
199	0xb8886dfc	-6.5054715e-05
